model/weighs_models/CNN-Attention-LSTM_model.pth (torch, 284443 bytes, 17 tensors)

conv1.weight f4 [64, 4, 3]
00000000: b20b 053e c173 973d e0ac 3fbe 1cec f2bc
00000010: 5504 b1bc 00b5 fe3d 5f9a d8bd 10d3 673e
00000020: c570 53be ce3f 83be 8995 6cbe c90f 063e
00000030: 6bd9 073e 8821 783c 2d39 0cbe 6a4e a0bd
00000040: acbe 723e 17a4 4d3c ab60 633e b939 233d
00000050: ce64 693d 6560 99be fb96 03be f26a 853e
00000060: eeb5 c8be 8127 3d3e 6442 b1be 502f ab3d
00000070: 034a bdbd 621b d53c 2531 4bbe 823b 9b3e
00000080: cc22 d5be e76c b43e e704 0d3f 201a e1bf
00000090: fafc 313e 4522 51be f0a4 d2be cf43 523e
000000a0: ffd8 6dbe 25c4 ccbe 12f9 983d 1d30 703d
000000b0: fe2a 4fbe 3d23 6cbd 1cc1 a0be c2fd 3a3f
000000c0: bba8 10bd 9eda 48bd 2066 f1bc 9b25 e73d
000000d0: 92bb 49bd 3e81 ca3c f5fb 343d f3cc ddbe
000000e0: 054e 36bd 4fe4 0e3d 3602 80bf 5a05 103f
000000f0: 8915 11bd 4c46 45bf f246 9b3e c751 9dbd
00000100: eb4a cebd 2975 2dbe e822 81be 3cf4 bfbe
00000110: 8ba0 b3be a908 743f 5ad7 4dbf 04b9 063e
00000120: 6099 a73e e6bf 7abe 21d5 74be 465b b53c
00000130: f702 5fbb 88dc 91be 643c b0bd 8e2b dbbc
00000140: 42a3 4bbe 030f 44bd 5d9e 18bf b553 1bbe
00000150: c291 2abe 61ce debe 4d7b 223f e5d9 7c3e
00000160: 44ab 2abe 5d31 59be 2db1 ccbe c5b4 cebe
00000170: cbba d5be d812 35bf 1642 0cc0 c3df 10bd
00000180: 984d 9c3d 6713 793d f981 45be 7b61 a1bd
00000190: 3deb 4a3e 914c 15bf fb75 c73e b3ef 52bd
000001a0: b48b 36be 87d1 9d3e 7a9f dd3d eba7 353c
000001b0: 50b7 6fbe 4e6d eb3e afa8 9b3d 461f 4ebd
000001c0: 765a 853c 6526 cfbe 8474 edbe 1b1b 813e
000001d0: 5b38 10bf 3d40 45bf 667f f73e f8df aebe
000001e0: 83ee a33d 488a a0be 6ba5 c5bc 9094 93bd
000001f0: 079d f33d f978 a33c 6b4d fdbe 4774 663e
00000200: 7a46 85be b13d ebbe 10c1 0a3f bb31 5ec0
00000210: 6122 13bf 5a22 a13c a9b1 98bd 71b7 1f3e
00000220: 296a bb3c 076c 773d 6e83 b5be 1827 26bf
00000230: dc33 b73e c44c bbbe 469a 0e3f 7b1c 3abf
00000240: 4178 e9bd d61f 24bc b1b0 6b3d 831b 1c3e
00000250: 4bc2 463e 2b1d 103d a3fa 283e c547 a6bd
00000260: 21c8 0fbe ecdc 053e b9e7 93be c1a1 77be
00000270: de9f 0c3d 7b16 143e 13ae 37be 6d45 24be
00000280: 79c4 7cbd 60e3 64bd e89b 803e 895d 853d
00000290: 826e 95bd a3b9 07be f7dc af3d eff0 213e
000002a0: fd15 373e 4f0d 6abe 572b 01bf 72f9 a0bd
000002b0: 0450 243e 605f 8c3c 8fc1 6bbe 5207 7fbd
000002c0: 0ada debe 8b53 eb3d 7d15 08c0 01a3 42bf
000002d0: 0b87 ccbd bb1e 53bc bd71 0cbf 1348 e53c
000002e0: 2d56 c23b 2e43 b33e fe3d 18be 6eba d53d
000002f0: cf33 7c3e c770 3d3c e1bb c2bf 35f9 843f
00000300: f605 683e 46c7 813e 5836 b5bd 9328 3dbe
00000310: 19ea 08be d7c8 b9bd 4040 283e 1554 8fbc
00000320: ce21 b2bd 4ee3 f2be f4f4 94bf 5801 28c0
00000330: c92a c1be fd33 993d 32af 41be a5b0 debd
00000340: 9999 fe3d fd2a 8b3e a563 943e 0ea9 23be
00000350: c858 a1bd c34a 163d f095 613e d4f9 eebd
00000360: 20e7 2bbe 5659 3a3d 025d 12bf 78e7 383e
00000370: 44a7 4abe 36d4 91be 4d86 1a3d fd5f 4bbd
00000380: c864 c1be 712a 2d3e 6f39 bfbf ac3d 5dbe
00000390: e3a7 7dbd d8d3 dc3e 67c9 b9be 8011 a63d
000003a0: e3f7 7cbd 067d b8bd 4216 95be 1dca a43e
000003b0: e8fe 5ebe 0ab3 f13e 3133 083f 9a85 17bf
000003c0: e584 dd3d 93f0 463e 0e96 01bd 2eab 09bf
000003d0: 3138 3b3f 8917 f13e 3b41 ec3e e76c 083e
000003e0: 9dba 27bd 1f5d 53be 1d45 c0bd 5b84 75bd
000003f0: e5c8 d0bd 182f 09be a01f 13be 200f 3bbe
0.12992743 0.07395125 -0.1871829 -0.029653601 -0.021608511 0.12436867 -0.10576319 0.22639108
-0.20648487 -0.25634617 -0.23103918 0.13091959 0.13266532 0.015144713 -0.13693686 -0.07827456
0.23705548 0.012551329 0.22204845 0.03984997 0.0569809 -0.29956356 -0.12850563 0.26058155
-0.392013 0.18472101 -0.34620965 0.083586335 -0.09242632 0.026014034 -0.19842966 0.30318838
-0.4162811 0.35239336 0.55085605 -1.7586098 0.17381659 -0.20423229 -0.41141462 0.2053368
-0.23227309 -0.39993396 0.074693814 0.058639634 -0.20231244 -0.057650793 -0.3139733 0.73043454
-0.035317164 -0.049036615 -0.029467642 0.112864695 -0.049251147 0.02471983 0.044185597 -0.43320426
-0.044508 0.0348857 -1.0000675 0.56258166 -0.03542093 -0.7706039 0.30327564 -0.076816134
-0.10072883 -0.16939224 -0.25221944 -0.37491024 -0.35083422 0.95325714 -0.80406725 0.13156515
0.32734203 -0.24487266 -0.23909427 0.02213825 -0.0034028867 -0.28488564 -0.086052686 -0.026754167
-0.19886497 -0.04786588 -0.59616643 -0.1516865 -0.16657165 -0.4351683 0.6346939 0.24692495
-0.16666895 -0.21210237 -0.39978924 -0.4037229 -0.41744074 -0.7073188 -2.1915336 -0.035369646
0.07631987 0.06080952 -0.19287862 -0.07879921 0.19816299 -0.58319956 0.389572 -0.051498126
-0.1782673 0.3082392 0.10821433 0.011087398 -0.23409772 0.4598183 0.07600533 -0.050322793
0.016278487 -0.4045898 -0.46377957 0.25215992 -0.5633599 -0.77051145 0.48339385 -0.3415525
0.08004477 -0.313555 -0.024126729 -0.072060704 0.11895185 0.019955145 -0.49473128 0.22505294
-0.26030332 -0.45945504 0.5420084 -3.4717853 -0.57474333 0.0196697 -0.07455761 0.15597321
0.02287777 0.060405757 -0.35451835 -0.649034 0.35781753 -0.36582005 0.5570415 -0.7269971
-0.1139989 -0.010017356 0.057541553 0.1524487 0.19410054 0.035184067 0.1650186 -0.08119158
-0.14041187 0.13072556 -0.28887728 -0.24182798 0.03433215 0.144617 -0.17937498 -0.16042109
-0.06171081 -0.055880904 0.25118947 0.06511981 -0.07296468 -0.13254409 0.085870676 0.15814565
0.17879482 -0.2285664 -0.50456756 -0.07860078 0.16046149 0.017135322 -0.23023055 -0.06226284
-0.43525726 0.11490544 -2.1263115 -0.76029974 -0.09986695 -0.012885745 -0.5486105 0.02798847
0.005930683 0.35012192 -0.14867398 0.10435949 0.24629138 0.011562533 -1.5213586 1.0388552
0.22658524 0.25347346 -0.08848256 -0.18472509 -0.13370551 -0.0907151 0.1643076 -0.017496148
-0.08697854 -0.47439045 -1.1637254 -2.625082 -0.37727955 0.07480619 -0.18914488 -0.10873536
0.1243164 0.27181235 0.28982273 -0.15982458 -0.07878262 0.036692392 0.22029853 -0.11668745
-0.16787386 0.045495354 -0.5717317 0.18057048 -0.1979037 -0.28482217 0.037725735 -0.04965209
-0.37772202 0.16910721 -1.4939402 -0.21605557 -0.061927687 0.43130374 -0.3628647 0.081088066
-0.06175984 -0.09008221 -0.29118544 0.3218545 -0.21776927 0.47206908 0.5320311 -0.59188235
0.10816363 0.1942771 -0.031637244 -0.53776824 0.73132616 0.47088268 0.46143517 0.13322793
-0.040949453 -0.20640992 -0.09388182 -0.059940677 -0.101945676 -0.13396871 -0.14367533 -0.18267488

conv1.bias f4 [64]
00000000: 3234 68be 1217 9cbe eaea c2bd 1c11 0ebc
00000010: 37a7 c73e 9d63 f4bd 4571 f93e 27db bbbd
00000020: ed1a dcbe 4ddc e5bb 5974 12bd 0f29 11be
00000030: 2f93 b1be f50c a2be 8e00 9d3e 192a a23e
00000040: 56eb 123e c815 aebe 39c5 bf3e 67d4 74be
00000050: add5 d2be 230a 83be 957f b5be 97a5 82be
00000060: 355e df3e 932f 01bd 8b2e d33e c918 84be
00000070: 6e4e 8abe 67b0 a1bd 0902 a7be afb1 46be
00000080: b3eb f0be 7dcb 1abe 31d5 b2be 0a71 91be
00000090: 73dc 803e 18f5 febe 353e 36be 2db6 8abe
000000a0: b4e6 0abe d783 49be 4932 c3be adc6 9c3e
000000b0: 3587 373e 8975 febe 8d0d 3d3e bb0d 2f3e
000000c0: 1bf5 6cbe 6a21 acbd 07e2 013f 3c02 90be
000000d0: 7e76 91be f643 0fbe ad42 f7bd bd14 99be
000000e0: 1baf e13e 4360 c2be 9526 aebe a8c2 1dbf
000000f0: 0859 403d 7653 59be 7769 ee3d c0c5 51be
-0.22676161 -0.3048635 -0.095174626 -0.008671071 0.38994762 -0.11933062 0.4871923 -0.09172659
-0.42989293 -0.0070147873 -0.03575549 -0.14175819 -0.34682605 -0.3165051 0.30664486 0.31672743
0.14347586 -0.34000993 0.37455156 -0.2390915 -0.41178647 -0.2559367 -0.354489 -0.2551696
0.43626562 -0.03153951 0.41246447 -0.2580016 -0.27012962 -0.07894974 -0.3261874 -0.19403718
-0.47054824 -0.15116687 -0.34928277 -0.28406554 0.2516819 -0.49796367 -0.17797168 -0.27092114
-0.13564569 -0.19679199 -0.38124302 0.30620328 0.17922671 -0.49699047 0.184622 0.17095082
-0.23140375 -0.08404811 0.50735515 -0.28126705 -0.28410715 -0.13990769 -0.12073264 -0.29898635
0.44078907 -0.37964067 -0.3401381 -0.61625147 0.046959907 -0.21223244 0.116412096 -0.20485592

attention.W_q.weight f4 [64, 64]
00000000: dbc4 cb3c 5224 86bd 736a be3e a3b4 b2bd
00000010: f337 ddbe 34eb 463e bc48 9ebe 99fe 4fbf
00000020: 763a 24bc 3982 a53e 4eec 1d3f 7183 adbd
00000030: 9d57 8cbe ceb8 7e3e ac21 f8bd 9414 80be
00000040: 0dda 09bf 6abf 99be 6363 4a3c a4f8 2ebf
00000050: b88e 09bf aea9 71bf 9e18 0fbe 00a5 ac3d
00000060: c9fc b1bc e4e8 35bf da1a 213d a818 c43d
00000070: b897 41be 0c83 9b3d 18c9 a1bf 9e16 f0be
00000080: 7cc5 86be 7c22 f1be 26bc 26be 9308 07bf
00000090: 24d2 e8bd a714 14bf 239e 89bd 1598 19bf
000000a0: a2c5 10bf 5758 a5be d933 cbbe 85df 5ebf
000000b0: fa34 c2be d03e 71b9 3e84 89bf 17a2 e8be
000000c0: f6b4 61bc f7a5 54bf 3c9d 21bf dd65 7d3d
000000d0: d092 e1be 030d 8dbe 3257 c7be e481 e0bd
000000e0: 8ae4 1dbe b586 13bf b96d dfba 71a1 07be
000000f0: fac3 babe f05e 54be 11a0 0dbf a0d2 923d
00000100: de29 823e 018b 263e 64b8 213f cddb c73d
00000110: c8f7 adbd 4f67 9cbd 35ae 23bf 50ea c4bd
00000120: 5ff6 063f 9754 2abe bcdc cfbe 10f9 c2be
00000130: 4d20 6fbe 7920 ad3e e4a4 60bf 9efa 3bbf
00000140: ef2c 1b3f ae47 4f3e 7d1a f0be 8fa1 853f
00000150: ad90 8e3d 5b8c c43e 17b7 d93f 825d 573d
00000160: f2b0 58bf c3f6 eb3e 0c46 9bbf bce6 893d
00000170: a57c 5dbe 42ed b4be 3e32 41bf 6f9d 3ebf
00000180: fcf6 3e3f 7452 ae3d 974e 80be e2ef 823e
00000190: 6854 84bf 7f72 5d3f 3fe5 c5bc ac03 743e
000001a0: 1cbf 033e 8dd2 823e 10c8 393e c5a4 283f
000001b0: e11e b4be 0cec 0b3e cdaf 9cbe b008 95be
000001c0: a2e6 2abd a7e0 4bbe 2f3b 06bf 5b7e 53bd
000001d0: 4942 243f 8367 7dbe a570 2f3a 21b8 a43e
000001e0: 9fa7 fdbe 4cf3 343f 2b51 0ebe 4df5 a53d
000001f0: e483 0e3f 7174 703e dc51 c13c 81cb 0d3e
00000200: b352 ed3d 076c 253b 88a6 9a3e 1f24 333e
00000210: 1304 523e a42a 393d 945e e7bb 7a5b 193f
00000220: e76e 053f 9d0c d0be d7f0 33be 70bb 7b3e
00000230: 7f9f abbc ab14 003e 57ac db3e aa21 e53e
00000240: 90d8 793f 4f3b 053f 0ad0 a43e 5832 673f
00000250: 4b63 d93e e71c a63f ebab ab3f 8215 b93d
00000260: 7081 573e 1846 6b3f bf48 153d 18c1 943c
00000270: dd46 cf3e 5084 ad3e 73dd 8f3f d1e0 b33e
00000280: e4cc 173f ed66 c73e 7765 2e3e 445d de3e
00000290: 0fa0 b93e a5f3 5b3f f6f6 d63c 75cf 933e
000002a0: 652d 113f 6319 923e 91b4 2a3f 548f 733f
000002b0: b172 1c3f 9dba 6f3e d0f6 4f3f 10b5 093e
000002c0: 3c94 c0bd 170f b43e de5a 1f3f a517 843d
000002d0: da8f 1a3f 1ede 943e 1566 c13e a16d b73e
000002e0: 4bfa b73e da35 563f e216 cb3e 761d e9bd
000002f0: 6264 fb3e e514 e73e b67f 143f 6696 c73d
00000300: d137 19be d405 48be e2ca f3be 05e4 ec3d
00000310: 5136 233e 575e 3d3d e4d5 773e 5890 f1be
00000320: 940c c8be 80c2 cd3e a22e 6d3e f990 f6bd
00000330: 3744 32bd 6ba0 5cbe 33d7 32bf 2842 f0be
00000340: 43ee 40bf 560f 8ebe ef50 5dbe 2d8a 43bf
00000350: 388c 06bf ea84 91bf aa48 b0bf 4558 713d
00000360: 7c49 82be e645 51bf a9f3 673d f0e3 debb
00000370: d1fc 39be 8d68 a6be ed13 80bf b769 23bf
00000380: 24eb 11bf 19eb 72be 0fc9 793d 413a 03be
00000390: 934a 07bf 7aac 5bbf fd0b 19bd 2d80 69be
000003a0: 087b ecbe b36b 87be 7586 32bf 2f64 34bf
000003b0: a3b8 41bf bc62 fdbd 71fd 18bf 1eca 34bd
000003c0: 4300 be3d 8a82 c2bd 5f9c 2fbf 78ab 7d3d
000003d0: b016 f0be 11fd 94be 5ecc dcbe a26e 9dbe
000003e0: 2ee2 04bf 6b9f 6fbf 3997 8dbe 1369 37bd
000003f0: 186e cfbe bb12 11bf f00a b1be 40fd 64bd
0.024874141 -0.06549896 0.3719059 -0.0872586 -0.43206748 0.1942566 -0.30914867 -0.8124786
-0.010023704 0.32325915 0.616887 -0.08472336 -0.27410594 0.24875185 -0.121157974 -0.250157
-0.53848344 -0.3002885 0.012352797 -0.68348145 -0.53733397 -0.94399536 -0.13974234 0.08429909
-0.021726983 -0.7105849 0.03933225 0.09575015 -0.18905532 0.075933546 -1.2639494 -0.46892256
-0.26322544 -0.47096622 -0.1628271 -0.5274746 -0.11368206 -0.5784401 -0.06719615 -0.59997684
-0.56551564 -0.3229396 -0.39687994 -0.87059814 -0.37931043 -0.0002300695 -1.0743482 -0.45436165
-0.013776055 -0.8306574 -0.63130546 0.061864723 -0.44057322 -0.2754899 -0.38933712 -0.10962275
-0.15419212 -0.5762742 -0.001704625 -0.13245179 -0.36477643 -0.20739341 -0.55322367 0.0716908
0.25422567 0.16263963 0.6317198 0.097587205 -0.08494526 -0.07636892 -0.63937694 -0.09615004
0.5271968 -0.16633831 -0.40598094 -0.38080645 -0.23352166 0.33813837 -0.87751603 -0.73429286
0.6061544 0.20242187 -0.4689521 1.0439929 0.069611885 0.38388333 1.7009 0.05257941
-0.84645 0.46086702 -1.2130752 0.06733462 -0.2162958 -0.35337263 -0.7546729 -0.74458975
0.7459562 0.085118204 -0.2505996 0.2557364 -1.0338259 0.8650283 -0.024157165 0.23829526
0.12865871 0.25551262 0.18142724 0.6587642 -0.3517981 0.13664263 -0.30602875 -0.2910819
-0.041723855 -0.19909917 -0.52434057 -0.051634174 0.64163643 -0.24746518 0.00066925056 0.3217173
-0.49541947 0.7068374 -0.1389815 0.08103428 0.5567 0.23481919 0.023598604 0.13847162
0.11588039 0.0025241391 0.30205178 0.17494248 0.20509367 0.04520668 -0.007060835 0.5990521
0.5212235 -0.40634623 -0.17572342 0.2458322 -0.020950077 0.12507884 0.42904922 0.44752246
0.97596073 0.5204362 0.3218997 0.90311193 0.42458567 1.297757 1.341184 0.090373054
0.2104547 0.9190383 0.03644633 0.01815848 0.40483752 0.3389001 1.1239456 0.3513246
0.59297013 0.38945714 0.17030893 0.4343053 0.36254928 0.8591865 0.026240807 0.28869215
0.5670989 0.28534994 0.6668177 0.95140576 0.61112505 0.23411031 0.8123598 0.13447976
-0.094032735 0.35167763 0.6224803 0.06449822 0.6037575 0.29075712 0.37773195 0.35825828
0.35933146 0.8367592 0.39665896 -0.11382572 0.49100024 0.4513313 0.5800737 0.09745483
-0.14962699 -0.19533473 -0.47615725 0.11566929 0.15938689 0.046232548 0.24202687 -0.47180438
-0.39072096 0.40187454 0.2316232 -0.1203937 -0.043522086 -0.2154557 -0.6985962 -0.46925473
-0.7536356 -0.27746075 -0.21612905 -0.76382715 -0.52557707 -1.1368687 -1.3772175 0.05892207
-0.2544669 -0.8174728 0.056628857 -0.0068020746 -0.18162848 -0.3250164 -1.0006081 -0.63833183
-0.5699942 -0.23722495 0.06098276 -0.12815191 -0.52848166 -0.85810053 -0.03736495 -0.22802801
-0.46187615 -0.26449355 -0.69736415 -0.7046537 -0.7567236 -0.12372348 -0.5976172 -0.044138066
0.09277394 -0.094975546 -0.6859798 0.061931103 -0.4689231 -0.29099324 -0.4312467 -0.3074847
-0.5190762 -0.9360263 -0.27654436 -0.04477794 -0.40513682 -0.56669205 -0.34578657 -0.05590558

attention.W_q.bias f4 [64]
00000000: 7844 57bf 64c8 0c3e e6c2 5b3f 3617 1fbf
00000010: 5a26 25bf cfa9 a83c 6c1e cabe 3e6b 4ebf
00000020: ab86 52bf 529a 79bf 857e 65bf 80b4 4bbf
00000030: ba7f 4fbe 8cdc 2a3f e814 28bf ae56 703f
00000040: 38c3 503e 797a 1c3e 3873 ab3d 8fb5 9d3d
00000050: 2b2e 5dbd 591d 5fbe a04b 3a3d 86ab 5bbe
00000060: b3e7 84bd 5da4 6d3e 271e 5f3e 880e 3dbd
00000070: 1818 583e d749 72bb 49bd 0a3c 361b 04be
00000080: b476 f5bf fdde 0140 527c 0ac0 7693 893f
00000090: b68a d13f 1a78 8fbf 440a bbbf 756c cc3f
000000a0: f573 0d40 d77f e13f 816a f93f 05cc 94be
000000b0: a5a3 08c0 80e0 0b40 2432 d7bf ab53 8a3f
000000c0: fce8 c4bd 60fe d0be bd9c 2ebf fa68 debe
000000d0: a5b2 61be 54fc 763e e0ac 0b3f ab2b 25bf
000000e0: 4e00 e9be 8e98 d13e 3603 1fbf 62db 00bf
000000f0: 48d3 c33e 96e7 debe 16ad abbe 34f7 90be
-0.8408885 0.13748318 0.85844266 -0.6214479 -0.64511645 0.020588784 -0.39476335 -0.8063239
-0.82236737 -0.975011 -0.8964618 -0.79572296 -0.20263568 0.6674278 -0.656569 0.9388226
0.2038697 0.15281095 0.083715856 0.07700645 -0.053999107 -0.21788539 0.045482278 -0.2145215
-0.064895056 0.23207231 0.21788846 -0.046156436 0.21102941 -0.0036970282 0.008467981 -0.12901005
-1.917685 2.0292351 -2.163838 1.0748127 1.6370456 -1.1208527 -1.4612508 1.5970598
2.2102025 1.7617139 1.9485627 -0.29061905 -2.134988 2.1855774 -1.6812177 1.0806783
-0.09614751 -0.40819073 -0.68207914 -0.43439466 -0.22040804 0.24119693 0.5456066 -0.6451976
-0.45508045 0.40936702 -0.62114275 -0.5033475 0.38247132 -0.4353606 -0.33530492 -0.283136

attention.W_k.weight f4 [64, 64]
00000000: 7009 103d 2540 4c3e 137e 94bd e39c 613e
00000010: c600 74be 6a2f e43e 3d00 1abf 98b7 b13e
00000020: fd7b 3f3f 3b1b 24bf 93a9 5e3d 551a f43d
00000030: 276c 7c3e 2ce9 c53e d8cd 1d3e a18f b4bc
00000040: b6c0 31bd 8349 693d dcc5 6f3f bbef e9bc
00000050: 5224 debd 82d9 193f 66e4 c63e 20fc 4b3e
00000060: 95f5 a23e 1d9b 05be a29a 0d3f 4b86 bf3d
00000070: ae3c 963e 2046 c73e ad62 3040 4350 903f
00000080: 3fdc 613e 30da f53d e443 b63e a787 c33d
00000090: 9400 573f 3da4 293f 04be 98bb 3ce2 243d
000000a0: 4a73 233e 2c63 823e 35f6 063f 5fb3 b6be
000000b0: 27f3 3c3d 9cb4 04be 5c1e 9ebd 7cf2 f4be
000000c0: f7b2 26bd 250a 333f 9645 0fbf 806c 253d
000000d0: 2250 e33e 0256 bf3e af2f 9c3d bf90 913e
000000e0: e8f7 193f f302 1d3f e01a a53e 8c79 2f3f
000000f0: a5c2 fcbe 6bb3 8a3f 2385 4abf 23c8 d73d
00000100: bfdd abbd 239e 90be 72ea b73e cb93 dcbe
00000110: fb6e 0f3e 39f8 73bd 672b b43f dbf4 023e
00000120: 5229 f9be 313a 433f f363 693f 668e 153f
00000130: 5649 b43e 4cfa 50be 1501 ba3e 0dcf 8ebe
00000140: b6a3 993e bd16 ccbe 2d02 563f c4cf 4d3e
00000150: c5c4 79be b012 2ebe 321a 5dbe d764 bcbd
00000160: 1c97 de3e 6f7d 043f 8fb9 b53c 4827 64bd
00000170: d06a e6bd d027 063f 2c8a 3b40 e07a 7c3f
00000180: 643f 9abd 490e 63bf 425a 7ebe b3d7 d3bd
00000190: 9339 4a3f 5b32 e6be 6380 70bd 17e8 cebe
000001a0: 4c55 8ebe dc4a 00bf 94d2 723e 49c6 773e
000001b0: 0543 9abe dbed 643d 6747 cd3d 1b16 09bf
000001c0: 626e 0b3d 3207 7abf e3e1 8b3f 6222 903d
000001d0: dad4 0bbd 47f0 b4be bca4 eebd 06ae 3dbe
000001e0: f875 b33f dd05 a5be 5495 0fbe 952f 493e
000001f0: 81da fd3e bc71 0a3f 959f 573f ca62 89bc
00000200: 6d40 10be 6210 7cbe f0df 62bb fe95 8dbe
00000210: d7c9 7c3e 8fa6 16bf 7c17 663f 1cf7 cdbe
00000220: c634 debe 02a8 1b3f bd88 423e ddcf 993e
00000230: fd09 3abe 6e10 b9be 9943 9cbe 7bca aabd
00000240: 8ce6 3e3e df82 06be b2f6 8ebf 774b 6c3e
00000250: 4fdd 87be 6f7d ddbe a7d8 f7bd d210 f9bd
00000260: 4e73 95be f1d8 a13e dfc6 06bf 30db 83bd
00000270: 1e7d e0bd 3316 7cbe 76e9 27c0 f9ae 99bf
00000280: 4e27 0fbd e4b4 8abe 1588 d8be 40b3 96bd
00000290: e6cc 4ebf daa7 1dbf 7fee 253d 06de 8dbe
000002a0: c37f 93be 3fc8 b2be 47a3 10bf fec5 bd3e
000002b0: 79b2 88be 3757 f73d 73c5 103e 5ab5 6c3e
000002c0: 5eb4 873d bb86 34bf bd5c 483f 27ec a2bd
000002d0: 0884 d5be 61a3 06bf 189e bbbc 915e 82bd
000002e0: 555f ddbe 2edf 1cbf 59f7 5ebe 2728 1dbf
000002f0: 0850 b33e 00d2 8ebf 7be3 3e3f 0a09 07be
00000300: e5be 283e 9a98 f23d 0cd8 26be abce b03d
00000310: ee9d f5bd 84f8 273f d9e2 72bf 04d7 2f3e
00000320: 579c 023f a53a c0be b416 4ebe a853 33be
00000330: 4c08 933e 1e54 653e 22c3 a73d 5797 cabd
00000340: 8810 53be 39d8 573e ff92 983f b36b bfbe
00000350: 8c26 e03e d85f f03e 2f4b 253e 0e3f 0c3e
00000360: 8cd0 e13e 9068 abbe 1d2f 1e3f 1ea0 c23b
00000370: 595f 653e 3db7 ba3d 1733 3240 1b11 963f
00000380: 9bc0 e73d caff 0c3e 8764 d83e c156 4f3e
00000390: 15e6 433f 07d7 d03e 3b11 04bd a70e 433e
000003a0: 50d9 e33e 667a ce3e 0613 cf3e 2ec6 07bf
000003b0: 814d 8c3e e2ee 39be 343c 11bd e578 89bc
000003c0: 698c 79bd 11ed 293f b273 58bf da80 20bd
000003d0: b73d 6b3e b7fa d03e 0fad 26bd 45be 103e
000003e0: e9fb e63e 4a22 fc3e 2c04 8b3d b370 0a3f
000003f0: 289c b7be d2d3 803f 0a86 2fbf 53ce 0b3e
0.03516525 0.19946344 -0.07250609 0.22032504 -0.2382842 0.44567424 -0.60156614 0.34710383
0.74798566 -0.6410405 0.054360937 0.11919085 0.24650632 0.3865446 0.15410554 -0.022041144
-0.043396674 0.056954872 0.93661284 -0.028556695 -0.10846771 0.60097516 0.3884613 0.19920397
0.3182799 -0.13047452 0.55314076 0.09351786 0.2934317 0.3892069 2.7560227 1.1274494
0.22056673 0.120045066 0.3559867 0.09547358 0.8398526 0.6626623 -0.0046613235 0.040254816
0.15961948 0.25466287 0.5271943 -0.35683724 0.046130326 -0.12959522 -0.07720634 -0.4784125
-0.040698018 0.69937354 -0.55965555 0.040386677 0.44397074 0.37370306 0.076262824 0.28430745
0.601439 0.61332625 0.32247066 0.6854484 -0.49367252 1.0836004 -0.791094 0.1053622
-0.08391904 -0.2824565 0.35921055 -0.43081507 0.1400718 -0.059562895 1.4075745 0.12788717
-0.48664337 0.7626067 0.91168135 0.5842041 0.352122 -0.2040798 0.3632895 -0.27892342
0.30007714 -0.39861098 0.8359707 0.20098788 -0.24391468 -0.16999316 -0.21592024 -0.09198921
0.43474662 0.51753896 0.022183208 -0.055701524 -0.112508416 0.524045 2.9303083 0.9862499
-0.07531622 -0.8869367 -0.24839118 -0.10343876 0.789941 -0.44960293 -0.05871619 -0.40411445
-0.2779945 -0.50114226 0.23713142 0.24196734 -0.30129257 0.0558909 0.100233845 -0.53549355
0.034040816 -0.9766723 1.092831 0.07037808 -0.034138538 -0.35339567 -0.11652514 -0.18523416
1.4020376 -0.32231036 -0.14021808 0.19647057 0.49580768 0.54079795 0.8422788 -0.01677074
-0.14087076 -0.24615625 -0.003461834 -0.27653497 0.24686371 -0.588479 0.89879584 -0.40227592
-0.43399638 0.60803235 0.18997474 0.300414 -0.18167873 -0.36145347 -0.30520323 -0.08339401
0.18642634 -0.13135861 -1.1169035 0.23075663 -0.26536033 -0.4325976 -0.1210187 -0.12161411
-0.29189533 0.31610826 -0.52647203 -0.06438291 -0.10961364 -0.24617843 -2.6236243 -1.2006522
-0.034949593 -0.27091134 -0.42291322 -0.07358408 -0.807814 -0.61584246 0.04051065 -0.27708453
-0.28808412 -0.349184 -0.5649914 0.3706512 -0.26698664 0.12077182 0.14137821 0.23116055
0.06626199 -0.7051808 0.7826651 -0.07955199 -0.41702294 -0.52593046 -0.022902533 -0.06365693
-0.43236795 -0.61278045 -0.21774043 -0.6138939 0.35021996 -1.1157837 0.7456586 -0.13187042
0.1647907 0.11845513 -0.16293353 0.08633169 -0.11993013 0.6561358 -0.9487739 0.17171866
0.51019806 -0.37544742 -0.20125848 -0.17512381 0.28717268 0.2239537 0.081915155 -0.09892147
-0.20611775 0.21078576 1.191986 -0.37386855 0.4377941 0.46948123 0.16141962 0.13695928
0.4410442 -0.33478212 0.6179064 0.0059394976 0.22399653 0.09116981 2.7843683 1.172397
0.113160335 0.13769451 0.42264196 0.20247938 0.7652295 0.40789053 -0.032242995 0.19048558
0.44501734 0.40327758 0.404442 -0.53036773 0.2740288 -0.18157533 -0.035457805 -0.01678128
-0.06092492 0.6637736 -0.8455154 -0.039185382 0.22972761 0.4081628 -0.040692385 0.14135082
0.45114067 0.4924491 0.06787905 0.54078215 -0.35861325 1.0064642 -0.685639 0.13652925

attention.W_k.bias f4 [64]
00000000: 30e6 a4bd 4fcc ac3d dd4f 33bd 3cff f2bd
00000010: 3d20 993d bc66 91bd 2e81 32bd 55c8 f93d
00000020: 3fd2 56bd 6ba0 be3d 9489 b2bd fe65 923d
00000030: df40 553d 95ee 77bd 59c6 49ba df89 85bd
00000040: 5b09 8c3d 2d29 7f3d 4778 e4bd e624 c0bd
00000050: c795 abbb 4524 ebbb fd4c 673d c695 123d
00000060: 72c8 c33d 112a edbd 51ea 68bb e815 393d
00000070: 962d 943c 1e74 9bbb ab26 07bc ee97 c9bd
00000080: b60f 873b 3f24 a4bd e580 d1bd da67 c83d
00000090: adef 50bd b87e a63d 3814 a83d 0de9 243d
000000a0: 4b2f 3cbd 83da 1a3e c4c1 a2bd 4791 d93d
000000b0: 7f60 e13c 2a34 203e 84e2 963d 90f5 073e
000000c0: abc8 f0bd 2cd4 8abd f2cb 003c 70d1 5e3d
000000d0: 5629 463d 8f24 dc3b 7299 eb3d d84b d53b
000000e0: c684 db3c 7889 aa3c 2078 32bb 6891 15bd
000000f0: cf15 a53d d766 88bd d457 41bd 9c86 c53d
-0.08051717 0.08437406 -0.043777335 -0.11865088 0.07476852 -0.07099673 -0.043580227 0.121964134
-0.0524466 0.09307941 -0.08717647 0.0714836 0.05206382 -0.060530264 -0.00076970976 -0.065204374
0.06837722 0.062295128 -0.111557536 -0.09382038 -0.0052363607 -0.0071759545 0.056469906 0.035787366
0.09559716 -0.11580289 -0.0035540054 0.045186907 0.018088143 -0.004744067 -0.008248965 -0.098434314
0.004121746 -0.08014726 -0.10229663 0.09785433 -0.051009823 0.081296384 0.082069814 0.040261317
-0.04594354 0.15122418 -0.07947114 0.106234126 0.027511833 0.15644899 0.07367423 0.13277268
-0.117570244 -0.0677875 0.007861124 0.054398954 0.048379265 0.0067182253 0.11503877 0.0065092854
0.02679671 0.020817503 -0.0027232245 -0.036515623 0.080608 -0.0666024 -0.0472029 0.09644815

attention.W_v.weight f4 [64, 64]
00000000: 11a7 84bc 16b9 d9bc 3bc6 6ebe 6565 f8bd
00000010: f179 773e 9d56 dd3e 8495 44be 9341 423e
00000020: 046c a8be b481 6ebe d8ae 72be 03d3 e73e
00000030: 1ae1 37be 9e47 dcbc f2a0 38be 3683 6b3c
00000040: a5d9 2cbf bfad 0bbe e074 e83d 0e32 90be
00000050: d110 1e3e 3825 073d 5912 95be 3540 05bd
00000060: 6ba5 b6bd 2ff7 423e 4b3b 103e 8fb2 913a
00000070: 705b 2abe b781 9f3e 354b 8f3e 3073 c8bd
00000080: fe3c 6e3e 6efd 9bbe 34f6 033e ec70 bc3d
00000090: b7e1 eebe 2c9b 3c3e 3739 c6bc 7eba 353e
000000a0: f790 d03e 6818 3d3d 525b fbbe 057d b9be
000000b0: 0375 87bd be8a ea3c ef2b 29bf 405e b23d
000000c0: 9495 d93c 8521 8cbd 69a8 88be 0f2c c03d
000000d0: 66e5 8b3b d5fb ae3e 470f a2be 918d 343e
000000e0: 10f4 2c3e f18f 873e 7b3d 27be ee53 063d
000000f0: bbd8 ef3d 6fc6 a93f 6bd6 ca3e 071d e3bd
00000100: c4e6 413d e1e9 973d 3c8a dc3d a472 d43d
00000110: ff41 ae3d 654d e5be adc3 cd3d 8b07 7b3e
00000120: ea82 82be e767 cc3c e480 69be cf2f 1bbf
00000130: 6284 87be f305 35bd 325a 4a3c fc9f 7bbd
00000140: 1f1c 973e e487 d3bd 25de 063d 176e cd3c
00000150: 9025 49be 7801 f13d cbba 32be 5057 fdbc
00000160: a3b9 d83d 9a5a 223e 24ec 703d 0305 70bd
00000170: fec3 713e 8b05 f7be d803 edbd db8f 2b3f
00000180: 5af9 9a3e 08f7 2fbd 4793 30be debd 94be
00000190: feb6 3f3e c84a 7bbd 723e df39 e85a 1ebe
000001a0: 9bda 7fbe 80f4 dbbd cce0 5bbe f9c1 3e3d
000001b0: cb96 0ebd 6400 b3bc 6fcd 043f ff42 e8bc
000001c0: b229 13bd b83c 033e 427d d13d 768e 253c
000001d0: 9b73 ca3d 0251 b9be f377 c83d 128a 73bd
000001e0: 3298 b9bd 9fc1 82be b9f1 773e 4d7a cdbe
000001f0: 8250 44bd 8b68 69be c3b7 5bbe 4501 f53d
00000200: d651 d53b 77ed a03d 73b8 ce3d c991 ff3c
00000210: 717d 3e3d 61cb 5bbe 06d8 093d abfa a6bd
00000220: 1226 e2bd 43d2 90bd 49e8 ed3d 0813 c4be
00000230: 1dab b4bd 616b 8ebc a735 d73d 426c 023e
00000240: 9184 a43d 3110 3bbe 665d 2bbd 8614 e8bc
00000250: 4c8b 3bbf ea07 96bd d8fa 2cbc 904a 123e
00000260: 1112 ce3c e2f6 843c 40e1 24bd 76ca b4bd
00000270: 620a 543e f2a3 413e 652e 823e 2c01 153f
00000280: 6a07 9c3d 8372 d2bc f213 d33d 7b66 fdbd
00000290: 0955 973c 624c 743d b2fd 23bd 96f7 0cbe
000002a0: 93b8 10bf 0d29 d53d 745e 07be f3f0 c93d
000002b0: 2abe dfbd 3f9d 903d 36c9 ca3e 20ed ddbe
000002c0: 479a f93c 5acd a33d 3139 c5bd 2faa f33c
000002d0: b2f1 a23d b09d 69be 69a3 773e 56fb d2bd
000002e0: 0d01 623d 9047 cb3c 8ee4 bd3c 2695 1bbe
000002f0: fa67 2c3e d519 2abe 0a4b 2cbe 6e44 62bc
00000300: b368 2ebe 8f62 dc3d df1e f2bd 6133 b8bd
00000310: 9405 2a3e 504a 203f ae2e 91be 313a 2fbc
00000320: 653a 00bf 1842 cfbd 3ab7 0f3d 15b6 f93e
00000330: d2b9 523d fa33 9bbc b08a edbd fadc 843c
00000340: d3c9 cfbe cf7d 1dbd edc9 413e 1419 00bf
00000350: a2ef 773e 0a47 b8bd 50bd b5be d799 c6bd
00000360: a2ea 2e3d 8532 583e 8367 c53e 793b e0bc
00000370: 6f72 46bc 2eed 113f a4bc 873e d14a 81be
00000380: 79d0 bf3e e795 81be 5ec1 8f3e 40ba 473e
00000390: bcfd cdbe f309 ac3e b4e0 f7bd 0875 763e
000003a0: 01f1 f83e f152 24bd 72a8 05bf 7a3f d0be
000003b0: 2f32 533c 4e77 de3d 6bbf ffbe 6f53 193e
000003c0: 9990 37bd 06cd 313d c0d5 e3be f5aa 32bd
000003d0: 5681 333e ce83 c33e c3e1 debe 3545 0f3e
000003e0: 9680 493d 6909 7d3e fa86 38be 4646 803e
000003f0: 7a7f 703e fb58 9d3f c073 353e 6790 5e3d
-0.016192945 -0.026577514 -0.23317806 -0.121287145 0.2416761 0.43230143 -0.1919766 0.18970327
-0.3289491 -0.23291665 -0.2369951 0.45278177 -0.17956963 -0.026889618 -0.18030146 0.014374545
-0.675196 -0.13640498 0.11350417 -0.2816319 0.15436102 0.03299448 -0.2911556 -0.032531936
-0.0891827 0.19039606 0.14085118 0.0011115837 -0.16636443 0.31153652 0.27987066 -0.09787595
0.23265454 -0.3046679 0.12886888 0.09201226 -0.46656582 0.18418568 -0.024197204 0.17746922
0.407356 0.046165854 -0.4909311 -0.36228195 -0.06614115 0.02863061 -0.6608266 0.08709383
0.026560582 -0.06842331 -0.26690987 0.093834035 0.00426929 0.34176508 -0.3165228 0.17632128
0.16889977 0.26477006 -0.16332047 0.032794885 0.1171126 1.3263682 0.39616713 -0.11089521
0.047339216 0.07417656 0.107685536 0.103734285 0.085086815 -0.4478561 0.10047088 0.24514596
-0.25490505 0.024951888 -0.22803074 -0.60619825 -0.26468188 -0.044195127 0.012350606 -0.06143187
0.29513642 -0.103286535 0.032926697 0.025076909 -0.19643235 0.11767858 -0.17454068 -0.030925423
0.105822824 0.15854874 0.05881895 -0.05859853 0.23609921 -0.48246416 -0.11572999 0.6701638
0.30268365 -0.042960197 -0.17243682 -0.29051107 0.1872215 -0.061350614 0.000425804 -0.15464365
-0.24985735 -0.10739994 -0.21472472 0.046571705 -0.034811776 -0.021850772 0.51875967 -0.028352259
-0.035928436 0.12816131 0.10228969 0.010104766 0.09885331 -0.36194617 0.097885035 -0.059457846
-0.09062232 -0.25538346 0.24213304 -0.4013237 -0.04792834 -0.22793786 -0.21456818 0.11963133
0.0065099997 0.07857793 0.10093775 0.031197445 0.04650635 -0.21464302 0.03365328 -0.0815328
-0.110424176 -0.07071354 0.116165705 -0.3829577 -0.088217 -0.017385187 0.1050828 0.1273661
0.080330975 -0.18267895 -0.04183712 -0.028330099 -0.73259425 -0.07325728 -0.010557853 0.14286256
0.0251551 0.016231004 -0.040253878 -0.08827679 0.20707086 0.18910196 0.2542602 0.58204913
0.076186016 -0.025689369 0.10306539 -0.12373062 0.018473165 0.059643157 -0.040036865 -0.13766322
-0.5653164 0.104082204 -0.13219625 0.098604105 -0.10924943 0.07061242 0.39606637 -0.43344975
0.030469073 0.07998152 -0.09630049 0.029744236 0.07956256 -0.2281406 0.2418343 -0.10301845
0.055176783 0.024814397 0.023180272 -0.15193614 0.16836539 -0.16611417 -0.168255 -0.01381026
-0.17032127 0.10760986 -0.118222944 -0.08994175 0.1660369 0.6261339 -0.28355926 -0.010695026
-0.50089103 -0.10120028 0.035086848 0.4877173 0.051446743 -0.018945683 -0.11598718 0.016218651
-0.40583667 -0.03845006 0.18924685 -0.50038266 0.24212506 -0.089979246 -0.35495996 -0.09697311
0.042704232 0.21113022 0.38555536 -0.027372109 -0.012112244 0.5700253 0.2651111 -0.25252393
0.3746374 -0.2530968 0.28077215 0.19504642 -0.40232646 0.3360134 -0.121034056 0.24068081
0.4862137 -0.04011816 -0.5221015 -0.4067343 0.012890383 0.10862599 -0.49950728 0.14973234
-0.044815633 0.043408416 -0.44499016 -0.04362007 0.17529806 0.38186496 -0.43531618 0.13991244
0.049194895 0.24710621 -0.1802024 0.25053614 0.23486128 1.229278 0.17719936 0.05433693

attention.W_v.bias f4 [64]
00000000: abdc 063d 15a0 4cbd 9803 44bb 56e0 223d
00000010: b8b1 153c 01de 17bd 4ee6 80bc e025 c43d
00000020: 9f9b 233c b171 e63b 56ed 2a39 40a4 8e3b
00000030: 17ff b83a 6899 e13b 5b4c 343c 45a4 153c
00000040: 8611 a7bd e44d aabb f575 4cbe 4f5c 3d3c
00000050: 158d adba 3588 143c 1dc1 743c 3ddd 6cbd
00000060: 2c9b fdb9 8c82 37bc 9553 3e3c 25d0 13bc
00000070: ef59 60ba 92f9 aebc 799a 34bb a22b 0a3e
00000080: c4f5 ee3d 63a6 3dbd b062 dcbd bd25 74be
00000090: 1276 fabd f4a1 073e 2baf e5bd 8e59 50be
000000a0: c630 af3c 114e 68bd f43d fabc f07c cb3d
000000b0: fdf5 c53b 55d5 d7bd 680e cc3c 8cad f0bc
000000c0: 0aac cb3b 1314 1b3c 1ce0 58bb e21a 9ebd
000000d0: b8a6 d0bc 261e 443c 3b6a 23bd 3fa1 ba3c
000000e0: 4ebb 8b3d 3c8a 1e3d 7a60 3cbd 72f7 b6bc
000000f0: 83ab 753c 461d 793c dcf8 35bb abc0 bfbc
0.03292529 -0.049957354 -0.0029909369 0.039764725 0.00913661 -0.037076954 -0.015734818 0.095775366
0.009985833 0.007032596 0.00016300878 0.004353076 0.0014114109 0.0068847425 0.011004533 0.009133403
-0.08157639 -0.0051972736 -0.19966872 0.011557653 -0.0013240898 0.009065677 0.01493862 -0.057828177
-0.00048371532 -0.011200558 0.011616607 -0.0090217935 -0.0008558323 -0.021359239 -0.0027557893 0.13493207
0.1166797 -0.046301257 -0.10761011 -0.23842521 -0.122295514 0.13245374 -0.11215051 -0.20346662
0.021385562 -0.056715075 -0.03054712 0.09935939 0.006041287 -0.10538737 0.024909213 -0.029379629
0.006215577 0.009465235 -0.0033092564 -0.07719971 -0.025470123 0.011970079 -0.03989623 0.022781966
0.06822835 0.03870605 -0.045990445 -0.022334788 0.014994505 0.015204733 -0.002776674 -0.023407301

attention.W_o.weight f4 [64, 64]
00000000: 2178 71bc 65fb 33be fd48 e43c 1693 febb
00000010: b14b b53b 5487 02bd dc84 08be 5a1d 94bd
00000020: 631b 03bc bcc3 453c 7493 f03c 0ef9 cabd
00000030: 5c97 bdbc a1e8 52be 2126 8abd 854f 053e
00000040: 0f58 66bd 8e55 c1bc 8d9f 1c3d ea28 153d
00000050: 8935 48bd e0e9 44bd 829f d43d ec7e 7f3d
00000060: fca6 a53d a405 963d 828b 7d3d a853 963d
00000070: 93b5 90bc 35b9 ad3d f6cb 853c 85f6 3dbd
00000080: 0974 a53d ba47 adbd ddf6 46bd ae4e b6bd
00000090: 28a1 ed3d 33cd abbd 7e0b 483e e666 cd3d
000000a0: ffab 56be 14a5 253d 47fc 543c 5edd cb3c
000000b0: ed2f 123e 4429 28bd d488 e4bd 2abb 343c
000000c0: 1cd5 c2bb bf60 193d 8e9b 69bd 06a1 093c
000000d0: 744e cf3b a5c7 143e 9932 41bd 82f1 413e
000000e0: a197 193e 91d4 163e 4c21 15bd b187 eebd
000000f0: 136c 90bd de51 69bd 5e18 afbd 7f2e e63c
00000100: ec9f 2d3d 7ca4 eebd aa06 c83c 4880 5dbb
00000110: f841 373d 1b8c 2ebd dd4f 483d c75d d33c
00000120: 693b 8d3d 5567 0d3d 2d57 bebc 5ea8 1b3d
00000130: d599 dbbc bba0 ebbc 40e6 e63b 8500 9cbd
00000140: ddd3 8fbb 1367 9d3d dec5 b4bd 6000 1cbd
00000150: d2db 5abd 7c27 fbbc dc0c e4bc f525 efbc
00000160: 3f0f c43c 861d c63c c840 a23c 66cd 013d
00000170: 4030 cabd 6781 3abd e05b 0cbd 54ea bdbd
00000180: 9dec 9cbd 67de 5e3d edf8 be3d 6cbb f8bc
00000190: 36db cbbc 7efe de3c c4c0 f1bc 6a33 05b9
000001a0: 4c71 dcbd 1403 b0bd d7d2 58bd 2017 13be
000001b0: 6dc3 51bd fbef 1a3b 1704 5abb 7415 c03c
000001c0: 9179 08bd b86a 783c c62b f3bb 66fb e03c
000001d0: 7809 923d ec11 273c 9289 44be 8434 6c3c
000001e0: bfaf b83c 29a8 343d df64 0e3e 1dd9 28be
000001f0: 74e6 29bd 346a 0ebe 53a2 f2bc 02e2 8cbd
00000200: c39f 843b 8445 1dbe 26a1 33be cfc5 68bd
00000210: 50d6 f23b 6349 9c3c ed41 73bb 7983 2ebe
00000220: c314 ccbc 4f03 87bd b557 003e 251f 81bd
00000230: 5339 6cbc 6017 003e 14b9 09bb ad7e 353d
00000240: 3ff4 75bd f4e2 023d ee06 213b e125 e5bd
00000250: 60c2 663d d702 efbd 5cc0 533d 058b 0d3e
00000260: dc8b 063b 98a1 443c 18d4 643c 833d 413d
00000270: e792 8c3b 9b60 5a3c 21a1 d43c 8b11 26bd
00000280: 3b99 ef3c 69ed 743d 9713 fb3d 2848 dc3d
00000290: 1b1d e5bd 528f 063d 8368 85bc a08c fcbb
000002a0: c17a cabd a95a 46bd 8169 b9bd c800 8d3d
000002b0: 7bbf 37be e5d1 3bbc 798d 133d 07d2 08bd
000002c0: 46e2 25bd 1489 cd3d 3fbf f9bc 9e22 b53c
000002d0: a5f1 023e 9ddc 833e cfd7 3cbd bb24 223d
000002e0: 27f6 e13c 4a3d ed3d 65df acbd 989d 74bc
000002f0: e4a7 97bc 27b1 b93d c36d 683d ab27 14bd
00000300: 6b17 0abc 8f57 99bd 0f5f 2a3d 95fe aa3d
00000310: 2f08 0f3d 2050 c93d 6515 153e b1c2 913d
00000320: 8cc6 a2bd 87c6 063e 847d 983d 1b41 91bc
00000330: 7a52 a13c 5ae4 0cbe 8dfa 85bd f6b5 653d
00000340: 8c37 893a 3d2d a2bc bf45 a73c 0a93 5f3d
00000350: 0cc8 eebb a83a e7bb 5134 353e 80f4 04bd
00000360: 7712 04bd c8a3 123d ebb7 bf3d 5478 a33d
00000370: ab4a 383d 9a37 efbc b8d9 b4bd 8e5e 57bc
00000380: f39d 343d 3564 ba3d df7a 83bd f689 ef3c
00000390: 692f 433c 67b4 323c e175 7d3d 54d6 17be
000003a0: 7fcb a83d caf5 413e 6db3 543d fa61 9abd
000003b0: 7524 b1bc c328 2fbd 77f7 0dbe 3fa7 eb3d
000003c0: 956f 3dbb 7151 fd3a 6868 b7bc 3292 0abd
000003d0: 1d36 e53c eb25 19be 484a 07be a74f 96bd
000003e0: 9b4b babd b66f 783d d39e 0dbe b532 3bbd
000003f0: 26a4 653d 1519 a4bc 4450 6a3d 77b1 713d
-0.014738114 -0.17576368 0.027866835 -0.007768999 0.0055327048 -0.03186734 -0.13331932 -0.07232161
-0.008002135 0.0120705925 0.029367186 -0.09910785 -0.023143463 -0.20596553 -0.06745554 0.13018616
-0.056236323 -0.023600366 0.038238097 0.03641597 -0.04887918 -0.048074603 0.10381986 0.0623769
0.0808849 0.073252946 0.061900623 0.07340175 -0.017664706 0.08482591 0.016332608 -0.046377677
0.080787726 -0.084609464 -0.04857527 -0.08901726 0.11603004 -0.08388748 0.19535634 0.10029392
-0.20964049 0.040440634 0.012999601 0.02488583 0.14276095 -0.04105498 -0.111589104 0.0110309515
-0.005945815 0.03744578 -0.057033114 0.008400207 0.006326491 0.14529283 -0.047167394 0.18939784
0.14999248 0.14729525 -0.036408707 -0.11646975 -0.070518635 -0.05696284 -0.085495695 0.028098343
0.04238884 -0.11652467 0.02441724 -0.0033798385 0.044740647 -0.042614084 0.04890429 0.025801552
0.06896097 0.034522373 -0.023234928 0.038002364 -0.026806751 -0.028763166 0.007046491 -0.076172866
-0.0043892697 0.076856755 -0.08826803 -0.038086295 -0.053432293 -0.030658476 -0.027838163 -0.029192904
0.023933051 0.024184 0.01980628 0.031690024 -0.09872484 -0.045533564 -0.034267306 -0.0927321
-0.07662318 0.05441132 0.093248226 -0.030362807 -0.024884801 0.02722096 -0.029510863 -0.00012703022
-0.10763797 -0.08594337 -0.052935448 -0.1436429 -0.051211763 0.0023641575 -0.0033266598 0.02344773
-0.03331906 0.0151621625 -0.0074209897 0.027463626 0.07130712 0.010197144 -0.19193104 0.014416818
0.02254474 0.044105683 0.13905667 -0.16489072 -0.041479543 -0.13907701 -0.029618418 -0.06879045
0.0040473654 -0.1535855 -0.17541942 -0.05682927 0.007410802 0.019077962 -0.0037118152 -0.1704234
-0.024912244 -0.06592428 0.12533458 -0.063047685 -0.014417964 0.12508917 -0.0021014856 0.04431026
-0.060047384 0.03195472 0.002457078 -0.111888655 0.056337714 -0.116704635 0.05169712 0.13822563
0.002053014 0.012001418 0.013966583 0.047177803 0.004289973 0.013328697 0.025955738 -0.040544074
0.02924787 0.059796724 0.12259596 0.1075595 -0.11187192 0.032851525 -0.016285187 -0.0077071935
-0.09886695 -0.048426304 -0.090533264 0.06884915 -0.17944138 -0.011463617 0.03602359 -0.033403423
-0.040498994 0.10035911 -0.030486701 0.022111233 0.12787493 0.25754252 -0.04610425 0.03958581
0.027583195 0.115839556 -0.084410466 -0.014930151 -0.018512674 0.09066992 0.056745302 -0.036170643
-0.008428435 -0.074874036 0.04159456 0.08349339 0.034919914 0.09829736 0.14558943 0.071172126
-0.07948026 0.1316167 0.07445815 -0.01773124 0.019692648 -0.13758984 -0.065419294 0.056081735
0.0010468825 -0.019796962 0.020419 0.054583587 -0.007287031 -0.007056553 0.17695738 -0.032459736
-0.032244172 0.035800725 0.093612514 0.07981935 0.044993084 -0.029201318 -0.08830589 -0.013145102
0.044095945 0.09101144 -0.0641992 0.02924059 0.011913159 0.010907269 0.061879996 -0.14827853
0.08241939 0.18941417 0.051928926 -0.07538219 -0.02162383 -0.042763483 -0.13863932 0.11506509
-0.002890562 0.001932664 -0.022388652 -0.03383083 0.027979905 -0.14955871 -0.1321193 -0.07339411
-0.09096452 0.06065341 -0.13830118 -0.045702655 0.056064747 -0.020031491 0.057205454 0.059007134

attention.W_o.bias f4 [64]
00000000: 9461 28b9 4015 c73a ad3f 873c e3e3 b3bc
00000010: 7a19 13bb ff1c 0f3d 38ef 66bc 19cf 033e
00000020: 7288 99bd d77a cfbc e5ac b73b f045 0a3d
00000030: b080 b83b 1ca9 533d 41dd 6fba 958c ca3a
00000040: 8cc4 c73b 7d42 ff3c 5eff 3ebd 8f65 2ebc
00000050: 5885 6d3c faaf 6b3c 0b0e a3bb c5ec 263b
00000060: 6ce0 c0bc b5ac bcbb adab 273e ffd9 cfbb
00000070: 9e60 faba 1a11 933e f856 a9bb 80cd 35be
00000080: 0fe8 093c bd9e 5ebc b2d6 5cbd 68e2 13bd
00000090: 535e 0cbd e6f6 bebd 3864 1f3d 3952 7a3c
000000a0: 01fb 583c d6b0 f0bc 12b7 993b 581c 203d
000000b0: 87f4 6d3c 5bc2 a33e c419 07bf 43ad 89bd
000000c0: 925f 443c 016f 803c 85c3 ecbc c1c4 05be
000000d0: 711e b23d 8cb1 a8bc e2bc 873c df1a ba3c
000000e0: 2285 573d 0050 28bd 7dec 8c3e a51f 133d
000000f0: abe8 2bbc 9b0a a83c 4981 783c 61a2 86bc
-0.00016058079 0.0015188828 0.016509855 -0.02195925 -0.0022445605 0.034939762 -0.01409512 0.1287197
-0.07496728 -0.02532713 0.0056053274 0.033758104 0.005630575 0.051674947 -0.0009150096 0.0015453274
0.0060964283 0.031159634 -0.046630256 -0.010644331 0.014497124 0.014385218 -0.0049760393 0.0025470715
-0.023544513 -0.005757893 0.16374083 -0.006343126 -0.001910228 0.28723985 -0.005167838 -0.17754173
0.0084171435 -0.013587651 -0.053915687 -0.03610459 -0.034269642 -0.09324436 0.038913935 0.0152783925
0.013243438 -0.029381197 0.004691013 0.03908953 0.014523632 0.3198422 -0.5277369 -0.067225
0.011985676 0.01567793 -0.028901825 -0.13063337 0.086972125 -0.020592473 0.016569559 0.022717891
0.0526172 -0.04109192 0.27524176 0.03591885 -0.010492484 0.02051287 0.015167543 -0.01643485

lstm.weight_ih_l0 f4 [32, 64]
00000000: 51d2 23be 92c1 45be 777e 0cbe 5c71 f0be
00000010: 70a6 653c 9951 ec3e 4793 b93e 17be e5be
00000020: 2273 1e3e f461 4bbf f517 3fbe 0b7b 0dbf
00000030: be7b 59be a253 75bf 2c1c eb3d 6336 ecbd
00000040: d22d e3bd 0e0b 8d3e 9755 1e3f 5537 8dbe
00000050: 353b d63d dd97 023f cf44 35be 52ec ab3e
00000060: 4681 4d3f cfe9 afbe bb76 30be 2e5a c0bf
00000070: 0822 de3e 9d99 9d3d a76a 1fbc c286 1bbe
00000080: 3d85 103c 65a6 7fbf 7b12 a7be f981 f13d
00000090: 18e2 88be 8682 df3d 3ec7 e23e 3c63 913f
000000a0: 5ed2 cf3e 4c75 d23f 0ac2 723d eb1a ac3e
000000b0: caa9 103d 6ee2 3abf 9c8c 403f 849d babc
000000c0: ebf1 ac3e efdf 1e3f 8b1a fc3e df39 9a3d
000000d0: 9870 5ebd 52df 21bf 0f60 a3bf 7074 093e
000000e0: 54ba 8bbe 3d7c 8bbd 7bcd 52bf 2972 5e3f
000000f0: 0c9b c4be d496 92bc d4e7 2cbe c84e b93e
00000100: 10f4 d1bd dccb 2bbd 4498 15bd 177e 04be
00000110: 9d04 80be 0cf7 543d 10e4 07bd c0c7 17bf
00000120: 5bfb f73d 45f2 7bbd 9d51 f7bc 8047 63be
00000130: 72cf 623c d105 963d 6063 c1bd 4d25 d13c
00000140: 116b aa3d 089d 6ebd 208d 58bd 29be c4bd
00000150: c769 ec3b 34d2 c93d a004 28be 1882 e4bd
00000160: e6f1 cabd 3747 0ebc 5e72 283e 4ca3 dc3c
00000170: 9bde 42bd 3f50 71bd cc9a 79bc fdf1 e7be
00000180: 3a96 0e3e 9dbf 72be 6d39 0d3d a1e8 46bd
00000190: a0d6 b1bd c22f 26be 598a 323d 68e4 cf3c
000001a0: ff66 b3bd a7ae e9bc 3100 7dbd f5e0 343d
000001b0: 1dfe 0ebe 499a 40be 3c86 0c3f 7bea 3c3d
000001c0: b9e2 f0bb 5c3e 703d a7f6 a23e ae2f f83e
000001d0: cd65 f13e 7aa8 edbd d2ee 85be 804c 213d
000001e0: 3857 5fbd 5bfc 9bbd d127 a7be b3bf a23e
000001f0: fd2d db3c ce1b a23d b541 553d 4f62 1bbd
00000200: c7ee 19bc d9fe 92bb c9c6 f2bb 07df aebc
00000210: 8b2c 8fbd e887 99ba 5f51 febb 191b 4b3d
00000220: b88c 143d ea4b 403c 5930 d73a 3811 893e
00000230: 0e1b 3bbb 1ccd 733e 5b84 6bbc 0e20 b2b8
00000240: 422c 29be c207 92bd 19b7 3abe 633b 82bc
00000250: bf0e 083c b04e 573d 3658 8f3c bbf4 4bbc
00000260: 47ec 363d 737b 8cbc fc15 efbe 121a 0cbc
00000270: 3684 0f39 0eb9 9b3e 1fdb e93b 5586 823e
00000280: 2bf6 9f3b 015a 8d3b 23ee 533e ad87 dfbb
00000290: be89 6dbd 452b 8d3e 2b40 cf3c 3dff d73a
000002a0: 8600 56bd 5dec 80be 2054 3fbb f17c 923c
000002b0: 595e 84bd 276b 2e3e f626 bcbe 2b6c 6e3d
000002c0: c733 19bc 45d6 c2bb 2032 063d e920 323e
000002d0: ac34 8fbc 8785 6bbc 7319 4a3e e30c 173b
000002e0: f770 33bd 03db 2abc 624e 2a3e dd7c 8fbc
000002f0: e6eb 743c 802f 32bc 35e7 e53b 426b 34bb
00000300: 2ca0 1e3e 3bb8 c93c 1239 753a 1a8b 75bd
00000310: 1e9c b03e 7ba3 a53d 88bf 84bd 71f6 a2be
00000320: 5257 0a3f dab2 c2bc 92f4 1c3d 1de4 73be
00000330: c8f0 00bd 2f9a cebd 24a4 05bd c02f 74bd
00000340: 0d5e a03d f2a1 963d 1e91 173e af5b 7cbd
00000350: 378f 873c 86c6 583d 125b e23c 56c7 30bd
00000360: e7ed d4bc a0d0 ad3b e6eb afbe ff36 05bf
00000370: 1d4b d3bc 854e 8dbe 0800 36bd 423f ec3e
00000380: 2bf9 92bb dc7f f1bd cc34 1c3d 8330 193e
00000390: 3cf7 3d3e 0ca8 99bc db08 13bd 1db5 41bd
000003a0: 2859 cabd 714a f83e 7742 b2bc 7e72 75bd
000003b0: b6a2 13be 9da1 8fbe 78cd a83e 68f8 1d3e
000003c0: 6fa4 b4bc 48a5 d9bd 3b7c 83bd 103c 2e3e
000003d0: 31c4 abbe 1418 2cbb 2b56 7bbe f144 783d
000003e0: 6d59 8fbe f8f3 683d 7f5a 48bd 0529 8bbd
000003f0: 53d7 8c3d 604c 293d e0bf 503d 5709 4abd
-0.15998198 -0.19312122 -0.13720118 -0.46961486 0.014016733 0.46156004 0.36245176 -0.4487159
0.15473607 -0.7944634 -0.18661483 -0.55265874 -0.2123861 -0.9583074 0.11479983 -0.11533811
-0.11092724 0.27547497 0.6184935 -0.27581277 0.104605116 0.51012975 -0.1770203 0.33578736
0.8027538 -0.3435807 -0.17232792 -1.5027521 0.4338534 0.07695315 -0.009730018 -0.15188125
0.008820829 -0.9986327 -0.32631287 0.117923684 -0.26734996 0.10913567 0.44292635 1.1358409
0.40590185 1.6442046 0.05926708 0.33614287 0.035318173 -0.73001754 0.7521455 -0.022780187
0.3377832 0.62060446 0.49239 0.07530569 -0.054306597 -0.63231385 -1.276369 0.13423324
-0.27290595 -0.06810806 -0.8234479 0.86892945 -0.3839954 -0.017894186 -0.1688531 0.36192918
-0.10251629 -0.041942462 -0.036522165 -0.12938724 -0.2500352 0.051993415 -0.03317648 -0.5928917
0.12108489 -0.061510343 -0.030190283 -0.22195244 0.013843404 0.07325328 -0.094427824 0.025530482
0.083212025 -0.058255225 -0.052868962 -0.09606583 0.007214758 0.09854546 -0.16408014 -0.11157626
-0.0990942 -0.008683971 0.16449878 0.026933335 -0.047575574 -0.05891442 -0.01523466 -0.4530181
0.13924494 -0.23705907 0.034478594 -0.048561696 -0.086835146 -0.16229156 0.04358897 0.025377467
-0.08759879 -0.028525664 -0.06176776 0.04415985 -0.13964124 -0.18808855 0.54892325 0.046122056
-0.007351246 0.05865322 0.31828806 0.48473877 0.4714798 -0.116044 -0.26158768 0.039379597
-0.054526538 -0.07616492 -0.32647565 0.3178688 0.026755327 0.079154596 0.052064616 -0.03793555
-0.009395308 -0.0044859466 -0.007408951 -0.021346582 -0.06990918 -0.0011713477 -0.007761165 0.04958639
0.036267012 0.011736849 0.0016417607 0.2677095 -0.0028550061 0.23808712 -0.014374818 -8.493672e-05
-0.1652079 -0.07130386 -0.18233909 -0.015897458 0.008304297 0.052565277 0.017498117 -0.012448485
0.044658925 -0.017148709 -0.4669646 -0.0085511375 0.00013686795 0.30414623 0.007136717 0.25493112
0.0048816404 0.004313708 0.2069631 -0.0068215937 -0.05799269 0.27572075 0.025299152 0.0016479265
-0.052246593 -0.2518033 -0.002919443 0.017881842 -0.06463308 0.17033063 -0.36748475 0.058208626
-0.009350724 -0.005945953 0.032762647 0.17395367 -0.01748117 -0.014375097 0.1973627 0.0023048453
-0.043808904 -0.010428193 0.16631463 -0.017515594 0.014948821 -0.010875583 0.0070160874 -0.002752975
0.15490788 0.02462398 0.00093545124 -0.05994711 0.34494108 0.08087822 -0.06481844 -0.31828645
0.5403949 -0.023766924 0.038319178 -0.23817487 -0.031479627 -0.10088002 -0.03262724 -0.05961585
0.07830439 0.07355107 0.14801452 -0.061610874 0.016547782 0.0529237 0.027631316 -0.04315885
-0.025992347 0.005304411 -0.34359664 -0.5203704 -0.025792653 -0.27598968 -0.044433624 0.46142012
-0.0044852695 -0.11791965 0.03813629 0.14959912 0.18551344 -0.018756889 -0.035897117 -0.047291864
-0.098802865 0.48494294 -0.021760209 -0.05992364 -0.14417538 -0.2805299 0.3296926 0.1542679
-0.022051064 -0.10627228 -0.064201795 0.170151 -0.3354812 -0.002625947 -0.24544589 0.060612623
-0.27997914 0.05687329 -0.04891443 -0.06794933 0.06877007 0.041332603 0.050964236 -0.049325313
