model/weighs_models/CNN-LSTM_model.pth (torch, 215212 bytes, 9 tensors)

conv1.weight f4 [64, 4, 3]
00000000: 0447 bbbe e302 87bd 8faa a03c 5047 2c3e
00000010: c846 42be 6800 953d bf83 7cbe c41e 9dbe
00000020: 833b 593e 494c 443e 7962 6c3e eb1e 843e
00000030: 48e4 633d 4b00 86be 32a2 8f3e b44a 82be
00000040: 17b4 2abe f3ab c13d 2356 423f 3d69 c13e
00000050: 90be 8abe 81e1 b4bf 2b3b a7c0 e2da 28bf
00000060: 1cea 823d 9766 c8bd 901b d63d b284 4f3d
00000070: 22dc 1ebe 2ffa 8c3d be85 5a3d 3504 ebbb
00000080: c6ba 2b3e 39eb 91be 17fd 0cbe dbb5 d5bd
00000090: 90f7 d5bd 8773 753e bb43 acbc d2dd 53be
000000a0: 86e8 183e a2a6 8f3d 967e 263d 70cb ef3d
000000b0: 5bd1 52be 4e57 65be bc58 3a3f 7195 17bf
000000c0: 344d 20bd 98cb 3fbe 13e6 163e c76d 7c3e
000000d0: e20b 12be d40d 1fbd 9a48 f0bc 4bf9 98bd
000000e0: 0abb f7bc d720 cb3e 86b2 153f 5330 29bf
000000f0: 9f36 d8be e445 9abd b04d 3ebe aa90 6a3d
00000100: 730c 2cbd c13d 863c 5622 54be e129 91be
00000110: 7607 8ebe 08d1 673c c21f a13e de11 cc3e
00000120: 8f87 28be 1774 8a3e 2f7e 14be 2ede 46be
00000130: fc41 e33d 40d8 7e3d 6599 823e 96b8 663e
00000140: 74dc 87be 0aff e83e ac2d 1c3f 1827 15bf
00000150: 6792 7dbe 1ffd aabe dbde 1e3e 3d12 f13d
00000160: adae 3c3e c875 f83e 113a f93d 0bac ab3d
00000170: c755 c93e 5a64 cdbc fdbc 9a3e e538 54bf
00000180: e6bc 38be 4dff 07be 8d43 2a3d 6720 eb3d
00000190: b9f5 bdbd 2477 00be 84f0 0fbc a231 7f3d
000001a0: 1628 dd3e c749 eb3e 649d e83e f68e b9be
000001b0: e7bc 8bbe aaef 093e 2aba cdbd 2e98 a23d
000001c0: c4b7 b5bd 9cbc 153d 9e05 43be b32f 343e
000001d0: b480 6fbe 2e39 5abd e8c5 abbd 71ad b5bc
000001e0: f2e6 eabe 72a2 91be f2d4 95be e241 8a3e
000001f0: 4fcf 6bbd 1033 8a39 403e 04bf 8118 82be
00000200: 457a 98be f410 e3bc 56f7 933e e0e6 5b3c
00000210: d3d4 42bc 1971 fcbb 1067 3e3e 661f 083e
00000220: d80f 04be 73db 9abd e44d 87be 2ef3 5b3e
00000230: 4bc2 6a3e 2885 1fbe 88b2 07bf 4e39 1a3e
00000240: 9920 38be 7f90 a1be e1a5 313e a97f e33d
00000250: 9a1b 9b3c a861 45bc 10f5 0abf fef3 edbe
00000260: a291 b73e 8196 e7be 5cd1 21c0 d6a3 4cbe
00000270: 79dd 86bd b752 41bd 6c8e 72be 568e 763e
00000280: 69d6 92be ebe2 2c3e 56b2 84be 5f4f cdbd
00000290: cf82 bbba 68c2 7fbe 81c6 ba3d 85dd bcbd
000002a0: 13c1 b3be 3d93 8e3e 312d e13e b77e f43e
000002b0: e159 ba3e 716a 2f3e 6a87 b8be d414 5bbe
000002c0: 4411 483f 0108 45be afd8 8fbe c342 4d3e
000002d0: 63b1 22bc 815a 093e 006f 68be 5b80 abbc
000002e0: 4422 3dbe 4418 1b3d b69b 51be a055 a83d
000002f0: e4b9 253c cf6f 453e 7367 403f 0bd5 debe
00000300: 6cf5 b9bd 0f38 7f3e b8d5 6c3e 87a9 b1bc
00000310: 1b08 47bb 09f4 fcbd 06ff 04bd 2c1c 733e
00000320: 1904 803e 07b8 563b 272e 39bf a94f babe
00000330: dbe3 153e 333a 7aba 525f 483e fd79 e9bd
00000340: f528 5ebe 6458 2fbe 4a67 bdbe ce5c 0fbf
00000350: 51e3 9e3e 01be b0bc d5ce b8be ff82 3f3e
00000360: 46bf 9abe bed9 0e3e 100e 593e 8630 06bd
00000370: 3894 0a3e e092 f5bd 3791 77be e615 ef39
00000380: 74d2 cf3d e374 543c 9a2b 0bbe 4431 0e3f
00000390: 29fd 2b3d fb18 47bd 4b75 823d 6555 4fbe
000003a0: 7be8 433e e91a 7d3d 2f23 483d 3c9e f13d
000003b0: c844 1b3e 644a 22be fae6 0f3d a5f5 d23c
000003c0: db10 f83d 509a dd3d 3755 0abe 27ec d33d
000003d0: 4a4f 6dbe c137 a7bd 0352 803d a6e0 b5bb
000003e0: 5918 ad3c 964b 22be ad74 243e 4859 ff3c
000003f0: f019 50be a9d8 383d 764e 5fbe 222f b7bd
-0.36577618 -0.065923475 0.019612579 0.16824079 -0.18972313 0.07275468 -0.24659632 -0.30687535
0.21214108 0.19169725 0.2308444 0.2580484 0.055637628 -0.261721 0.28053433 -0.2544762
-0.16670261 0.09456625 0.75912684 0.37775603 -0.27098513 -1.4131318 -5.2259727 -0.6595899
0.06392309 -0.097851925 0.10454476 0.050663657 -0.15513662 0.06883656 0.053350203 -0.0071721324
0.16770467 -0.28499773 -0.13768421 -0.10435077 -0.104476094 0.23969851 -0.02102839 -0.20690086
0.1493245 0.070142046 0.040648066 0.117087245 -0.20587675 -0.22396585 0.7279165 -0.59212404
-0.039136127 -0.18730009 0.14736204 0.24651252 -0.14262345 -0.038831547 -0.029331494 -0.07469424
-0.030240554 0.39673492 0.5847553 -0.6608936 -0.42229173 -0.07532862 -0.18584323 0.05726687
-0.04200406 0.016386868 -0.20716223 -0.28352264 -0.27740067 0.014148958 0.31469542 0.39857382
-0.16457961 0.27041695 -0.1450126 -0.19420692 0.1109657 0.06221795 0.25507656 0.22531351
-0.2653538 0.4550708 0.6100719 -0.5826278 -0.2476288 -0.3339624 0.155147 0.11771057
0.18426009 0.4852736 0.121692784 0.08382424 0.39323255 -0.025072265 0.30222312 -0.82899314
-0.18040809 -0.13280983 0.041568328 0.1148079 -0.092753835 -0.12545449 -0.008785371 0.062303193
0.43194646 0.45954725 0.4543258 -0.36241883 -0.2729256 0.13470331 -0.100452736 0.07939182
-0.08872941 0.036556825 -0.19045112 0.17596321 -0.2338894 -0.053277187 -0.08387357 -0.02217743
-0.45879322 -0.28444248 -0.29264027 0.2700339 -0.05757075 0.00026359456 -0.51657486 -0.2540932
-0.29780784 -0.027718045 0.2889964 0.013421744 -0.011891562 -0.007703912 0.18594003 0.13293228
-0.12896669 -0.07561388 -0.26426613 0.21479484 0.2292568 -0.15578139 -0.5300679 0.15060923
-0.17981185 -0.31555554 0.17348434 0.111083336 0.01893406 -0.012047209 -0.54280186 -0.46475214
0.35853297 -0.45232013 -2.5284033 -0.19984373 -0.06585211 -0.047198024 -0.23687142 0.24077734
-0.28679207 0.16883437 -0.2591731 -0.100249045 -0.0014305952 -0.24976504 0.09119893 -0.09221939
-0.3510824 0.2784671 0.4397979 0.47752926 0.36396697 0.17130448 -0.36040813 -0.21394664
0.78151345 -0.19241334 -0.28095004 0.20044999 -0.009929988 0.13413431 -0.22698593 -0.020935228
-0.18470103 0.03786494 -0.20469555 0.08219457 0.010115121 0.19280933 0.7515785 -0.43521914
-0.09080014 0.24923728 0.23128402 -0.021687282 -0.0030369821 -0.123512335 -0.03246977 0.23741215
0.25003126 0.0032763497 -0.7233605 -0.363889 0.14637701 -0.00095454155 0.19567612 -0.114002205
-0.21695311 -0.17123562 -0.36992866 -0.56000984 0.31032804 -0.021574976 -0.360953 0.18702315
-0.30224055 0.1395025 0.2119677 -0.03276112 0.13533103 -0.11990905 -0.24176489 0.00045601948
0.101475626 0.012967321 -0.13590851 0.55543923 0.04198948 -0.048607808 0.06370028 -0.20247419
0.19131653 0.06179324 0.04886168 0.11797759 0.15162957 -0.1584869 0.035132386 0.025751898
0.1211259 0.108204484 -0.1350907 0.10347777 -0.23174778 -0.08164931 0.062656425 -0.005550462
0.021129774 -0.15849146 0.16060133 0.031170502 -0.20322394 0.0451285 -0.21807274 -0.08944537

conv1.bias f4 [64]
00000000: e5bd f53d 84f8 dfbd 0043 58bd dd52 873d
00000010: e55b f9bc c7de a5be ae88 4dbe 04e6 33be
00000020: 16fa 54be 16ea 37be a16d abbb bda3 103f
00000030: e8dc aabd 7204 7cbe 1d92 b3be 3648 dbbd
00000040: 348e 263e 658a d3be 82db 8a3e 4b91 9cbe
00000050: 1930 afbe cc3c c0be dbee 903e c147 c5be
00000060: 8e28 3bbe 6c2b d7be eeb8 85be 7595 93be
00000070: 099c 24be 97ec f23d c2a4 1cbe d4e0 013f
00000080: 3e5b dbbe b07b f73c db07 e23e f2e5 26be
00000090: c316 18be bf85 883e a513 4fbe 77b5 a8bd
000000a0: 9552 a6be 42af 5bbe 402f 6b3e 322d 4e3e
000000b0: d588 e33e 5b7f 49be 2fef 8dbe d5c0 4cbe
000000c0: 642f 8cbe 5739 43be 76b0 06be 89fd 9abe
000000d0: 23a3 ecbd 5d79 bdbd 3007 20be 7fbb 8ebe
000000e0: e545 fbbd bfae 98be dd8e edba c02b 79be
000000f0: c124 19be 3219 903e dcea 513c ba48 98be
0.1199911 -0.109360725 -0.05279827 0.06607602 -0.030439327 -0.32396528 -0.2007167 -0.17568213
-0.20798525 -0.1796039 -0.0052315746 0.56499845 -0.08342916 -0.24611071 -0.35072413 -0.107071325
0.16265184 -0.41316524 0.27120596 -0.305796 -0.34216383 -0.37546384 0.28307232 -0.38531306
-0.18277189 -0.42025316 -0.26117653 -0.28824964 -0.16075148 0.11861532 -0.15297225 0.50733685
-0.4284305 0.030210346 0.44146618 -0.16298655 -0.14852433 0.2666454 -0.20222338 -0.08237737
-0.3248488 -0.21453574 0.22967243 0.20134428 0.44440332 -0.19677489 -0.27721545 -0.19995435
-0.27379906 -0.19064842 -0.13153252 -0.30271557 -0.11554553 -0.09251664 -0.15627742 -0.27877423
-0.12269191 -0.2982082 -0.0018124242 -0.24333096 -0.14955427 0.28144222 0.0128123425 -0.29742986

lstm.weight_ih_l0 f4 [32, 64]
00000000: 925c 51bd f718 323f a898 e2be 444c 9c3e
00000010: 2d4c c73e 1ed6 e3be 34f5 ea3e 0b09 e7bd
00000020: 4c8c a4be d87f 063e 1d5d d2bd 7975 83bf
00000030: 55b4 2e3e 5d24 903e fedc e3bd 92f5 9fbe
00000040: 9917 ec3c b63b 1dc0 39f5 e5be 2512 b9bc
00000050: 61a1 533d 02fc 75be 596f 15be 483c 913f
00000060: c6da 8fbf 7d35 bbbe 4534 8bbe 340a 1abf
00000070: f77a 943d e5df c3be bb7d 8abf f1b4 5ebf
00000080: 55c8 bc3e 88f6 873d 4fbd 24bf 2e0e 01bf
00000090: c4d6 0ebf b843 123d 3ff4 393e 0372 203e
000000a0: c5e0 c6bf d56d 0abf a26e 96be 1986 3ebf
000000b0: 79ab 403d e574 e63c 08b6 94bc 9b5a a0be
000000c0: cb1b 48be e1bf 3e3d 17e7 e43e c4eb ba3e
000000d0: 9750 c93e 8a25 a1be bda0 d23e 50c2 993f
000000e0: c461 043e 7b8e 14be 988f d53f a9fd 86be
000000f0: 0712 b9be 713f 023f d6a4 963e 9985 9a3c
00000100: 9415 cabe 022e c63d 7948 06be e809 3cbf
00000110: 1722 89bf 3813 08bf fb30 87bf 86b1 d53e
00000120: 27ac dfbe daf5 a23e 4b9a 18bf e882 aabe
00000130: a070 f2be 1789 803e 7db0 f6be 7ff8 29bf
00000140: 17e7 54bd 2056 36be d83c eebd fbc6 c8bd
00000150: 9304 d43d c5b4 643d d608 773e 530d b63e
00000160: a10c 18be bf75 f23e 2d29 783e ab16 cb3b
00000170: c470 19bf 4e48 39bf 3fd7 3cbe 349c 4cbe
00000180: 705d 173f cace 5fbf a635 bdbe 97b4 4fbf
00000190: 7cac f8be fa84 b5be 2396 02bf aaef 1abf
000001a0: 03a5 1b3e 899d 96be b171 c1bb bb5b adbe
000001b0: 54c4 7d3f 5c13 8abe 09b9 6bbf e5c0 47bd
000001c0: 3d99 e7be 3de4 b0bd a7eb d5be 876e e2be
000001d0: 3e29 1a3e c32e 10bf 2704 65bf 8479 68bf
000001e0: 2f97 7d3d ee0b 32be 15ca efbe 6810 6f3e
000001f0: 8c77 b6be 62d2 c33e b1da 8b3e 89cd dc3e
00000200: 1e90 efbe 32bc 4abf bc49 4e3e 0811 443e
00000210: 2e66 2abd fd74 a4be 6361 9e3e 7d0e a1be
00000220: e479 c13e 9ce3 83bd 058a 363c c074 68bf
00000230: 6190 d5be 072b 6e3e 542f bcbe 9077 573e
00000240: dd95 bbbd dc07 85bf 766d 84be bc0a 6bbd
00000250: 4027 57be 4379 163f bc35 1bbf 59e5 3bbf
00000260: 4c36 2fbf ed68 833e a311 923e b4b5 acbe
00000270: b753 603e 7bd1 0dbe 65b4 4cbf 64e5 37bf
00000280: 3917 d23e 4c1c b63d 888b 21bf 07f9 88bd
00000290: f516 78bd 9d39 9fbd 7d12 693e f787 94bd
000002a0: ba1d 0e3e 9945 5ebd a802 1bbe 8d0f cbbe
000002b0: fb18 523d 1418 19ba c726 8a3e be9b 81be
000002c0: f73b 41bc 6015 ec3d d981 0d3e ecd7 003f
000002d0: b97f fa3e 6aeb 2dbd e31c 133e 1b1f 3a3e
000002e0: f781 93be ce2e 863e 3905 163e 17c2 c73e
000002f0: fec1 3c3d 1992 4b3e 5471 123e a682 bcbd
00000300: 8ec1 2abf c4cd 27bf 499b f93d 1cb4 16be
00000310: bc2f 833e ade0 7a3f dcdf 4a3f 147c b6bf
00000320: da89 35bf cdc6 243e c7e9 c8be ea49 73bf
00000330: 7220 823e 398b 7dbe d6d0 fdbe 23cf 47be
00000340: cd86 90bf bd7f 37bc 1654 d4be 058a 9cbf
00000350: 44a3 ed3a 503e e1bd 2a8b ad3e 9467 06c0
00000360: c675 dcbd 0114 17bf 665b a43e 4e7d 8c3e
00000370: 70f8 2b3e 7098 a5bf bba6 943e 6380 2fbe
00000380: eb28 473e 2d62 e1bb a55b 80be b946 8bbe
00000390: 3861 af3e 4003 8dbe 0327 97bd 9685 7fbf
000003a0: 4ef9 74bf f84c b43e e1f8 863e 7581 7e3e
000003b0: d43e 56bf 0571 fcbe 0a1b c8be 6549 e03c
000003c0: 1e6f 893e 8801 42bf f470 7f3d 6552 203f
000003d0: 0861 0abf b1e0 d5be 3b20 ebbe d668 f63d
000003e0: 5d25 d33e f180 5dbd ca9f 91bf e3cc 0d3f
000003f0: 3050 b1be 7f52 79bf 0555 90bf 80ab 98bf
-0.051113673 0.69569343 -0.44257092 0.30526936 0.38925305 -0.44499296 0.458902 -0.11281022
-0.32138288 0.13134706 -0.10271666 -1.0270225 0.17060979 0.28152743 -0.11126135 -0.31242043
0.028819846 -2.4567695 -0.44913653 -0.02259166 0.051667575 -0.24021915 -0.14593257 1.1346521
-1.1238639 -0.36564246 -0.27188316 -0.6017182 0.07250016 -0.38256755 -1.081962 -0.86994845
0.3687159 0.06638819 -0.6435136 -0.5041226 -0.55796456 0.035709113 0.18159579 0.15668492
-1.5537344 -0.5407384 -0.2938128 -0.74423367 0.04703853 0.028131912 -0.018153206 -0.31319126
-0.19541852 0.04656971 0.44707558 0.36508 0.39319298 -0.31473953 0.4113826 1.2012424
0.1292792 -0.14507477 1.6684446 -0.26365402 -0.36146566 0.50878054 0.29422635 0.018862532
-0.39469588 0.09676744 -0.13113584 -0.73452616 -1.0713528 -0.53154325 -1.0561823 0.41737002
-0.4368603 0.31828195 -0.5961043 -0.33303 -0.4735155 0.2510459 -0.48181525 -0.663948
-0.051978197 -0.17806292 -0.11632699 -0.098035775 0.10352435 0.055836458 0.24124464 0.3555704
-0.14848568 0.47355458 0.24234457 0.0061977706 -0.5993769 -0.72375953 -0.18441485 -0.19981462
0.5912695 -0.8742491 -0.36954993 -0.81134933 -0.48569095 -0.35453016 -0.5101034 -0.6052195
0.15199666 -0.29417065 -0.0059034456 -0.33859047 0.991277 -0.26967895 -0.92079216 -0.048767943
-0.452341 -0.08637283 -0.4178135 -0.4422495 0.15054795 -0.5632135 -0.8945946 -0.9081042
0.061911758 -0.17387363 -0.46833864 0.23346102 -0.35638082 0.38246447 0.27315286 0.4312556
-0.4678964 -0.79193413 0.20145315 0.19147122 -0.041601352 -0.32120505 0.30933675 -0.31456366
0.37788308 -0.064398974 0.011141305 -0.90803146 -0.41711715 0.23258601 -0.36754858 0.21041703
-0.091594435 -1.0393023 -0.25864762 -0.057383284 -0.21011066 0.5877878 -0.6062887 -0.7339683
-0.68442225 0.2566599 0.2852908 -0.33732378 0.21906935 -0.13849442 -0.7996276 -0.718344
0.41033342 0.08892116 -0.6310353 -0.06688123 -0.06056877 -0.07774661 0.22760959 -0.07252496
0.13878527 -0.054265592 -0.15137732 -0.39660302 0.051293354 -0.0005840075 0.2698271 -0.25314134
-0.011794082 0.115275145 0.13819064 0.5032947 0.4892557 -0.042460836 0.14366488 0.18175928
-0.28810093 0.26207584 0.1465043 0.39015266 0.046083443 0.1987995 0.14301044 -0.09204607
-0.6670159 -0.6554835 0.121878214 -0.14717144 0.25622356 0.9799908 0.7924783 -1.4256616
-0.7091347 0.16091461 -0.39240858 -0.9503466 0.2541538 -0.2476014 -0.49573392 -0.1951261
-1.1291138 -0.011199889 -0.41470402 -1.222962 0.0018130322 -0.10998213 0.33895236 -2.100072
-0.10764651 -0.590149 0.3210098 0.2743935 0.1679399 -1.2937145 0.29033455 -0.1713882
0.19449203 -0.0068781585 -0.2506992 -0.27202395 0.3425386 -0.27541542 -0.07380488 -0.9981321
-0.9569291 0.35214972 0.26361755 0.24854071 -0.8368962 -0.49304977 -0.3908313 0.027378747
0.26842588 -0.75783587 0.06236358 0.62625724 -0.5405431 -0.41772988 -0.45923027 0.120317146
0.41239443 -0.054078046 -1.1376889 0.5539076 -0.3463149 -0.97391504 -1.1275946 -1.1927338

lstm.weight_hh_l0 f4 [32, 8]
00000000: c4c5 243f 0d19 0b3f 01e6 8abe 0abc 833f
00000010: c245 073d 0c6d 2e3f f7ab c5bd 5dcb 10be
00000020: 5c32 2cbf 3eac 883e 0d2a 3ebd ea87 2c3f
00000030: 9c03 c1bf 9d93 4ebf e81b 7a3f 82a1 3bbe
00000040: 7738 21bf 2819 183f e126 bebe cf92 4ebe
00000050: 3f76 1dbe a25d 1bbe 02fa 4d3f df2a 6a3e
00000060: b17c 6abe f951 eebd 62b1 193f 17fb 503f
00000070: 3393 f4bf e568 5abe 2d1f f03f 01f5 9e3f
00000080: eb36 07be 6eb7 ae3f 56f5 70bf bced ed3e
00000090: 1dbe 7d3e e62f c0be a9c9 0dbf b666 073e
000000a0: 9c05 b3be c5f7 e03e ef55 1cbe eff9 c93f
000000b0: 881e c9be 3d40 b03d be95 fa3e 57fd 14bf
000000c0: 79fa b1bf 97a1 ae3f 1c83 88bf e3b1 443b
000000d0: 017e 283f 417e 95be 6506 6cbf ede6 953f
000000e0: 7b8f b6bf 2c0f 2cbf 6768 a1bf 3585 bcbe
000000f0: 86e3 d23e e5c7 77be bf90 f2bf 5d54 863f
00000100: 12ab 1b3e 3a74 d8bd 0048 02bf 0dee 0ebe
00000110: 2784 0dbf 58c7 86be 3253 96be 6888 4bbd
00000120: 9889 99bf 4ab5 bf3e c168 7fbe 8e6b abbd
00000130: 6255 5dbf 2fa1 b1be b9d3 d3be 802e dbbe
00000140: 4a59 94be 7795 f6bd 9fd8 00bf 2609 d9bf
00000150: 105e b5bd 78b9 2b3e 66ad 43be 1777 93be
00000160: 02bf 893f 4c8f e8be be4f a03f fbbf bd3f
00000170: 275a e1bf cefb e2bd e19d dd3f 65aa 433f
00000180: 57fb c3be f5d1 edb9 fee1 16bf 0459 84be
00000190: 9ad1 1fbf cbf1 263e c9a9 7dbf ef8e 903e
000001a0: d788 d43e aeae 30bf 09e1 143f c506 653f
000001b0: 98e4 77bf 40b8 343f 01ca 493f cf25 97bd
000001c0: 056e 95be dccc 763f 60e3 f8bc f623 623f
000001d0: 38ea b8bf 8328 a8bf 2a55 bb3f 5a6b 493f
000001e0: 352f 0ebf 8a4f c6bc 8808 99be 0e96 19be
000001f0: d5da 9ebe 732d 313e 5101 af3e 6309 7a3f
00000200: f518 32c0 eab1 7b3f da05 66bf 5164 8fbd
00000210: 88d3 3d3f 1887 55be f187 eabf e51d de3d
00000220: 6d44 9b3e a607 98bf fe53 633f 8134 733f
00000230: 78ce 6dbf 5c40 32be 65dc 193f d7cb b8be
00000240: c357 aabf fe84 a53f f35a c1bf d5d3 5bbf
00000250: 2d08 023f e2be 94be 0d12 22bf c659 1e3e
00000260: e70c bbbe 2e2e a93f 3022 2abf 3fe1 83bf
00000270: 0b52 ed3e 986e 10be 00bb 86bf 1422 383e
00000280: a110 7ebf fc8f 39bf 3cde 563f 975f c53f
00000290: 8f68 1ac0 2882 4e3f 3a52 46bf 5296 26be
000002a0: 6b7b abbc 3c31 b03d 8591 183f bc87 96bf
000002b0: cda4 013e ea0b 9bbf de60 aabe 191c 013f
000002c0: 2240 a1bc 25a6 853e 6e04 f23a f5df 0040
000002d0: 8be9 843f 9fd8 123f f460 edbf 1925 3e3f
000002e0: d37f 23bf 94dc 4a3f 4dac 573f 30f3 f1bf
000002f0: 3274 06bf f219 d13e a5eb 423f bbf1 15c0
00000300: d706 4b3f bbc7 2b3d 7bd5 77be f337 cc3e
00000310: 6129 17be a2f7 f43e d8cb 1dbe cd58 073e
00000320: 69d7 3dbf de06 173f 2d02 d8bc 160b c53e
00000330: 1883 e5bf bd35 6dbf 171a 8b3f 4fd0 6b3e
00000340: 2e31 12be 7d76 d83e c5d8 87bd 4733 85bd
00000350: 085c 73be 51a7 253e 7e6d 603f cf92 433e
00000360: 3b36 803e 2d17 75be 9ede 2f3f 0acc 1b3f
00000370: ef68 d6bf 114d 30be 58cf e23f d351 9b3f
00000380: e73a 84be 9c35 ca3f ef5a 48bf 6e90 ef3e
00000390: 8fb4 21be f80a e93d fe21 38bf 41a7 2e3f
000003a0: 6ce1 57bd 4671 c73e 7b1a 0d3e 3122 d33f
000003b0: 8a70 c2bd b4c1 9f3e 2527 073f 0096 1cbf
000003c0: 68bc b9bf 9279 573f a4ce 3fbf aa52 103e
000003d0: b326 b63e 6540 f6bc 5f9b 49bf 38d7 463f
000003e0: f597 acbf 27b6 b4bd f22a 80bf 9d16 9dbd
000003f0: 3890 093e 547f 4e3e 8dc2 0bc0 7271 663f
0.64364266 0.543351 -0.27128604 1.029176 0.03302551 0.6813514 -0.0965194 -0.14140077
-0.6726434 0.2669391 -0.04642682 0.6739489 -1.5079226 -0.8069399 0.9769883 -0.18323329
-0.62976784 0.59413385 -0.37139037 -0.2017319 -0.15377139 -0.15172437 0.80459607 0.22867917
-0.22899128 -0.11636729 0.6003629 0.8163313 -1.9107422 -0.21329077 1.8759514 1.2418519
-0.13204543 1.3649728 -0.9412435 0.4647044 0.24779554 -0.37536544 -0.55385834 0.13222775
-0.34965217 0.43939033 -0.15267156 1.5779399 -0.39281106 0.086060025 0.4894237 -0.58199066
-1.3904563 1.3643063 -1.0665011 0.0030013255 0.65817267 -0.29197887 -0.9219726 1.1711098
-1.4262537 -0.6721065 -1.2609986 -0.3682038 0.41189212 -0.24197347 -1.8950423 1.0494496
0.15201977 -0.105690435 -0.50891113 -0.13957997 -0.55279773 -0.26323962 -0.29360348 -0.049690634
-1.1995115 0.37443 -0.24942304 -0.08370124 -0.8645841 -0.34693286 -0.4137247 -0.42808914
-0.28974372 -0.12040227 -0.5033054 -1.6955917 -0.088558316 0.1676997 -0.19109115 -0.28801796
1.0761416 -0.45421827 1.2524335 1.4824213 -1.7605637 -0.11083184 1.7313806 0.76431876
-0.38277695 -0.00045360593 -0.58938587 -0.25849164 -0.624292 0.16303174 -0.99087197 0.2823405
0.4151065 -0.6901654 0.58155876 0.89463454 -0.9683318 0.70593643 0.7882386 -0.07380258
-0.291855 0.9640634 -0.030381858 0.8833612 -1.4446478 -1.3137363 1.4635365 0.7867943
-0.5554078 -0.024207849 -0.2988932 -0.14998648 -0.3102633 0.17302494 0.34180692 0.97670573
-2.7827733 0.9831835 -0.8985268 -0.07001556 0.74150896 -0.20852315 -1.8322736 0.10845546
0.30325642 -1.1877334 0.88800037 0.9500199 -0.9289317 -0.17407364 0.6010192 -0.36093017
-1.3308033 1.2931211 -1.510588 -0.85870105 0.50793725 -0.29051882 -0.63308793 0.15463933
-0.3653328 1.3217218 -0.66458416 -1.0303115 0.46351656 -0.14104688 -1.0525818 0.1798175
-0.99244124 -0.7248533 0.8393285 1.5419797 -2.4126318 0.8066735 -0.7746922 -0.1626828
-0.020932874 0.08603141 0.59597045 -1.1760173 0.12660523 -1.2113011 -0.3327703 0.504335
-0.019683901 0.2610332 0.0018464455 2.0136693 1.0383772 0.5736179 -1.8545213 0.74275357
-0.6386692 0.79242826 0.84247285 -1.890234 -0.5252105 0.40840107 0.76140815 -2.342879
0.7930731 0.041938525 -0.2420253 0.39886436 -0.14761879 0.4784518 -0.15409791 0.13217469
-0.74156815 0.58994853 -0.026368225 0.3848502 -1.7930632 -0.92660123 1.0867337 0.23028682
-0.14276573 0.422779 -0.066331424 -0.06503921 -0.23765576 0.16177107 0.8766707 0.19098972
0.25041375 -0.23934622 0.6869906 0.60858214 -1.6750773 -0.17216899 1.7719526 1.2134346
-0.2582619 1.579761 -0.78263754 0.4678988 -0.15791534 0.11379045 -0.7192687 0.6822396
-0.052705213 0.38953608 0.13779633 1.6494809 -0.094941214 0.3120247 0.52794105 -0.6116638
-1.4510622 0.84169877 -0.74924684 0.14094034 0.355764 -0.030060003 -0.787527 0.7767215
-1.3483874 -0.08823805 -1.0013106 -0.07670329 0.13433921 0.2016576 -2.1837494 0.90016854

lstm.bias_ih_l0 f4 [32]
00000000: 0f29 0ebf fe2f bcbe f60c 0cbf 19cf 3fbf
00000010: 0e5b 14bf 984c 42bf 7d93 47be e1ff 30bf
00000020: 9ac7 23c0 480f 36bf 0d5e a7bf 6e5a 29bf
00000030: 0dc2 d4bf 18b1 bdbf 178d 633d f087 c8bf
00000040: 5993 98be 49f7 41bc 71e1 c9bc 7e59 debd
00000050: 8714 303e ab94 973d 3b57 cd3e eccc 1e3d
00000060: bacc 65bd c04d fbbe 7416 0abf 3b92 54bf
00000070: 3099 10bf 8798 e4be 6b10 3bbd b5d6 cebe
-0.555314 -0.36755365 -0.54707277 -0.7492538 -0.5795144 -0.7589812 -0.19489856 -0.6914044
-2.5590577 -0.7111707 -1.3075577 -0.6615361 -1.662172 -1.481967 0.055554476 -1.5666485
-0.29799917 -0.0118387425 -0.024643632 -0.10856913 0.1719533 0.07401403 0.40105614 0.038769647
-0.056103446 -0.49082756 -0.5394051 -0.8303563 -0.56483746 -0.4464762 -0.045669954 -0.40398183

lstm.bias_hh_l0 f4 [32]
00000000: 7c23 dabe 0733 96be ed00 9ebe ffff f6be
00000010: ed8d b2be d0b2 21bf a45f c5bd d05a dfbe
00000020: 4358 0bc0 d0f5 babe f1b8 4ebf cf5d e1be
00000030: accd 0ec0 6db8 dcbf 6a98 d2be 4b12 bebf
00000040: 646e 953e 293c dd3d 5487 3cbd 390a 173d
00000050: 59d8 813d 7d0b 87bd d899 9b3d 60c1 483e
00000060: 906b b2bc cc07 44bf f637 4cbe 0838 bdbe
00000070: e265 14bf a387 a0be 9b59 eebd eca5 52be
-0.42605197 -0.29335806 -0.3086008 -0.48242185 -0.34873906 -0.6316347 -0.096373826 -0.43623972
-2.177262 -0.36515665 -0.8075095 -0.44016883 -2.2313032 -1.7243782 -0.41131908 -1.4849333
0.29185784 0.1080249 -0.046027496 0.036874983 0.06340093 -0.06593988 0.07597703 0.19605017
-0.021779805 -0.765744 -0.19943222 -0.3695681 -0.5796796 -0.31353483 -0.11638185 -0.20571107

dense1.weight f4 [256, 192]
00000000: dbd0 023e 357b 88bc d9c9 29bc a908 b93d
00000010: aa3c b73a 209e 403c f7ce 493d 8b37 933e
00000020: 24ee 113e 9bdc 42bb 6bf7 983c 69c7 ed3d
00000030: aac4 44bd 2e5c acbb c461 c23d ba97 b93d
00000040: 687a c03d 1c1b 163d 8cfa d5bd 9a8a 823d
00000050: ed51 b63d 3be0 ac3d 9cc8 8d3d 25cf 8c3b
00000060: 7c2e 903d 404d 973c ddfe 75bd d3ab cf3d
00000070: 75d8 c73d 7c4c ee3d ebd0 123d 08a0 3d3c
00000080: 1ab3 8c3d 7d99 6bbc e379 8fbd d56b ec3d
00000090: 0727 bebc b203 0c3e 2987 e83d 1b58 03bd
000000a0: 2e42 bdbc 5795 3abd 6eb5 98bd cfd5 ba3d
000000b0: dcb2 2b39 d5bf b93d 1f80 f13c b834 873d
000000c0: dd9b 34bd 197b 283d f169 b0bb ddaf 083d
000000d0: e982 0cbd a295 263e df73 203e 0f97 f2bc
000000e0: 7c6d 133d e1a1 ff3c 843b cfbb 7460 1f3d
000000f0: b550 b2bb f996 583e 0419 a83d c382 3b3d
00000100: 7f7f 41bc 5474 4bbb cc07 b5bd b869 d3bc
00000110: f284 5a3d 4772 953d 8b4c e2bc 6c30 e7bc
00000120: 7ebb a23d 6ed9 60bc 331b 4abd 5517 41bc
00000130: 6bf5 61bc fa73 c33c 4557 5bbc 9f99 6d3d
00000140: cc06 a4ba 5daa 9dbb ac6c a1bd 3ef8 1d3c
00000150: f7dd 1c3e 8923 4b3d 62b1 693d a1f5 063a
00000160: b27a 953d c70f 573d 040e b03b 40cd 253e
00000170: 3a63 5f3c 24b6 ef3c 4741 0d3d 538a 9fbc
00000180: d24e 633d 36d5 1fbd 4936 84bd 2986 0d3e
00000190: 9659 793c 7a62 ed3d 1be5 56bd 0014 babc
000001a0: 77cf bf3d e304 983d 9074 0a3d 5753 6e3d
000001b0: f2d3 c73c 4425 46bd b9dc c13d 26e0 d73c
000001c0: bfa5 1cbd 0361 9c3d 9719 fabd 49d5 bb3c
000001d0: ac4a 2fbd 0647 923c 083f 493d 6c4d 49bd
000001e0: 731a c23d 1e4b 553c b7bc f8bd f9a0 053d
000001f0: 000a 333d 4615 71bc 57d9 c03b f996 413c
00000200: c957 cd3d 92f4 913d a25b 4ebc 8ea8 063c
00000210: 1e71 c63d e776 7cbd 2e92 893c 166a bb3c
00000220: 04e3 b33d 953d 5a3d c2bb 0bbd 29b6 f43d
00000230: aae7 0fbd 00dc 7bbd 6f7a d23d bfda 32bd
00000240: 82dd 083e b1dc 3abd ad9b c4bd a384 be3d
00000250: 0af4 643d 9ef0 11bd 23b6 d03d 9d43 a43c
00000260: 2363 fa3d 4002 003d c585 c1bd ad46 8b3d
00000270: 72dc 183d ef0e 27bc b80a 953d 27a9 46bd
00000280: a464 583d 9f4d f8bc 5938 4fbd 009b 2e3d
00000290: 8535 913d dc40 ee3d 32f9 003e 925f 4dbd
000002a0: b1b4 6d3e d788 203d 2fd7 c3bd 7e7e 613c
000002b0: cd42 b6bd 6f38 80bb 48a3 e23d 753e f8bd
000002c0: 851a a53d fbd0 c6bd 73c7 45bd 8828 efbc
000002d0: e1fd 9abc 7f89 0a3e 3075 d23d 4027 b6bd
000002e0: 3f9a 503d bff5 d8bd c78d b0bd c079 183d
000002f0: 7921 e13d 7687 893d 38d1 a6bd 07f9 0dbe
00000300: 9675 cabe cf1a b93f 743a 83be e2a9 89bf
00000310: de47 1c3e 1296 2b3f 49a8 c53e 30fd f9bd
00000320: f9ff dfbe 7d74 8c3f 5b59 d2be adad b6be
00000330: 3632 b43e f698 83be 6808 4d3e 32f1 32bd
00000340: a76f 84be aca9 9a3f 13d6 e6be 89cb 05bd
00000350: e6bb 11bf 5e61 6fbe f537 ae3c cdb8 853c
00000360: ce73 c7be c8d2 3d3f ad7c d03e bb53 e7be
00000370: a151 12bd d5a7 dcbe 9ce3 eabd 6362 dcbe
00000380: 2302 cb3e 498e 103f 8160 4ebe 4d4a 56bf
00000390: 95bd 4a3f 769c aa3d 2856 dfbd cdd3 1abd
000003a0: d342 903d aced 1ebe 5913 bebe 9531 0dbf
000003b0: 259d b93e 4169 c23e 12c0 2ebe 3d2e c73c
000003c0: aba2 403e 42f0 723e 482b 153f 1e7e 1dbe
000003d0: 2d7c ea3d 2545 c7bd 1021 a2be 8320 31bd
000003e0: 55b4 67be f147 9f3e 0a35 0a3d 1e70 a9be
000003f0: 7e12 ecbc cc70 79be 5a10 cbbc 93b3 c53d
0.12774985 -0.016660312 -0.010363066 0.09034855 0.0013979871 0.01175645 0.049269643 0.28753313
0.14251 -0.0029733542 0.018672666 0.116103 -0.048039116 -0.005260012 0.094913036 0.09062143
0.09398347 0.036646947 -0.10448179 0.063740924 0.08902345 0.08441206 0.06923029 0.0042971545
0.07040116 0.018469453 -0.06005751 0.10140195 0.09758083 0.11635682 0.03584377 0.011573799
0.068700984 -0.014379856 -0.0700567 0.11544005 -0.023211969 0.13673285 0.11353905 -0.032066446
-0.023102846 -0.045552578 -0.0745648 0.09122812 0.00016374461 0.09069792 0.029480038 0.06601852
-0.044093955 0.04113302 -0.005383723 0.03337084 -0.034304533 0.16268018 0.15669201 -0.029613046
0.035993084 0.03120512 -0.0063242335 0.038910344 -0.00544175 0.21151341 0.08207896 0.045779
-0.011810183 -0.0031044679 -0.08839378 -0.025807247 0.053349443 0.07297187 -0.02762439 -0.028221332
0.079459175 -0.013723714 -0.049342345 -0.011785348 -0.013791422 0.023859013 -0.013387506 0.058007833
-0.0012514233 -0.0048115687 -0.07882056 0.009641705 0.15319048 0.049594436 0.05705393 0.0005148296
0.07298793 0.05250528 0.0053727645 0.16191578 0.013634497 0.029261656 0.03448608 -0.019475138
0.05549509 -0.039021693 -0.064556666 0.1382071 0.015219113 0.115910485 -0.052464586 -0.022714615
0.09365743 0.07422807 0.03380257 0.058184948 0.024393056 -0.048375383 0.09465928 0.026352
-0.038244005 0.07635691 -0.12211912 0.02292885 -0.042795822 0.017856132 0.049132377 -0.0491461
0.09477701 0.013018398 -0.121453695 0.03262422 0.04371071 -0.014714545 0.005885284 0.01181578
0.10026509 0.07126726 -0.012595089 0.0082188975 0.09689544 -0.06163683 0.016793337 0.022877734
0.08783534 0.053281385 -0.034114607 0.11948807 -0.03513304 -0.061489105 0.102772586 -0.043665644
0.13365749 -0.045620624 -0.09600005 0.09302642 0.055896796 -0.03562986 0.1019099 0.020051772
0.1222594 0.031252146 -0.09449343 0.0680059 0.037319608 -0.010196432 0.07277435 -0.04850116
0.052830353 -0.03031045 -0.050590847 0.04262829 0.07090286 0.11633465 0.1259506 -0.05013997
0.2321346 0.039193 -0.095625274 0.013763068 -0.0889946 -0.0039129774 0.110663 -0.12121288
0.08061699 -0.097078286 -0.048285913 -0.029194131 -0.018919887 0.13529013 0.10276258 -0.08894205
0.05092835 -0.10593747 -0.08620792 0.037225485 0.109927125 0.0671529 -0.08145374 -0.13864528
-0.39542836 1.4461306 -0.25630534 -1.0754969 0.1526179 0.67025864 0.38604954 -0.12206495
-0.4374998 1.0973049 -0.41083798 -0.3567938 0.35194558 -0.25702637 0.20022738 -0.043687053
-0.25866434 1.208303 -0.450852 -0.03266481 -0.56927335 -0.23376986 0.021266917 0.016323471
-0.3895554 0.7414975 0.4072012 -0.4518107 -0.03572238 -0.43096796 -0.11469194 -0.43043813
0.39650068 0.5646711 -0.20154001 -0.83707124 0.7919553 0.08330624 -0.10905105 -0.037799645
0.07043996 -0.15520352 -0.37124136 -0.5515378 0.36252704 0.37970927 -0.17065457 0.02431404
0.18812053 0.23724464 0.58269167 -0.15380141 0.11449466 -0.09729985 -0.3166585 -0.043243896
-0.22627385 0.31109574 0.03374199 -0.3309335 -0.028817412 -0.24359435 -0.02478807 0.09653392

dense1.bias f4 [256]
00000000: c7f8 35be 0689 e9bd 9250 f4bd a191 dcbd
00000010: c8fc 94be 08bf 93be b00e 48be a2c8 2bbe
00000020: 4381 9cbe 8b4a 98be 1e43 b4bd 1ea8 36be
00000030: f8dc 24be 0994 a1be 7204 98be a6c2 46be
00000040: 1d02 513d e192 53be 62d6 16be 97f5 74be
00000050: 0846 86be cece 99be d495 8cbd 93d3 06be
00000060: 09e3 37be 7d82 87be b222 34be 7488 47be
00000070: 4154 a6bd 5c1e 5dbe 37ba 3cbe aaaf 74be
00000080: a442 e3bd 20dc 81be b485 a9bd cc52 afbd
00000090: 8a86 0cbe ae7b dabd 0073 a7be 16c9 4e3d
000000a0: 17bf a7bd 2ddb 06be 9306 73be f837 2b3e
000000b0: 5da2 82be 2a9d ddbc 1418 0dbe 19c7 08be
000000c0: 93e6 9dbe 1f4e 19be ed8b bdbe 67b1 5bbe
000000d0: 151a 61be 11cb e8bd 8724 f1bd 5588 02be
000000e0: b821 35be 38c3 86be 54d1 82be a957 cdbd
000000f0: 8803 67be 42fb e8bd 32eb 8abe c9f8 4dbe
00000100: c3c3 52be a0c0 9bbe df12 bdbd 35f4 7dbd
00000110: eac8 c3bd d240 7f3d 2449 7fbe 8e1b 59be
00000120: 9d21 6abe 1be3 4ebe dcff aa3d 38aa d0bd
00000130: 6ae2 97be f618 58be 3a89 ebbd 5367 92bd
00000140: a23d c9bd a285 62be 1974 aebe 4629 a6be
00000150: 24b5 09be 5cba 21be b36f b8be 44fc 8ebe
00000160: 63c6 7abe 7b32 4abe bcd2 9dbe 5825 c7bd
00000170: b093 56be 20f9 75be 91d9 39be 066b 19be
00000180: 28a2 b4bd db09 85be 1762 1dbe c250 05be
00000190: eb75 84be c769 46be dbe8 46be dd8a e9bd
000001a0: 5558 c9be a280 12be bf3e d7bd e050 79be
000001b0: ef3d 08be ec23 9bbe b05e 93bd 2125 63be
000001c0: 6959 2ebe a279 31be 1b56 c2bd b7a9 b8be
000001d0: 532a b3be d5b0 01be 3c4d 8fbe f41b babe
000001e0: f466 ecbd 6343 a1be e044 96be d921 9cbd
000001f0: 13eb 07be 1930 95be c4c4 64be eebf 93be
00000200: 5eed 8ebe 28ea c8bd 33be e9bd 3a63 87bd
00000210: 20e3 a2be 9d8f 2cbe ddcd 023e a4ac bdbe
00000220: 6ce0 96be 1915 88bd 5242 05be 19e3 f5bd
00000230: 895e 16be 6b49 acbe d5ab 12be 0cd3 28be
00000240: 59a5 64be 38e4 dcbd 9d5e abbe 946c d93d
00000250: 9dbd b9bd 3e48 adbe c863 12be 35c4 12be
00000260: 8952 8dbe b639 12be 5488 50be 8537 02be
00000270: 4686 12be bca2 acbd c6a2 92be b721 60be
00000280: 0b95 ccbd 788e a1bd 4a10 54be 5d59 46be
00000290: c65b a5be eec4 93be f0df e8bd a963 54be
000002a0: 2a23 b6bd a0a1 8dbe fa59 90be 7914 01be
000002b0: 81db d2bd 6e32 02be a017 80be 1c0f 85be
000002c0: dde2 63be 003d 92bd 4cce 1fbc 8337 a5be
000002d0: 9c61 1cbe 471f 9cbe d938 33be c22e 6dbe
000002e0: 42ed 83bd 5a42 54be d3da 5abe a676 a2be
000002f0: f309 4cbe b4e1 7fbe 4796 dbbd 7e88 d0bd
00000300: 256c 16be 4118 4bbe 0d29 75be 705e 4abe
00000310: f088 51be b582 d4bd a137 89bd fe3e b7bd
00000320: efd5 e6bd 48f1 5fbe 3f86 84be 9ba8 6ebe
00000330: fb79 06be 6c02 e9bd 9630 603a f001 d3bd
00000340: 555f b5be 0bc7 73be 70bd 33be 4e3d 4fbe
00000350: 07e8 61be 1ca0 13be 2ba7 b0be a4e0 ecbd
00000360: 6451 52be ebec 11be 01e2 cebd 2bde 34be
00000370: a438 1abe 7faf c03d 09d9 c9bd 32cf abbd
00000380: 9251 babe 26cf 7bbe 2fe9 cabd 9c6d 0dbe
00000390: bd2e a1be 0224 17be 0cc4 90bd 1faf 4fbe
000003a0: c74e 91be b098 bcbd 25d8 c8bd 95d9 a9bd
000003b0: 8d6c d6bd 849d e0bd c691 41be 18fc 55be
000003c0: 900b 39be b467 b13d 6c32 22be cce5 e2bd
000003d0: 6d70 6cbe b3b9 10be 0d55 09be f793 8abe
000003e0: 1f12 16be 681b 08be 0f10 11be 0db5 07be
000003f0: bbb6 85be 187e c6be 8322 3bbe 9b37 88be
-0.17770682 -0.11403088 -0.1192943 -0.10769964 -0.29099107 -0.28856683 -0.19536853 -0.16775754
-0.3056737 -0.29744372 -0.08801864 -0.17837569 -0.16099918 -0.31558254 -0.29690892 -0.1941019
0.051027406 -0.20661499 -0.14730218 -0.2392181 -0.26225305 -0.30040592 -0.06864515 -0.13166647
-0.17957701 -0.26466742 -0.1759136 -0.19485646 -0.08121539 -0.21593612 -0.1843041 -0.23895136
-0.11096695 -0.25363255 -0.08277455 -0.08560714 -0.13723198 -0.10668121 -0.32704926 0.05048474
-0.08190744 -0.13169546 -0.23732977 0.16720569 -0.25514498 -0.02705248 -0.13778716 -0.133572
-0.30839977 -0.14971207 -0.37020817 -0.21454392 -0.21982606 -0.11366857 -0.11774545 -0.12747319
-0.17688644 -0.26320815 -0.2555033 -0.100264855 -0.22559941 -0.113760486 -0.27132565 -0.20114435
-0.2058249 -0.304204 -0.09232115 -0.062000472 -0.09559806 0.062317677 -0.24930245 -0.21201918
-0.22864385 -0.20203821 0.083495826 -0.10188717 -0.29664928 -0.21103272 -0.11500783 -0.07148614
-0.09826209 -0.2212129 -0.3407295 -0.32453364 -0.13448006 -0.15793747 -0.3602272 -0.27926838
-0.24489741 -0.1974582 -0.3082484 -0.0972392 -0.20954776 -0.24020815 -0.18149401 -0.14982232
-0.08819991 -0.25984082 -0.1536945 -0.13019088 -0.25871214 -0.19376288 -0.19424765 -0.11403439
-0.39325204 -0.14306882 -0.10510015 -0.24347258 -0.13304876 -0.30300844 -0.071957946 -0.22182132
-0.17026295 -0.17331555 -0.094890796 -0.36066982 -0.34993228 -0.12665112 -0.27988613 -0.36349452
-0.11543074 -0.31496724 -0.29349422 -0.076236434 -0.13273267 -0.29138258 -0.22340685 -0.28857368
-0.27915472 -0.09810287 -0.11413231 -0.06610723 -0.31813908 -0.16851659 0.12773843 -0.37045777
-0.29468095 -0.06644649 -0.1301358 -0.12006206 -0.146845 -0.33649763 -0.14323361 -0.16486758
-0.223287 -0.10785717 -0.33470622 0.10616413 -0.09069369 -0.3384418 -0.14295876 -0.1433266
-0.27602032 -0.14279827 -0.20364505 -0.12716492 -0.14309034 -0.084294766 -0.2863981 -0.21887861
-0.09989365 -0.07888502 -0.20709339 -0.19370027 -0.3229658 -0.28861183 -0.11370838 -0.20741142
-0.08893426 -0.27662373 -0.28193647 -0.12605466 -0.10295773 -0.1271455 -0.25018024 -0.2598809
-0.2225451 -0.07140541 -0.009753775 -0.32268915 -0.1527161 -0.30492613 -0.17502154 -0.23162368
-0.06441738 -0.20728436 -0.21372537 -0.31731147 -0.1992567 -0.24988443 -0.107220225 -0.10182284
-0.14689691 -0.19833471 -0.23941441 -0.19762588 -0.20462394 -0.10376493 -0.067000635 -0.08947562
-0.11271273 -0.21869385 -0.25883672 -0.23306505 -0.1313247 -0.11377415 0.0008552162 -0.10303104
-0.35424295 -0.23806398 -0.17552733 -0.2023823 -0.22061168 -0.14416546 -0.3450254 -0.11566284
-0.2053886 -0.14250533 -0.101017006 -0.17662875 -0.15060669 0.09408473 -0.09855849 -0.08389129
-0.36390358 -0.2459074 -0.099077575 -0.13811344 -0.3148097 -0.1475983 -0.07068643 -0.20281647
-0.28380415 -0.0920881 -0.09806851 -0.082934536 -0.10469923 -0.10967544 -0.18903264 -0.20896947
-0.18070817 0.08662358 -0.15839547 -0.110789865 -0.23089762 -0.14133339 -0.1341135 -0.27066013
-0.1465535 -0.13291705 -0.14166282 -0.13252659 -0.26115975 -0.38768077 -0.18274884 -0.26604924

dense2.weight f4 [1, 256]
00000000: 69a4 0ebc a6ce ee3e a8df 713c fb69 be3b
00000010: 8ddf bdbe 36bd 33bf 8fe1 103b 396b d6bc
00000020: db26 f4be f0f1 d33e 47b7 9a3c d1e3 9cba
00000030: 9cc2 81bc 2da9 10bf dd00 d43e 2913 7c3c
00000040: 0e92 103e c8bb 51bd 9347 c6bc be1a b23d
00000050: 7d6b 153f 0c59 883e e9cf 413e 4942 b53c
00000060: be5f 7ebc 79b6 c0be 42ec 7abc ba58 123c
00000070: 2a44 43ba e0eb ab3e 1364 b53a 3995 1f3f
00000080: 1b51 d53a efff a93e 7d3b a93a b26e 8c3c
00000090: a954 aabc d901 f83c 8e71 e03e 9548 073e
000000a0: 14c5 62bc bcc1 86bc f525 463e f15e 813e
000000b0: 9d92 bebe 51da a73e ec03 103c 9c5d c4ba
000000c0: a2c8 d43e a92a 843b 976d 4abf d49c 10bd
000000d0: 8dde 95be 08d9 a0bc bb65 5cbc 5bd6 b53c
000000e0: ea43 db3c 55f3 13bf cd5d d33e c354 ff3a
000000f0: eb01 c7be 9440 cfbb fbe9 a9be 0438 8dbb
00000100: 5e3c f6bc 3f41 26bf bdce a8bc a0bd 333b
00000110: 538f 89ba bd0c 0b3e b59d bbbe 1a5d 0bbf
00000120: 4a99 58bb 4838 fe3e 39af 143e c6d1 a8bc
00000130: 70e4 5d3e 57be 5d3d 51e1 02bc 5364 383d
00000140: 3e3d a13c db56 a8be da8c fabe ac5f aebe
00000150: 5607 65bb fb6a 38bd bf6c 0a3f 630e 423f
00000160: b334 9a3e 1009 a9be d625 d73e 4ba6 25be
00000170: e1c8 09bf a3ad ca3e 1ac8 05be 1387 a93b
00000180: 765e dcbc 5dce 313f dd23 88bc dfdb 58bb
00000190: b6a1 ef3e 2a1c d6be a9ce 5b3d a015 2d3b
000001a0: 6967 29bf 349f 213c 8589 84bc 1da6 98ba
000001b0: c483 903c 3836 9a3e 7047 cf3a 4493 273f
000001c0: 8d39 9b3c 4eb6 53bc bae4 9c3c 9acb 2b3f
000001d0: 6698 47bf a735 bc3c 07d6 ce3e ec19 d6be
000001e0: 4f6c a9bb 5416 59bd 09ae 283d 8a56 9f3b
000001f0: 0dee a3bb 9b64 c2be c2b2 c5ba 7a1d 1abf
00000200: 6c44 473f af1b 3f3e 57df 58bc 1f22 34bc
00000210: 4682 23bf c8f4 073b 0fc6 313e 7647 a2bd
00000220: c579 a13e 25c4 993b c275 ae3c 690b 9f3c
00000230: 107e dc3c 7e0d 083f 2f68 01bd 0243 863c
00000240: f157 0ebf 4fa7 ad3a 9690 fabe 8a1e 363e
00000250: 801a e7b9 9562 073f 60b6 d43b 74f2 b1bb
00000260: 241b 083f 6d35 17bc e7b9 b43b 0c6b e93c
00000270: a7cf 0f3c 4ae3 65bc bc7e cd3e 24ee 553f
00000280: cfc6 7dbb b63f f4bc 78c6 01bf 94ce 3cbc
00000290: 6049 263f ad12 d23e af85 b8bc 6959 703e
000002a0: 3646 b03c 90b5 f0be 1526 a5be 7e36 fabc
000002b0: ae90 013c 4bbd 3dbc 24e2 a03c 2269 47be
000002c0: 0f80 403c c5f0 2c3c 5b61 ce3e 97e1 d8be
000002d0: 6484 2dba 1837 b43e a6ec 933e bcf9 dbbe
000002e0: f5a0 16bb c755 973e 80e1 763e 7747 39bf
000002f0: c1af d5be 6ec6 9c3e e4db 963b 2215 3a3c
00000300: 58a9 833e 9fab ce3c b1a8 353e 7ac4 d0bc
00000310: 7991 5c3e a08f ab3a 0bf7 0abb 0376 14bc
00000320: e32f b939 3e2f a83e 442c 283c ec9f 46bf
00000330: e7f7 99bc 938f a53a a45b b53d 1909 f9bc
00000340: 24c5 23bf 4314 ad3e 80ba 4dbc 9bbc 2cbc
00000350: 169a b2be 97e9 d6be a9e0 bfbe eed1 533c
00000360: 857a b1bb c3b7 cfbb 5cd9 c0bc 542d fdbe
00000370: 1249 ccbc 97d9 273e 92df 243e 3325 a43c
00000380: 2f33 08bf abb6 eb3e 50d2 fbbc 6a6b 96bc
00000390: c768 15bf 03ef 2dbb fa24 0ebd dd64 81bb
000003a0: 0d9a 09bf 78cb 9d3a f2d7 fd3e 6648 57bc
000003b0: 8ba8 6ebc be5e f7bc 56a3 50be b651 843e
000003c0: a817 3b3c 9b3c 2e3e 2576 33b9 fbab 083b
000003d0: c5f6 073f 3095 1c3b f808 903d 2586 143f
000003e0: 1261 3a3c 33a1 823b d772 f5bb 6782 de3c
000003f0: b005 0f3f 92e1 ba3e 1935 e4bc 6e51 84bc
-0.008706191 0.46642035 0.014762796 0.0058109737 -0.37084618 -0.7021059 0.00221071 -0.026174175
-0.47685894 0.4139552 0.018886222 -0.001196975 -0.015839867 -0.5650814 0.4140691 0.0153854275
0.14118215 -0.051204473 -0.024204051 0.08696507 0.5836714 0.26630437 0.18926968 0.022126334
-0.015525756 -0.37639216 -0.015315117 0.008932287 -0.0007448817 0.33578396 0.0013839029 0.6233707
0.0016274782 0.33203074 0.0012911406 0.017142627 -0.020792322 0.030274319 0.43836635 0.13211282
-0.013840932 -0.016449802 0.19350417 0.25267747 -0.37221232 0.3278375 0.008789998 -0.0014981511
0.4155932 0.004033406 -0.7907347 -0.035305813 -0.29271355 -0.019634739 -0.013451989 0.02219694
0.026765782 -0.5779317 0.41282502 0.0019480217 -0.3886865 -0.006324837 -0.33186325 -0.004309656
-0.030058082 -0.6494331 -0.020606393 0.0027426258 -0.0010494984 0.13579078 -0.36643758 -0.54438937
-0.0033050352 0.49652314 0.14519967 -0.02060784 0.21669173 0.0541366 -0.00798829 0.04501755
0.019682523 -0.32878765 -0.48935586 -0.34057367 -0.0034947 -0.0450239 0.54072183 0.758032
0.3011833 -0.33014727 0.42021054 -0.16176717 -0.5382214 0.395856 -0.13064614 0.005173573
-0.026900511 0.6945551 -0.016618663 -0.0033090038 0.46803063 -0.41818362 0.053663883 0.0026410595
-0.66173416 0.009864617 -0.016178856 -0.0011646185 0.017640956 0.3011949 0.0015814137 0.65459085
0.01894834 -0.012921883 0.019152034 0.67107546 -0.77966917 0.022974802 0.40397665 -0.41816652
-0.005170382 -0.05299981 0.041181598 0.004862611 -0.005002743 -0.3796738 -0.0015083181 -0.6020123
0.7783878 0.18662904 -0.013236842 -0.010994463 -0.63870656 0.0020745266 0.1736071 -0.07923786
0.31538215 0.0046925717 0.021296386 0.01941462 0.02691558 0.5314559 -0.031593498 0.016389374
-0.5560294 0.0013248714 -0.48938435 0.17785087 -0.00044079497 0.528848 0.0064914674 -0.005430514
0.53166413 -0.009229046 0.0055153253 0.028493427 0.0087775355 -0.014031241 0.40135753 0.835665
-0.0038723235 -0.029815536 -0.50693464 -0.011523861 0.6495571 0.41029873 -0.022524683 0.23471607
0.021517854 -0.4701352 -0.32255617 -0.030543562 0.0079080295 -0.0115807755 0.019639082 -0.19473699
0.011749282 0.010555451 0.4030865 -0.4235961 -0.0006619154 0.35198283 0.28891486 -0.4296397
-0.0022984121 0.2955763 0.24109459 -0.7237467 -0.41735652 0.3062014 0.0046038497 0.0113575775
0.25715137 0.02522832 0.17740132 -0.025484312 0.21539868 0.0013089068 -0.0021204378 -0.009061339
0.00035321628 0.32848543 0.01026446 -0.7758777 -0.018794967 0.001263129 0.0885537 -0.030399846
-0.6397269 0.3380452 -0.012556672 -0.010543014 -0.34883183 -0.4197509 -0.3747609 0.012928469
-0.005416217 -0.006339045 -0.023541145 -0.49448645 -0.024937186 0.16391598 0.1610091 0.02003727
-0.532031 0.46037802 -0.030739933 -0.018361766 -0.58363 -0.0026540167 -0.034703232 -0.0039487914
-0.5375069 0.0012038788 0.49578816 -0.01313982 -0.014566551 -0.030196544 -0.20374808 0.2584359
0.011419214 0.17015307 -0.00017114783 0.0020854461 0.53110915 0.0023892634 0.07032961 0.5801719
0.011375682 0.0039865016 -0.0074904966 0.02716179 0.55868053 0.36500221 -0.02785735 -0.01615211
