model/weighs_models/GRU_model.pth (torch, 411951 bytes, 7 tensors)

gru.weight_ih_l0 f4 [96, 4]
000000 01 0b 99 3f 5a 74 c8 3e bc 8d 3a bd 31 ef a1 3f
       1.1956483 0.3915127 -0.045545325 1.265112
000010 f3 15 8c 3e 75 db e8 bd 64 75 bb be fb df cd 3e
       0.27360496 -0.11369983 -0.36613 0.40209946
000020 a1 14 a6 3f f0 5f 49 3f 3d 23 a4 bd 63 ae 41 40
       1.2975045 0.78662014 -0.08014534 3.0262687
000030 b4 31 12 bd 3d 77 11 3d 30 ce a4 bd ba 49 bb 3e
       -0.03569193 0.035514105 -0.0804714 0.36579686
000040 dc 91 35 3f f8 bb 8d bd b5 6a 29 be 5b 9c 70 3e
       0.7092569 -0.06920618 -0.16544612 0.23497145
000050 48 85 63 3e 93 f1 1c 3e d6 91 74 bf ec d1 bf 3e
       0.22218812 0.15326528 -0.9553503 0.37464845
000060 31 bb 02 40 a2 48 19 3f ea 23 13 bf 9b 63 fe 40
       2.0426753 0.59876454 -0.57476676 7.949659
000070 09 65 c1 3d ea fd 1d 3f f1 c3 c8 be 1a df 55 40
       0.09443099 0.6171557 -0.3921199 3.341742
000080 51 89 8b 3e 49 8d d7 3d 76 69 00 be de cb 68 3e
       0.27253202 0.10524995 -0.1254023 0.22734019
000090 95 0a d7 3f 6e af 2b 3e ab 67 7d bf c1 7d b2 3e
       1.6800104 0.1676614 -0.9898631 0.34861568
0000a0 81 aa 08 40 09 02 0a bd 9c 9d 02 3f b0 2b bf 3f
       2.1354067 -0.033693347 0.5102174 1.4935207
0000b0 fe 86 24 3f 37 78 f0 3e 97 a2 67 be 32 75 d0 3f
       0.6426848 0.46966717 -0.22620617 1.6285765
0000c0 8d 5b 64 3f 5e 84 ba be fb 1d ad 3f b5 eb 3d 40
       0.89202195 -0.36429113 1.3524774 2.9675114
0000d0 4d 44 13 3e cc 9e 7e 3e b9 cc b2 bb da 79 42 be
       0.14381523 0.24865264 -0.0054565337 -0.18991795
0000e0 b7 11 78 3e 0c f0 88 3b ed 3f a5 be 17 f2 03 bf
       0.24225508 0.0041790064 -0.32275334 -0.51541275
0000f0 7f 87 b5 3f 27 0e aa be 46 17 16 bf 91 98 c3 3e
       1.4181975 -0.33213922 -0.5862926 0.38202336
000100 b0 03 9f 3f c4 91 d4 3e f7 e1 e6 3e 25 82 0b 40
       1.2423 0.4151746 0.45094272 2.1798184
000110 40 c1 85 3f c9 df 35 be b6 48 bd 3e 5c 5e 4c 3f
       1.04496 -0.17761149 0.36969537 0.7983148
000120 c4 10 c6 3f b1 81 54 3c e4 e2 52 bf ac 47 e2 3f
       1.5473866 0.012970374 -0.8237746 1.7678123
000130 2f 08 5a 3d b5 9e 90 3e 96 76 c2 bd f3 60 84 3a
       0.05323046 0.28246084 -0.09495275 0.0010099694
000140 91 c7 19 3f 57 8e b9 3e 7d 5f 0f be cb a2 4d 3f
       0.6007014 0.3624141 -0.1400127 0.8032653
000150 f7 21 ac 3e a1 d7 06 3f 40 56 d3 3d d6 44 58 bd
       0.33619663 0.52672774 0.10319185 -0.052800022
000160 11 5d 44 40 65 5b cc 3f da ce b2 bf 6a fc 1a 41
       3.0681803 1.5965391 -1.3969376 9.686625
000170 e8 9e 6e 3f c8 3c 08 3f ba 00 3b be 54 ef cb 3f
       0.9321122 0.53217745 -0.18261996 1.5932412
000180 4a 5c 1f be b8 4a fc 3e 1b d2 c7 bf d3 2c 2e bf
       -0.15562549 0.49275756 -1.5610994 -0.68037146
000190 4c fd 90 3f 9a 41 7a 3d da 08 a8 be df 23 d2 3f
       1.13273 0.06109772 -0.32819253 1.6417197
0001a0 59 da 17 3f 61 9e 78 be 02 f6 17 bf 28 c0 35 3f
       0.5931755 -0.24279167 -0.59359753 0.7099633
0001b0 c8 91 62 3e 01 99 53 be fb 02 eb 3e 4d 45 32 3f
       0.22125924 -0.20663835 0.4590071 0.69636995
0001c0 1d f4 34 3f 59 32 33 3e 65 37 a7 be 79 28 8a 3f
       0.7068499 0.17499675 -0.3265945 1.0793601
0001d0 d2 7d 93 3e 55 17 e0 3e b1 33 5a be 68 58 a6 3f
       0.2880693 0.437678 -0.21308781 1.299573
0001e0 85 fb 90 3f e5 54 2e be 39 5b 8e 3f 82 20 2a 40
       1.1326758 -0.17024572 1.1121589 2.6582341
0001f0 6f f6 d7 3e 41 d0 b7 3e 75 31 11 bf d2 83 fa 3e
       0.421802 0.35901073 -0.5671609 0.48928696
000200 bf d7 1b 3f ff 05 be bf a2 ff 40 3f 5d 7f 10 3f
       0.6087608 -1.484558 0.75390065 0.5644434
000210 75 ca 3c 3e 16 46 71 3f ae 64 06 3f e9 82 79 40
       0.18436606 0.9424757 0.52497375 3.8986151
000220 38 b9 c8 be b1 48 8b 3f c6 4d 0e bf 7a d9 0b bd
       -0.3920381 1.0881559 -0.5558742 -0.03414295
000230 fc 4b 7c 40 e3 dc 8d 3f 02 58 99 bf 89 6c 27 40
       3.9421377 1.1083034 -1.1979983 2.6159995
000240 00 d4 24 be 0b 0a 8a 3f 5c 0e 30 be 9b fa 63 40
       -0.16096497 1.0784315 -0.17192978 3.5621707
000250 9a 0e 36 40 38 b8 62 bd 97 49 00 bd 61 e6 34 40
       2.8446412 -0.055351466 -0.03132018 2.8265612
000260 84 66 b2 3f 5f 63 0d bf 17 9c 33 3f 09 27 7f 3f
       1.3937535 -0.55229753 0.7016005 0.9966894
000270 fc be 1d 40 99 2f a3 3f 21 a7 06 3d 1b 6d 62 40
       2.4647818 1.2748901 0.03287423 3.5379093
000280 c9 ee ba bd 02 a1 58 3f 87 f4 ab be bd 0b 5f 40
       -0.09127576 0.8462068 -0.33584997 3.4850914
000290 e3 fa d8 3f 0d cb 33 bf 1e d9 1c 40 03 40 4e 40
       1.6951565 -0.70231706 2.4507518 3.222657
0002a0 bb fd 9f 3f 27 d1 34 bf 1a c5 3a 3f 70 2d f1 3f
       1.2499307 -0.7063164 0.72957003 1.8841991
0002b0 39 69 c8 3f 20 27 98 3f 37 a7 70 3e 43 c8 65 40
       1.5657111 1.188694 0.23501287 3.590348
0002c0 58 95 e1 be fd 08 8c bf 93 83 93 3f 41 35 bc 3d
       -0.44059253 -1.0940243 1.1524528 0.09189845
0002d0 70 0f aa 3c 9c 72 71 3f d8 ff 7f be d4 9a 73 40
       0.020759314 0.94315505 -0.2499994 3.806325
0002e0 25 97 0a 3b b2 d4 51 3f 83 3a 96 be 6a fd 6b 40
       0.0021147218 0.8196517 -0.29341516 3.6873422
0002f0 55 0c c9 3f fe a3 19 3e 3a 74 2f 40 df fc 1b 40
       1.5706888 0.15003964 2.741469 2.437309
000300 18 5c 32 3f 98 0d 63 3e 2b fd a3 3f 7a 21 b0 3f
       0.69671774 0.22173154 1.2811636 1.3760216
000310 f5 70 f2 3e ee bf 70 3f 4e 37 ac 3d 0f b0 58 40
       0.47351804 0.9404286 0.08408986 3.3857458
000320 46 f2 99 bd 15 79 49 3f b7 93 3b be 75 5f 0d 3d
       -0.07516913 0.7870038 -0.18318067 0.034514863
000330 30 83 4e be 84 b5 62 3f 46 e9 8f be 44 6d 71 40
       -0.20167232 0.8855822 -0.2810766 3.772294
000340 54 15 17 40 cb cb 3c 3e f1 c7 1a 3f cd 5f 73 40
       2.3606768 0.18437116 0.60461336 3.8027222
000350 e5 a4 2b 3f 50 5f 09 be fe 38 bc 3e d0 91 2b 3e
       0.67048484 -0.13415265 0.36762232 0.16754842
000360 df 8b 56 3f 2f 89 4a be 56 54 5a 3f 3e 6a d4 3e
       0.83807176 -0.19778894 0.85284936 0.41487306
000370 47 67 8b be 5f 29 a7 3f 12 7f 93 3f 27 06 91 3e
       -0.27227232 1.30595 1.1523154 0.28325006
000380 3f 47 57 bd 9d 96 f8 bd 19 64 15 3c aa 82 4f 3f
       -0.05255818 -0.12138102 0.009118103 0.8105875
000390 61 dd c4 3e 3b 04 40 3f 62 9f 50 3f 95 bc 95 be
       0.3845015 0.75006455 0.814932 -0.2924544
0003a0 1d 10 c4 3e 25 30 22 3f 9f 7e 29 3f 3a 48 27 3f
       0.38293543 0.6335471 0.66208833 0.65344584
0003b0 20 d9 40 bd 05 fc ec 3e 7b 3e 99 3e e9 71 7f be
       -0.047082067 0.46286026 0.2993048 -0.24945797
0003c0 bc d3 e5 3d cf f1 c8 3e 8b 3a 2b 3f f3 de 9b be
       0.11222026 0.39246985 0.66886204 -0.30443534
0003d0 bc f0 c1 3f a5 8c c6 3f b2 7f 0e bf 43 76 29 40
       1.5151591 1.5511671 -0.556636 2.6478431
0003e0 a7 7f 8b 3f d1 8e 44 3f 93 04 3e 3f a0 56 04 3f
       1.0898331 0.7678042 0.7422573 0.5169468
0003f0 59 d3 ec 3f 44 49 0a 3e 3e 33 af bc 60 6d 02 40
       1.8501998 0.13504511 -0.021386739 2.0379257

gru.weight_hh_l0 f4 [96, 32]
000000 01 2d d0 be 7e fe 4f 3f 72 33 1c 3f d8 91 1f bf
       -0.40659335 0.812477 0.61016 -0.62331915
000010 49 54 0b 3e 1b da 90 bf 5b 1c d0 bf 87 02 5c 3f
       0.13606371 -1.131656 -1.6258653 0.85941356
000020 dd 71 9a 3e 0e 8a 1c bf 27 87 15 bf 8d 48 9c bf
       0.30164996 -0.61148155 -0.5840935 -1.2209641
000030 c6 14 d2 bf db 2f 2b be 99 87 46 bd eb 47 10 3f
       -1.641259 -0.16717474 -0.04846916 0.5635974
000040 aa 63 16 bf 6e 14 3e be ff be a5 bf 5a d1 7b be
       -0.58745825 -0.18562481 -1.2948912 -0.2459158
000050 c9 88 66 be c8 a1 db be fd be 19 c0 11 7c 05 3f
       -0.22513117 -0.42896867 -2.402282 0.52142435
000060 50 27 ce bf 7d 91 85 3f d9 d5 5e bf de ba 3e 3f
       -1.6105747 1.0435024 -0.87045056 0.74503887
000070 ef cf de be ff 44 1a bf c4 b7 28 bf 71 c5 99 3e
       -0.43518016 -0.6026153 -0.65905404 0.30033448
000080 f1 91 6e bd f4 46 97 40 e1 cf 82 be 34 e4 f4 3d
       -0.05824465 4.7274113 -0.25549224 0.11957589
000090 70 d5 f4 3d e0 6e 88 bd ab 2f b8 3e b9 ca b0 be
       0.119547725 -0.06661773 0.35973868 -0.34529665
0000a0 1e ae bd bd f7 57 1a 3f c5 83 14 3f 76 1f 97 be
       -0.09261726 0.60290474 0.58013564 -0.2951619
0000b0 13 a0 80 bd 86 97 a3 bc db 74 0d 3e 5f 7f 90 bd
       -0.06280532 -0.019969713 0.13814108 -0.07055544
0000c0 65 a2 af bb c5 8f d9 bd d7 bf 3e 3e fb f4 f3 3d
       -0.005359935 -0.10623125 0.18627869 0.11911961
0000d0 29 f5 72 3e 93 63 b9 3e f9 bd 91 3e 8f 84 87 be
       0.23726334 0.36208782 0.2846525 -0.26468322
0000e0 3b 5a c1 3d 30 1c 90 3e 8b 8c 39 be 75 dd 25 3f
       0.09441038 0.28146505 -0.18120019 0.6479104
0000f0 62 32 05 bf e4 50 00 3e c1 ed 6e 3d 8a 0c f8 bd
       -0.52030003 0.12530857 0.05833221 -0.12111767
000100 ff 57 82 3e 2f 4f b6 bd 17 e9 1a 3f 99 76 a0 3e
       0.2545776 -0.08901822 0.60511917 0.31340483
000110 1c 06 4c 3e 18 f3 9e 3e ad 9c a5 3e c7 60 93 be
       0.19924206 0.3104484 0.32346097 -0.28784773
000120 1d 00 a7 3e 91 c4 3f 3e b5 78 2c 3e cf 9f 61 bd
       0.32617274 0.18727328 0.16842921 -0.055084046
000130 ea e2 a0 bd 39 0b 52 be 25 3f ac bd 91 5f a2 be
       -0.078557804 -0.20512094 -0.08410481 -0.31713536
000140 d2 43 d1 3e 85 fa bb be f0 fd 9d 3e 8b 09 83 be
       0.40872055 -0.3671457 0.308578 -0.25593218
000150 c7 5b 14 ba ca ef 9b bc ce 02 84 3e 36 72 29 3e
       -0.0005659428 -0.019035239 0.2578339 0.16547474
000160 30 8b 0f 3f 61 71 5c bd 53 f4 25 3d 64 3a fc be
       0.5607176 -0.053819064 0.04051621 -0.492633
000170 69 41 b0 3e 22 1c 53 be 09 81 66 bd 21 0c 92 3c
       0.34424904 -0.206162 -0.0562754 0.01782805
000180 5a de 14 3f 1e 3e 34 3f c4 ae 35 bd 44 43 90 c0
       0.5815178 0.70407283 -0.044356123 -4.508211
000190 01 c1 51 3e 1c 7d 38 bf 0d c6 4c be 08 5f c4 be
       0.20483781 -0.720659 -0.19997425 -0.38353753
0001a0 63 93 64 3d 2b 96 43 3f 5d 59 40 3f 3b dc c0 bf
       0.05580462 0.76401013 0.7513636 -1.5067209
0001b0 fc 7e 09 be 5f 39 8a be 2a 05 ad bc 5f 3f 49 bf
       -0.13427347 -0.26996896 -0.021120626 -0.7861232
0001c0 f8 a9 00 bf e4 0c 82 be 03 0d 71 bf 4c 90 a9 bc
       -0.5025935 -0.2540046 -0.9416048 -0.020698689
0001d0 c4 e4 8c be 20 95 20 bf 7e 35 73 3e d3 41 bf 3e
       -0.27518284 -0.62727547 0.23750874 0.37354907
0001e0 ea 81 39 be 4c b3 2b be b4 53 87 bf 00 fe 21 3f
       -0.18115965 -0.16767615 -1.0572419 0.632782
0001f0 53 f7 61 3e b7 d0 66 bf 95 ac 80 bf cc e0 b2 3e
       0.22067003 -0.90162224 -1.0052668 0.3493713
000200 f0 44 17 3e 05 3e 93 3d d0 8b 91 bd c2 54 63 be
       0.14772391 0.07189564 -0.07106745 -0.22200301
000210 10 b0 41 40 1f f2 f8 bd 2c 68 c3 3e d3 06 7d be
       3.026371 -0.12155556 0.38165414 -0.24709634
000220 50 7a 8a 3d 59 bd 34 3d 09 ee b9 3c 94 b4 c1 3c
       0.067616105 0.04412589 0.022696512 0.023645677
000230 93 bb f1 3e 96 5c 99 be 3a 22 c9 3d 47 eb 13 3e
       0.4721342 -0.2995345 0.09820981 0.1444522
000240 6c e3 99 3d 0b d0 b2 3b c8 b5 92 bd 82 f9 54 be
       0.075140804 0.0054569296 -0.07163578 -0.20798305
000250 6a ed a7 3c d2 6c 0d bd 15 af a1 be 03 33 fc 3e
       0.02049895 -0.034527607 -0.3157889 0.4925767
000260 fd b3 c4 bc 5c c4 f5 3e 64 0e c8 be bc ee 2b 3e
       -0.024011606 0.48001373 -0.3907348 0.16790289
000270 eb cf 13 bd 38 db 7e be 04 13 17 be 9c de 7d 3e
       -0.036086958 -0.24888313 -0.14753348 0.2479195
000280 1f 5c 86 3f 6f 8f fb 3e 67 2a 67 be 83 fd d0 bf
       1.0496863 0.4913287 -0.22574769 -1.6327366
000290 65 a5 ae 3e 18 ee bd c0 a4 55 4f 3f 5b 16 ab be
       0.3411056 -5.935314 0.8099005 -0.33415493
0002a0 dd 5d 29 bd ac 02 06 3e ac fe 08 3f cb 86 90 bf
       -0.04134928 0.13086957 0.535136 -1.1291136
0002b0 6e 89 53 3f 91 f6 ef bd 3c 6b f6 be 03 e2 b4 3e
       0.82631576 -0.11716951 -0.48128688 0.35328683
0002c0 6c e4 c8 be 8e 50 02 3e 7e cd a3 3d 2c 9e c3 be
       -0.39236772 0.12726042 0.07998179 -0.38206613
0002d0 bd d2 59 bf 41 4b b1 be 07 74 6b 3e 73 cb ce be
       -0.85087186 -0.34627727 0.2299348 -0.40389594
0002e0 67 56 32 3e cf 85 83 bf a4 d3 8b bf 3e b0 11 bf
       0.17415772 -1.027521 -1.0923963 -0.5690955
0002f0 64 54 fd 3d c2 77 7f bf 9f 19 ab bf 94 4b 00 3f
       0.12369612 -0.9979211 -1.3367194 0.50115323
000300 e3 f8 83 3f 1e c8 27 be cc f0 ad 3f 17 a1 0f c0
       1.0310329 -0.16384932 1.358911 -2.2442071
000310 33 f4 8d bd eb f1 cd bf e9 17 9f bf b2 d4 ea 3f
       -0.06931343 -1.6089453 -1.2429172 1.834616
000320 5a 9b bd bd 76 1b 86 bf b0 7e 15 3f 42 59 d2 bf
       -0.092581466 -1.047713 0.58396435 -1.6433489
000330 f8 56 44 c0 dd ba 84 be f4 62 1d bf 02 66 9c 3f
       -3.0678082 -0.25923815 -0.61479115 1.221863
000340 b2 0c 96 3e ac 35 1a 3e 0a 56 13 c0 3c 15 a6 be
       0.2930656 0.15059537 -2.3021264 -0.32438076
000350 2d e7 00 bf 5c 9d ca be 9d 2f 5d c0 6c 9a b9 3f
       -0.50352746 -0.3957318 -3.456031 1.4500251
000360 73 1d 84 c0 a3 f5 14 40 78 45 13 c0 50 07 60 3f
       -4.128595 2.3274925 -2.301115 0.8751116
000370 36 b4 c7 be 5b cd 84 bf 46 c7 9e bf 9f 37 de 3e
       -0.39004678 -1.037517 -1.2404563 0.4340181
000380 f1 9e 7b be 5a a9 de 3e d9 5e 89 be cf 14 eb be
       -0.2457235 0.4348858 -0.26830176 -0.45914313
000390 eb 94 f9 bd 9b 52 d3 bd 71 5d 1d 3f bc 49 e5 3e
       -0.12186607 -0.1031849 0.61470705 0.44782817
0003a0 7e 4e b7 be bc 64 38 3e 61 c3 bd 3e 9a e2 ef be
       -0.35802072 0.18007177 0.37063125 -0.4685257
0003b0 c8 55 30 3f 7f ec 59 3e f6 b7 94 3d 46 d4 0d bf
       0.6888089 0.21281622 0.0726165 -0.5540203
0003c0 57 0a bf 3e b4 ec 4a bf b7 83 f6 3d 73 7a 4f bd
       0.37312576 -0.7926743 0.12036841 -0.050653886
0003d0 c2 bd 24 be 3d f5 bf bd d7 80 44 3f b2 33 b9 3e
       -0.16088012 -0.09372947 0.76759094 0.36172253
0003e0 1e be 1b 3c 65 ed 23 bf ea 60 45 bd 8e dd 5c bf
       0.009505777 -0.6403411 -0.048188128 -0.86275566
0003f0 16 05 56 3f b1 e5 c6 bd ca 97 de bd 0c 01 23 bd
       0.8360151 -0.09711779 -0.10868795 -0.03979592

gru.bias_ih_l0 f4 [96]
000000 90 3c 5f 3e f5 ba dd 3e 7d 2c 10 40 36 b2 06 3f
       0.21800447 0.433067 2.2527153 0.5261568
000010 e9 82 5e be 8d 07 51 3f d7 87 19 3f f4 4e 0e 40
       -0.21729626 0.81652147 0.599729 2.223569
000020 b3 41 32 3d 56 a7 fc 3e 31 d8 a5 3e 92 45 dd 3e
       0.043519687 0.49346417 0.32391503 0.4321714
000030 56 f3 ac 3e e6 b2 05 bf b1 7c a2 be 51 54 f9 3e
       0.337794 -0.522261 -0.31735757 0.4869714
000040 cf 80 12 3f 8f 24 f4 be c1 fc 8c 3f 4c f9 72 be
       0.57227796 -0.47684142 1.1014634 -0.23727912
000050 58 1c 41 3f 82 8e c1 3c 2c fd 6b 3f f5 d1 cc 3f
       0.75433874 0.023627523 0.92183185 1.6001574
000060 fd 9a 40 3f 88 fd d1 3d 83 6f 47 3f 16 c9 1f 3f
       0.75236493 0.102534354 0.7790453 0.6241621
000070 d6 7a af 3f 5d 6d db 3f 5b b7 bc 3e 94 0e 32 3f
       1.3709362 1.714275 0.3685864 0.69553494
000080 2d 67 97 3d 9c 03 bb 40 74 2a bc 3f 40 5f c7 3f
       0.07392726 5.8441906 1.4700456 1.5575943
000090 76 c0 c9 40 01 bc c8 3f d6 4e 5f 3e b6 c6 b1 3f
       6.304744 1.5682374 0.21807417 1.3888767
0000a0 9c 4b d5 40 88 de 60 3f fd 22 4c 3f 17 76 8b 40
       6.6654797 0.87839556 0.7974089 4.3581653
0000b0 74 2b ac 3e 46 b7 ca 40 56 b8 cc 40 f5 b2 47 3f
       0.33626902 6.3348722 6.397502 0.7800744
0000c0 88 1b 79 3f 0d d0 ad 40 9e 18 8a 3f d2 d1 ce 40
       0.97307634 5.431647 1.0788763 6.463113
0000d0 84 3b 19 40 25 b0 c0 be 55 3a e8 3c c5 e8 4c 3f
       2.3942575 -0.37634388 0.028348127 0.8004268
0000e0 e4 0f 82 3f 95 77 2e bf 81 c5 71 3f 34 b6 10 3f
       1.01611 -0.6815122 0.9444199 0.5652802
0000f0 34 56 dc 3e 80 5c 6f 40 e2 1e 9e 3e 91 33 a0 3f
       0.43034518 3.7400208 0.30882937 1.2515737
000100 be 49 d3 bc b1 61 da 3c b0 11 e1 3b 59 be 6a bd
       -0.025791999 0.026657911 0.0068685636 -0.057310436
000110 ac 3c 7d bc 99 00 cc bc 27 55 26 3e ec 2c 85 bc
       -0.01545636 -0.024902629 0.1624342 -0.016256772
000120 b0 7e 25 bd 63 3d bc bc 4a f4 03 3c 68 ad 49 3d
       -0.04040402 -0.02297849 0.0080538485 0.04923764
000130 70 2e 37 3e f0 35 a5 bc 26 04 db 3c b8 e6 11 3d
       0.17888808 -0.020167321 0.026735377 0.03562042
000140 6d a0 af bd 05 94 ae 3c ba 3d de 3b 26 c6 13 ba
       -0.08575521 0.021310816 0.0067822607 -0.00056371314
000150 40 03 1d bd 45 e0 67 bc 55 6b 10 3e 52 ec e1 bb
       -0.038333178 -0.014152591 0.14103444 -0.0068946267
000160 e5 9d b5 bd 97 62 4d be d3 82 9c 3d 94 56 02 bc
       -0.088680066 -0.2005714 0.0764214 -0.007955212
000170 bd c3 85 bc e4 71 b8 3c 3f bc 09 3e 2f 92 9a bd
       -0.016328687 0.022515245 0.13450716 -0.075474136

gru.bias_hh_l0 f4 [96]
000000 66 cb 11 3e 1b 48 86 3e 48 8b 05 40 1b 11 0a 3f
       0.14237747 0.26226887 2.086626 0.5393235
000010 b9 68 94 be b4 6b 54 3f 5b d7 e0 3e 79 c6 fc 3f
       -0.28986147 0.8297684 0.43914303 1.9748069
000020 81 f0 59 3c e5 db 3c 3f dc f3 18 3f a1 cf 20 3f
       0.0133019695 0.7377303 0.597471 0.62816817
000030 10 bc 64 3e e5 c3 36 bf 74 e9 1d bf a0 6e 0f 3f
       0.22337365 -0.7139266 -0.61684346 0.56028175
000040 86 4f 4d 3f 3e 87 a0 be ea 09 5d 3f 95 6b cb be
       0.8019947 -0.31353182 0.8634325 -0.39730516
000050 c3 9d 86 3f 19 1d 02 be a7 8b 79 3f b3 44 de 3f
       1.0516895 -0.12706412 0.9747872 1.7364715
000060 b1 c9 f2 3e 8d 56 04 3e bf 08 3f 3f c0 c5 69 3f
       0.47419503 0.12923642 0.7462272 0.9131737
000070 3f e8 98 3f ed 9b bc 3f 41 4d b5 3e 45 d0 52 3f
       1.1945876 1.4735085 0.35410503 0.82349044
000080 b7 04 8f bd d9 8c bd 40 78 48 b8 3f 4d 5b cb 3f
       -0.06983321 5.9234433 1.4397116 1.5887238
000090 f4 fa c6 40 b8 28 db 3f 1a e0 92 3e 67 bc b1 3f
       6.218134 1.7121801 0.286866 1.3885621
0000a0 f1 67 d2 40 d9 ca 81 3f d0 21 6c 3f 28 03 89 40
       6.575188 1.0140029 0.92239094 4.2816353
0000b0 f7 cb d0 3e 30 a3 d0 40 c4 cf cc 40 50 70 07 3f
       0.40780613 6.5199203 6.400362 0.5290575
0000c0 ad 02 9f 3f e6 73 a9 40 d7 90 8c 3f 9c 38 d0 40
       1.2422692 5.2953978 1.0981702 6.5069103
0000d0 c6 60 10 40 49 10 1b bf 0e c8 90 3e 56 7e 68 3f
       2.2559066 -0.60571724 0.2827763 0.90817773
0000e0 3d 93 78 3f c3 dc 52 bf 1a 56 3d 3f 89 7b 1e 3f
       0.9709967 -0.82368106 0.73959506 0.6190725
0000f0 c4 ef 01 3f e7 11 7d 40 32 18 b6 3e 9b 20 b4 3f
       0.5075648 3.9542177 0.35565335 1.407245
000100 e5 98 58 3c 1a 66 19 bd 96 72 8e 3a 1b 68 04 3e
       0.013220047 -0.037450887 0.001086789 0.12930338
000110 08 c3 58 bc 12 47 e1 3d ca ec 17 be a8 4f 7d 3b
       -0.013230093 0.10999884 -0.14836422 0.0038652215
000120 03 aa b1 3d a2 8e 04 3e 2f 91 82 3d 23 eb 23 bc
       0.08675005 0.12945035 0.06375348 -0.010004791
000130 8a 32 7b be 17 30 ae bc 21 e0 b9 3c 23 66 0f be
       -0.24530998 -0.021263165 0.02268988 -0.14003806
000140 35 b5 af 3d 45 f6 7e 3d b3 08 07 bd d5 86 1f 3d
       0.085794844 0.06224658 -0.03296728 0.038946945
000150 4d d3 86 3d f6 ab 8b 3d 7d 72 12 bc 67 71 f6 3b
       0.06583271 0.06819908 -0.008938429 0.007520843
000160 8b fc b5 b9 2e cb 07 bb 4c d9 bb bd 52 1a 62 3d
       -0.0003471117 -0.002072047 -0.091723055 0.055200882
000170 2e b3 05 bb 3a 95 c4 bb 53 43 89 bd e4 fb 8d 3d
       -0.002040099 -0.0059992345 -0.06702294 0.0693281

dense1.weight f4 [128, 768]
000000 28 01 54 3c 81 cc 2d bd 99 94 88 3d 06 6c 4a 3d
       0.012939729 -0.04243136 0.06668968 0.049419425
000010 64 27 48 3d 83 20 af 3c b8 a1 ed bc ae 5f 37 3c
       0.04886569 0.021377807 -0.029007778 0.011192245
000020 7a a3 20 bd 27 42 c9 bc fa 97 ab 3d eb c8 39 3c
       -0.039218403 -0.024567677 0.083785966 0.0113394065
000030 3f 62 16 3c 03 31 c3 bc 24 7c 06 bd 4b cf cb 3c
       0.009178697 -0.023827082 -0.032833233 0.024879118
000040 4d 12 fc 3b 3e 21 9a 3d ac 78 11 bc c2 b1 5b 3d
       0.0076926113 0.07525872 -0.008878868 0.05363632
000050 c9 e5 e9 bb d5 c0 9a 3b 4f 56 ca bd 08 a1 12 bd
       -0.007137988 0.0047226944 -0.09879743 -0.035798103
000060 4f eb c8 bc 38 fd 44 bd 39 ad 81 3d f4 11 29 bb
       -0.024526266 -0.04809305 0.06331868 -0.0025798054
000070 60 e0 a0 3d da 0b 85 bd b4 69 c6 bc 15 3b a8 3b
       0.07855296 -0.06496401 -0.024220325 0.0051339963
000080 99 93 3d bd 4d ae 0e bd fd 1f 94 3d 46 1e ae 3d
       -0.04628334 -0.034834195 0.07232664 0.08501868
000090 48 1c 28 3b 95 1c 31 3d 95 4f e4 3b 4b 11 87 3d
       0.0025651623 0.04324015 0.0069674947 0.06595095
0000a0 8f 3d 05 bd 85 94 7f 3c 11 fe 65 3d f4 fd 8d 3d
       -0.03252941 0.015599375 0.0561505 0.06933203
0000b0 97 ed d5 bd d8 0a be bc d7 1e 2d bb 94 c3 96 3b
       -0.10445707 -0.02319853 -0.0026416087 0.0046009514
0000c0 0a dd ae 3b 23 09 36 3d e9 eb 66 bd 4a 60 62 3d
       0.0053364085 0.044442307 -0.056377325 0.05526761
0000d0 3b 4b f4 bb a8 8c 4c 3c 04 a3 2e bc ea 35 a2 ba
       -0.0074552572 0.012484707 -0.010658983 -0.0012375687
0000e0 9a 3c 4a bd ee 1c 6c bd 7b 9a c9 3c b1 fc aa bc
       -0.0493742 -0.057644777 0.024609795 -0.020872446
0000f0 58 8d 8b 3c 36 f5 52 bd 80 c6 6b bc c9 5c 92 bc
       0.017035171 -0.051503383 -0.014390588 -0.017866509
000100 e5 65 5f bd bb d8 6d bc 07 db ab 3d 34 de 81 3d
       -0.054540534 -0.014517005 0.083913855 0.0634121
000110 ef 60 ff bc 53 a6 52 3d 3b e6 e3 3b 94 e8 d5 3c
       -0.031174151 0.05142815 0.006954936 0.026111878
000120 3c 61 e0 bb 0d 5d 1a 3d be 9a fc 3d 0b 93 a1 3d
       -0.0068475287 0.037686396 0.12334202 0.07889374
000130 60 44 03 3d df c6 31 3d 9e 5e 6d 3b 73 7b 51 bc
       0.03204763 0.04340255 0.0036219726 -0.01278578
000140 f6 bc cb bc fa aa d4 3d e7 af cd bc 4d a2 7b 3d
       -0.024870377 0.10384174 -0.02510829 0.06143408
000150 e1 67 b2 bb 3f fb 7c bc 98 67 0e bb f7 7f c1 bb
       -0.0054445122 -0.015440761 -0.0021729227 -0.005905147
000160 8c 37 f3 bc 7b 1f 13 bd d9 e1 a8 3d 18 49 20 3d
       -0.029689573 -0.035918694 0.08246202 0.039132208
000170 34 0d 09 bb 2d 2f 7b bd 8b 19 45 3d 15 d5 cd bc
       -0.002091241 -0.061324287 0.048120063 -0.02512602
000180 47 7f 5b bc 0b b4 3d bd 24 d4 26 bc 96 3c f9 3d
       -0.0133970445 -0.04631428 -0.010182414 0.12169759
000190 4e 9d 02 bd ed c2 9f 3d 75 50 b1 3c c1 0e bb bc
       -0.0318883 0.07800851 0.02164481 -0.022834184
0001a0 25 17 58 bd 81 89 3a 3d 73 20 97 bc 0a f2 8f 3d
       -0.052756447 0.04554129 -0.01844809 0.07028587
0001b0 93 6c 1e bd 9c c8 55 bc 74 6a 8c 3c 2c 41 e1 ba
       -0.038677763 -0.013048317 0.017140605 -0.001718556
0001c0 4f ae 79 3d de 1f 0b 3d 60 0c a8 bc 24 32 db 3d
       0.06095725 0.033965938 -0.020513713 0.10702923
0001d0 79 b1 53 3d 45 ae 7b bb f8 dd f6 bb 84 d5 3f bd
       0.051682923 -0.0038403433 -0.007533785 -0.046834484
0001e0 57 24 06 3d 36 19 19 bd 51 ef 12 3d f2 3f 91 3c
       0.0327495 -0.03737756 0.03587276 0.017730687
0001f0 3c 04 c1 3c 42 6c cd 3b 58 7f c2 bd 03 a7 d8 3c
       0.02356159 0.006269009 -0.09496945 0.026446825
000200 41 7b 5b 3b 98 e1 cc bc 8a a1 27 3d 34 b6 55 3d
       0.0033490213 -0.025009915 0.04092554 0.052175716
000210 36 bd 49 bd 1a 1d 8b 3d 1d bd bb 3c c3 10 32 3d
       -0.04925271 0.0679266 0.022917325 0.043473016
000220 f9 30 84 3a c2 70 43 3d 84 84 5b 3c 1c 82 82 3d
       0.0010085396 0.047714956 0.013398293 0.06372473
000230 e0 d3 30 bd 02 38 89 bc 3f c5 9f 3c b4 f3 d1 3c
       -0.04317081 -0.01675034 0.019503234 0.025628902
000240 39 22 70 3d c1 3a 8a 3d a3 55 8c bd f1 3e 76 3d
       0.058626387 0.06749488 -0.068522714 0.06011862
000250 d3 ea ce 3c 18 4e 21 bd 8b af 15 3d d9 e9 34 3d
       0.025258457 -0.039381117 0.036544364 0.044168327
000260 a5 83 4e bc 49 c7 03 bd 63 6e 0a 3d aa 8a a5 bb
       -0.012604629 -0.032172475 0.03379668 -0.0050519304
000270 8b e6 c3 3c 80 3f 69 bd 41 f9 58 bd 80 07 8c bd
       0.023913642 -0.056945324 -0.052972082 -0.06837368
000280 18 20 eb 3a 02 72 84 bc 72 2b 1f 3d 7f 26 ac 3d
       0.0017938642 -0.016167644 0.038859792 0.0840578
000290 ca 9b 63 bd 20 41 d8 3c 1e e2 2d bd c9 f8 9a 3d
       -0.055568494 0.026398242 -0.04245197 0.07566983
0002a0 51 c8 d1 bb a0 a5 84 3d 0c 04 8a bc 11 9d 6f 3d
       -0.0064020534 0.06476903 -0.016847633 0.0584994
0002b0 2a 5f c1 bd bb b8 21 3c 07 2c ce 3a a3 a5 b7 3c
       -0.09441979 0.009870703 0.0015729674 0.022417849
0002c0 50 56 41 3d 92 bf d0 3d 48 e4 72 bd a1 6c cd 3d
       0.047201455 0.10192789 -0.059299737 0.10030485
0002d0 3d 11 25 3d 28 d1 a4 3b c1 77 d2 3c 48 07 0d 3d
       0.040299643 0.005029816 0.025691869 0.034430772
0002e0 90 8f ea ba de 9b d1 3b f3 31 96 3d 67 84 5d bd
       -0.0017895568 0.0063967546 0.07333746 -0.054081347
0002f0 85 59 ff bc c8 2f 2c bc d7 56 66 bd eb 6a c1 bb
       -0.031170616 -0.010509439 -0.05623516 -0.005902638
000300 40 28 e8 bd c9 d6 a5 bc 20 a3 2b 3d 57 c3 7a 3d
       -0.11335802 -0.02024402 0.041903615 0.061221447
000310 de 20 f0 bc 45 95 91 3d 58 12 19 bd 63 d0 69 3d
       -0.029312547 0.07108549 -0.03737101 0.0570835
000320 3b 23 03 bd 21 79 09 3d 84 09 43 3d 85 1e b8 3d
       -0.03201602 0.033562783 0.047616497 0.08990196
000330 5e d3 2b 3d 92 c1 22 3d e1 80 a3 bc c6 ba b2 bc
       0.041949622 0.039735384 -0.019958915 -0.021817576
000340 4b 82 d7 3c 85 53 4b 3d 4f b5 2b bd b5 42 ce 3d
       0.026307246 0.049640197 -0.041920956 0.10071317
000350 0f e2 c2 3c 4b cc 23 3b 64 31 1a 3d a4 5e ee 3c
       0.023789434 0.0024993594 0.03764476 0.029097863
000360 d2 f0 4a bd 22 4a af 3b 29 a5 43 3d c0 0e 08 3d
       -0.04954607 0.0053494135 0.04776493 0.03321719
000370 3d ec 3b bd 38 9f 0c bd 52 94 09 ba eb eb 8f bd
       -0.04587959 -0.03433153 -0.00052482367 -0.0702742
000380 03 04 5a bd fd 9c 83 bc af 94 43 bc c6 b1 6c 3d
       -0.053226482 -0.016066069 -0.011937304 0.057786725
000390 1a 63 f3 bc a7 7e a2 3d fb e7 25 3c a6 16 ac 3b
       -0.029710341 0.07934313 0.010126109 0.0052517233
0003a0 23 43 8a 3c 73 54 92 3c 71 30 c1 3c 82 16 ad 3d
       0.016877716 0.017862534 0.023582669 0.08451559
0003b0 0d 22 f0 3c 28 76 1b 3c da 62 85 bc c0 25 26 bc
       0.029313112 0.00948862 -0.016282488 -0.010140836
0003c0 b7 d0 cb 3d 01 2f 52 3d 38 5d 21 bd 09 41 89 3d
       0.099519186 0.051314358 -0.03939554 0.067018576
0003d0 2a ca 17 3d 31 d3 65 bc a4 15 19 3d e6 8b fc bc
       0.037058033 -0.014027403 0.037374154 -0.030828428
0003e0 d6 6d 57 bd 8f 2b c8 bb 90 3e e8 3c 2d 95 13 bd
       -0.052594982 -0.006108708 0.028350145 -0.036030937
0003f0 17 94 49 bc 1f 8f 62 bd cb 2d 0b bd b8 53 93 bd
       -0.012303374 -0.055312272 -0.03397922 -0.071937025

dense1.bias f4 [128]
000000 c3 38 23 be 3f b9 54 be 0b fa 32 be ab 6e 39 3e
       -0.15939622 -0.20773791 -0.17478196 0.18108623
000010 9a b4 2e be 89 e8 bb be be 25 35 3e 12 77 1b be
       -0.17061082 -0.36700848 0.17690179 -0.1518214
000020 7f 3f 0c be 75 b8 33 be ae 1a 59 be c9 6b 3f 3e
       -0.13696097 -0.17550834 -0.21201584 0.1869346
000030 25 55 20 3e 92 2d 43 3e 4f bd 22 be 4b c8 fc bd
       0.1565748 0.19060352 -0.15892528 -0.1234289
000040 6d 7d 25 be 6a 49 31 3e fd d0 7a be 9c 06 4e 3e
       -0.16161127 0.17313161 -0.24493785 0.20119709
000050 7d 1b 2c be ab fe a9 be 6d 77 27 be 59 9b 74 be
       -0.16807361 -0.3320211 -0.16354151 -0.23887385
000060 5f 10 44 3e f6 43 12 be 34 d9 37 be 30 99 3a 3e
       0.1914687 -0.14283738 -0.1795395 0.18222499
000070 cb d5 12 3e ba 13 0a 3e 0f 62 88 bd 19 8d 31 be
       0.14339368 0.13484088 -0.06659328 -0.1733898
000080 c8 13 38 3e cc a8 1b 3e 1c fd 16 be 51 66 37 be
       0.17976296 0.1520111 -0.14744991 -0.17910124
000090 d6 69 3b 3e f7 ac 1c be 5b bd 11 be c1 59 66 be
       0.18302092 -0.15300356 -0.1423239 -0.22495176
0000a0 48 c7 2a be 52 16 02 be 6b 55 43 3e 1a 2f 3d be
       -0.16677582 -0.12703827 0.19075553 -0.18474999
0000b0 66 9b 31 3e 62 83 de bd da 83 df bd 98 5a 97 be
       0.17344436 -0.10864903 -0.109138206 -0.29561305
0000c0 2f 4b 02 be dd e2 02 be 02 11 04 be a4 b3 ee bd
       -0.12723993 -0.12781854 -0.12897113 -0.116553575
0000d0 b2 2b 9a be 3a 0d c3 be 49 66 0b 3e 91 7e a5 3d
       -0.30111462 -0.3809603 0.13613237 0.08080781
0000e0 86 66 43 3e 78 bd 56 bd 18 06 f8 bd bf cf 5e be
       0.19082078 -0.052426785 -0.12110537 -0.21758936
0000f0 a3 e6 e7 bd f0 7d 09 be 30 dd 31 be 2e 02 34 3e
       -0.11323287 -0.13426948 -0.17369533 0.17578956
000100 04 fa 1b 3e c5 0f 2e 3e 4d 6c 81 be c1 31 32 3e
       0.15232092 0.16998203 -0.2527794 0.17401792
000110 ff ef d4 3d 75 c3 31 be a0 9a 2d 3e 73 58 38 3e
       0.10397338 -0.17359717 0.16953516 0.1800249
000120 d5 b7 3c 3e cf 07 43 3e 1a 2f 3f 3e b6 1e 75 be
       0.18429501 0.19045947 0.18670312 -0.23937497
000130 c8 60 6b bd d7 5b 11 be 65 e9 ed bd a4 82 21 3e
       -0.057465345 -0.1419519 -0.11616782 0.15772492
000140 3a 71 d3 3d 75 6f 08 be 12 98 57 be ed c7 2b 3e
       0.10324331 -0.13323767 -0.21054104 0.16775484
000150 ec b2 3a be 45 6a 29 3e 35 62 3f 3e 7e 28 18 be
       -0.18232316 0.16544445 0.18689807 -0.14859197
000160 41 14 32 3e e3 59 f0 bd e6 cb 11 be 3a d8 04 be
       0.17390539 -0.117358945 -0.14237937 -0.12973109
000170 be e0 33 3e 4e 1b 3a 3e 2f 13 15 be de 8e 33 3e
       0.17566201 0.18174478 -0.14558099 0.17534968
000180 fe 3f 2a 3e 39 9e d2 bd 8c 87 24 3e aa a8 2b 3e
       0.16625974 -0.10284085 0.16067332 0.16763559
000190 66 77 2b 3e 86 ac 16 be 22 38 3c be bc 69 05 be
       0.16744766 -0.1471425 -0.18380788 -0.13028616
0001a0 d0 61 f9 3d 7c 7a d5 bd 6f a0 7a bd 3f 80 29 3e
       0.121768594 -0.10423753 -0.061188158 0.16552828
0001b0 dc 3c b2 bd 18 94 41 3e a9 01 b1 be 4a f7 35 3e
       -0.08703014 0.1890415 -0.3457158 0.17770115
0001c0 41 58 0a be 44 1d 4a be 3f d0 03 be 1a 5b 1f be
       -0.13510229 -0.19737726 -0.12872408 -0.15562096
0001d0 e7 c6 f6 3d 9e c4 48 3e 3c 4f c0 bd 44 49 41 3d
       0.12049656 0.19606254 -0.09390113 0.047189012
0001e0 7e f9 29 be ef 21 23 3e db f2 1b be 14 c8 10 3e
       -0.1659908 0.15930913 -0.15229361 0.14138824
0001f0 3c 0a 2c 3e 93 e2 3e be 4d 6c 53 be 7d 1f 06 be
       0.16800779 -0.18641119 -0.20646782 -0.1309795

dense2.weight f4 [1, 128]
000000 e2 83 64 3c fd 9c dd bc 3a a4 68 bc d1 c0 37 3d
       0.013947459 -0.027052397 -0.014199311 0.04486162
000010 f2 fd 38 3c 5f 18 ad be 9d ff 35 3d a5 5c df 3c
       0.011291014 -0.33807656 0.044433225 0.027265856
000020 b7 60 4a 3a 33 ac e1 3d 34 0d a7 ba 5f 33 12 3d
       0.00077201 0.110191725 -0.0012745024 0.035693523
000030 36 cb 4d 3d 7d 59 0f 3d 1b dd 6c 3b bd 84 f5 bb
       0.050242625 0.034997452 0.0036142531 -0.0074926303
000040 1a 5b 80 bb ca 9b 25 3d e3 7c da 3e 08 cb 1d 3d
       -0.00391711 0.040431775 0.42673406 0.038523704
000050 c1 dc b7 3c 45 5c e9 be 31 47 ff 3c 1c c7 95 3c
       0.02244413 -0.4557821 0.031161876 0.01828342
000060 e4 7a 2d 3d cc 8a f2 3c 71 a9 ad 3c a6 3b 36 3d
       0.042353526 0.0296072 0.02119896 0.04449048
000070 9d 65 3c 3d e2 67 4e 3d b5 5d bc bb 65 f8 fd bc
       0.045995343 0.05039204 -0.0057484754 -0.031002233
000080 19 bf 21 3d bb b8 36 3d 81 3b 74 bc 08 c3 b5 3c
       0.039488886 0.044609766 -0.014906765 0.022187725
000090 9e ff 2b 3d d2 35 da bb 4f ab 8c bc 9a c8 20 bb
       0.041991822 -0.006659248 -0.01717153 -0.002453363
0000a0 82 77 28 bc 6d 26 6f 3c f0 50 33 3d 2a 52 bd bc
       -0.010282399 0.014596564 0.04377836 -0.023110468
0000b0 5b fa 36 3d 14 b4 33 bc 4e 08 51 ba d4 ee 2d bf
       0.04467235 -0.010968227 -0.0007973955 -0.6794255
0000c0 6f b2 08 bc 65 3b 97 3a 80 8a c2 3b 67 38 e8 bc
       -0.008343323 0.0011538087 0.0059369206 -0.028347207
0000d0 90 be 83 3c 34 00 4e bf ac 2e 37 3d c6 0a 77 3d
       0.016082078 -0.8046906 0.044722244 0.06031301
0000e0 42 5d 18 3d 72 ac 48 39 a1 65 94 bb 15 db ae bc
       0.037198313 0.00019137727 -0.0045287167 -0.0213447
0000f0 23 79 47 bb 0e 49 e8 bc 49 36 23 3c 22 86 31 3d
       -0.0030437193 -0.028355148 0.009961673 0.04334081
000100 bb bc 36 3d c8 cb 20 3d a3 47 a7 be 2c 62 26 3d
       0.04461358 0.03925684 -0.32671842 0.040620968
000110 47 41 5b 3d b6 a1 d8 3c 1c f9 48 3d 56 94 1a 3d
       0.05352905 0.026444297 0.049065694 0.03773912
000120 c9 d4 21 3d 81 e8 2a 3d 81 f8 2e 3d c8 fa 58 ba
       0.03950957 0.04172564 0.04271746 -0.00082771154
000130 78 96 dd bc de 6c 66 3b ab 8f 4a 3b 37 86 40 3d
       -0.027049288 0.0035160105 0.0030908387 0.047002997
000140 aa 9f 56 3d 2e 9a 2c 3c 68 30 0a bd 05 b0 37 3d
       0.05239836 0.010534806 -0.03373757 0.0448456
000150 55 b3 c1 3c 41 cc 2c 3d 0d 39 25 3d 2e 4c 8d 3c
       0.023645082 0.04218698 0.04033761 0.01724824
000160 f4 c0 2f 3d 28 e1 02 3d 22 82 f1 3c a6 5e 12 3c
       0.042908624 0.031953007 0.029480997 0.008933699
000170 6b ec 2c 3d 91 46 39 3d b2 b7 e3 bb 99 06 37 3d
       0.042217653 0.045233313 -0.0069493884 0.044684026
000180 7c 0c 36 3d b2 10 81 3b ad 39 34 3d 67 c5 1f 3d
       0.0444455 0.003938758 0.044000316 0.039006617
000190 ee 87 2c 3d e1 80 e4 bb b7 f7 82 3a 9e 0f f1 3b
       0.04212182 -0.0069733714 0.0009992038 0.007356598
0001a0 56 95 45 3d ac 81 2b bd ed d0 0c ba 30 7f 42 3d
       0.04823812 -0.04187171 -0.00053717085 0.047484577
0001b0 2b 88 e8 39 67 54 2a 3d 35 e9 2e bf 84 cb 26 3d
       0.0004435194 0.0415844 -0.68324596 0.04072143
0001c0 e6 b5 90 bc fb 2d d8 3c cd c3 b6 3c dd 05 80 bb
       -0.017664861 0.026389113 0.022310162 -0.003906949
0001d0 a7 75 48 3d 3b 88 3b 3d a3 9b 6f bc c9 b0 78 3d
       0.048940327 0.045784216 -0.014624509 0.06071547
0001e0 dd 88 c3 3e da ea 37 3d 70 50 ad bc e3 79 39 3d
       0.38190356 0.044901706 -0.02115652 0.045282256
0001f0 71 7f 2c 3d f9 4f d2 ba 51 12 c0 3c eb 9f 05 bc
       0.042113725 -0.0016045562 0.023446234 -0.008155803
