model/weighs_models/LSTM-Attention-XGBoost-part_model.pth (torch, 320375 bytes, 7 tensors)

lstm.weight_ih_l0 f4 [528, 4]
-0.48562732 -0.093955815 -0.91692626 -0.29252377 -0.036053926 -0.5771961 0.48935467 -0.17405257
0.21645074 -0.023697961 0.4679988 -0.3607682 0.11798683 0.017453365 0.42040956 -0.4760549
0.5917688 0.07561143 0.001953953 -1.4583179 0.328594 0.09924134 0.11856999 -1.0789148
-0.069593556 -0.2848749 0.11062065 -0.4184667 0.053935796 -0.2959016 -0.009848514 -0.9058309
-0.4311661 -0.12296612 -0.5704821 0.015985813 0.3097317 -0.32333365 1.480662 -0.21232988
0.13198265 0.15972622 -0.722981 -0.51967734 -0.5299496 -0.058005773 -0.16861258 -0.08408855
0.205975 -0.19228789 0.42192808 -0.96491057 -0.44469163 0.22852905 0.21635787 -0.2089887
-0.5378102 0.15612395 0.027189761 -1.2315305 0.35548708 0.018864332 0.21462701 -1.1200813
-0.12629512 0.5282967 -0.68778926 -0.015493429 0.12498243 -0.21899895 0.77418506 -0.25763
-0.30056325 0.271508 -0.39627084 -0.23758522 0.17750151 0.49471 -0.74796855 -0.024496555
-0.06816755 -0.4901208 0.90610075 -0.24125756 0.133478 -0.18641575 -1.6028938 -1.1346048
-0.46827924 0.6880998 0.5850693 -0.0816094 -0.5001027 0.47202888 -0.19970413 0.08360025
-0.7934747 -0.1538335 -0.207326 -0.94318503 -0.1059119 0.30488977 0.16178802 -0.5236466
-0.014473 -0.25894925 -0.16555814 -0.70335555 0.1372953 0.043078393 0.33280945 -0.44152686
-0.070882976 0.36546794 -0.44005853 -0.9091657 -0.32094797 -0.34849116 -0.099956065 -0.3306716
0.060385317 -0.26921335 0.36611193 -0.5657734 -0.7111387 0.428533 -0.25182083 -0.23732474
0.44975644 -0.15936927 -0.1137908 -0.85783994 -0.07919393 0.31165677 0.4269554 -0.16234939
-0.14517353 -0.043655373 0.16376755 0.11590991 0.3106675 -0.09423668 0.30966505 -1.0208429
-0.3059707 -0.49729672 0.17748058 -0.4173021 0.05030161 0.3289802 0.49766228 -0.6793412
0.27209458 -0.06296563 0.40288237 -0.78594494 -0.0664289 0.9360261 0.6634316 -0.014293921
0.35739657 -0.051362514 0.27512363 -0.46121997 0.03665258 -0.0113255475 0.407761 -0.13482076
0.1105422 0.5331748 0.2565342 0.03904045 0.22601539 -0.18745282 0.7344103 -0.12611437
0.3850343 0.08318542 0.31086257 -1.1237377 -0.6751452 -0.015683431 -0.22459882 -0.037904453
0.43109632 0.12584305 -0.20029324 -1.2673931 0.4368964 -0.037960693 0.21590726 -1.2517776
-0.1301698 0.30667597 0.34631371 -0.054155737 -0.2711751 -0.2757661 -0.74114597 -0.3082294
-0.505229 0.2978278 -0.26306868 -0.266393 -0.52960914 0.8365386 -1.3744862 -0.29368168
-0.65557194 0.4424136 -0.555624 -0.5632478 -0.04891442 -0.2704568 -0.011988235 -0.6611362
0.07226987 -0.1750526 0.58300257 -0.94351584 -0.14985774 0.41605118 0.137634 0.042860936
-0.5310474 0.4726803 -0.13869435 -0.46809107 -0.011092364 -0.20279075 -1.2469043 -0.048017833
0.18320787 0.63896227 -0.6091287 -0.45360708 0.14575198 0.16866665 0.035210885 0.06420951
-0.5457502 0.18800618 -0.53105843 -0.16270173 0.37245864 -0.008222669 0.41119397 -0.7655675
-0.46602204 0.77581394 -0.74264234 -0.11072979 -0.25770512 0.5400715 -0.12841196 -0.36006683
00000000: 25a4 f8be e86b c0bd aebb 6abf adc5 95be
00000010: 48ad 13bd 20c3 13bf b28c fa3e d63a 32be
00000020: 43a5 5d3e 3a22 c2bc 8a9d ef3e 9cb6 b8be
00000030: 14a3 f13d 5cfa 8e3c ec3f d73e 78bd f3be
00000040: 297e 173f 2ada 9a3d e40d 003b 29aa babf
00000050: 793d a83e 0b3f cb3d d3d4 f23d e119 8abf
00000060: 1187 8ebd 1fdb 91be 148d e23d 4441 d6be
00000070: c8eb 5c3d 6a80 97be a95b 21bc 89e4 67bf
00000080: cec1 dcbe a9d5 fbbd 1d0b 12bf aef4 823c
00000090: 2795 9e3e fd8b a5be 5586 bd3f 016d 59be
000000a0: 7626 073e 458f 233e 4815 39bf 9309 05bf
000000b0: c7aa 07bf 7697 6dbd c7a8 2cbe 9e36 acbd
000000c0: 1ceb 523e 1ee7 44be f506 d83e 6104 77bf
000000d0: 9fae e3be 8503 6a3e eb8c 5d3e 2201 56be
000000e0: eead 09bf f5de 1f3e 10bd de3c cba2 9dbf
000000f0: 6702 b63e 5f89 9a3c 2fc7 5b3e d35e 8fbf
00000100: 8253 01be 743e 073f f512 30bf 27d8 7dbc
00000110: caf6 ff3d 4341 60be fe30 463f 14e8 83be
00000120: 6de3 99be 1903 8b3e 03e4 cabe 8a49 73be
00000130: f5c2 353e a14a fd3e de7a 3fbf 00ad c8bc
00000140: 6e9b 8bbd 1df1 fabe 38f6 673f 390c 77be
00000150: 75ae 083e c5e3 3ebe a02b cdbf bb3a 91bf
00000160: 4cc2 efbe 4f27 303f 1ac7 153f d422 a7bd
00000170: bb06 00bf c5ad f13e 3d7f 4cbe 9c36 ab3d
00000180: 2821 4bbf 8786 1dbe 444d 54be 9374 71bf
00000190: 57e8 d8bd 831a 9c3e c2ab 253e b40d 06bf
000001a0: 2920 6dbc ff94 84be 1388 29be 1c0f 34bf
000001b0: 2497 0c3e f872 303d 0066 aa3e cf0f e2be
000001c0: 182b 91bd 9d1e bb3e 5a4f e1be 15bf 68bf
000001d0: 4b53 a4be 6f6d b2be c4b5 ccbd ca4d a9be
000001e0: 9856 773d 55d6 89be 0673 bb3e 87d6 10bf
000001f0: 300d 36bf ad68 db3e a9ee 80be 4205 73be
00000200: 7a46 e63e b331 23be 270b e9bd 669b 5bbf
00000210: 6d30 a2bd 7a91 9f3e e699 da3e eb3e 26be
00000220: 5fa8 14be facf 32bd aeb2 273e 2d62 ed3d
00000230: d00f 9f3e 29ff c0bd 6b8c 9e3e fbaa 82bf
00000240: 31a8 9cbe ad9d febe 78bd 353e 9fa8 d5be
00000250: 1009 4e3d 1870 a83e 97cd fe3e 4ee9 2dbf
00000260: fb4f 8b3e 20f4 80bd 9946 ce3e b033 49bf
00000270: e00b 88bd 689f 6f3f a7d6 293f 0d31 6abc
00000280: affc b63e 8061 52bd 01dd 8c3e 0625 ecbe
00000290: 0421 163d ca8e 39bc 0dc6 d03e 740e 0abe
000002a0: f363 e23d 257e 083f 7358 833e e1e8 1f3d
000002b0: 9470 673e a2f3 3fbe 5002 3c3f 2024 01be
000002c0: 3723 c53e 1e5d aa3d 6129 9f3e a3d6 8fbf
000002d0: 51d6 2cbf 8a7a 80bc 3cfd 65be b341 1bbd
000002e0: a8b8 dc3e 00dd 003e ac19 4dbe f039 a2bf
000002f0: e3b0 df3e ac7c 1bbd cb16 5d3e 403a a0bf
00000300: 3b4b 05be a204 9d3e 0850 b13e 68d2 5dbd
00000310: 76d7 8abe 3731 8dbe bebb 3dbf 3ed0 9dbe
00000320: b056 01bf e37c 983e f0b0 86be aa64 88be
00000330: 7794 07bf 6527 563f 2aef afbf 725d 96be
00000340: 90d3 27bf 0984 e23e 603d 0ebf 0231 10bf
00000350: 7d5a 48bd 5079 8abe 4d6a 44bc 3940 29bf
00000360: 3a02 943d fd40 33be a83f 153f 418a 71bf
00000370: 4f74 19be a904 d53e edef 0c3e f38e 2f3d
00000380: b9f2 07bf 2703 f23e e405 0ebe a2a9 efbe
00000390: bfbc 35bc 61a8 4fbe 8f9a 9fbf 59ae 44bd
000003a0: d89a 3b3e 0893 233f dcef 1bbf 303f e8be
000003b0: 0240 153e f3b6 2c3e 4a39 103d 4780 833d
000003c0: 49b6 0bbf b184 403e 72f3 07bf 489b 26be
000003d0: e6b2 be3e 60b8 06bc 0488 d23e 3bfc 43bf
000003e0: 719a eebe be9b 463f cf1d 3ebf 4dc6 e2bd
000003f0: edf1 83be 2042 0a3f 6d7e 03be ae5a b8be

lstm.weight_hh_l0 f4 [528, 132]
0.5285697 -0.81138873 2.6870189 -2.8622005 -0.038051333 -0.18352608 3.3101337 -2.903555
-0.2692698 -0.38243824 -1.5127509 0.5413769 -0.312582 0.7538504 -0.43810087 0.08255762
-0.49397722 -0.2666186 0.06502303 -0.027587526 3.2383215 2.875114 -0.071004376 0.65089226
7.6440063 -0.549501 -0.41432428 1.3338512 0.46394998 1.6285456 -2.4470038 -0.6239597
3.3074462 -1.6415488 -2.159527 -0.17198676 0.5660706 -1.2180532 -0.10223248 0.79894936
-0.60433364 1.2982657 1.0493025 -0.1568865 0.08362962 3.0484123 0.11889186 -0.1332088
-0.11768063 -1.7885733 0.76535904 0.5376363 -1.4226512 1.7392232 -0.6938091 2.0561087
0.026655369 -0.49490547 -0.027588453 -0.19522905 -0.07566638 -0.17174974 -0.29633316 0.50795096
-1.204145 0.1622439 -0.7718528 -3.341615 1.1283311 -1.1280352 -4.1058946 -3.5582333
0.21946435 -0.11531084 0.17078598 0.8697674 -0.24331728 -2.3905904 -0.71001107 0.34604487
0.5736854 -1.2357117 -3.1898117 -0.7705441 0.4821477 0.003058346 -0.8975694 -2.6571734
0.4077526 -3.3209207 0.69957364 1.9215176 3.06097 -2.690353 0.91331196 -0.7495961
0.33607784 -0.2677816 1.7670598 -0.5323495 0.55386925 1.1125829 7.5659637 -0.6409727
0.51538 2.5512857 -0.38288546 0.39496666 0.46161893 0.7067238 4.4293923 -0.040936634
-1.7588164 -0.53063303 -0.059763007 0.40628695 0.24458952 0.26011628 -0.79545045 3.4559774
3.9065578 2.3491025 0.6401444 2.0744507 -1.5985645 1.0665399 -0.494699 -0.04370977
0.09634713 0.3295092 3.2083588 1.540894 -0.5816215 0.1076938 0.12456667 0.045320094
-0.015659004 -0.048554044 -0.35399485 -0.21010737 0.4425699 0.12639742 -0.12843421 1.0214057
-0.19041373 -0.47487205 0.40765938 -0.007773159 -0.5575023 0.13940014 0.8899973 -0.32094023
-0.262057 -0.32314435 -0.6895857 0.55044055 -0.96065587 0.2535254 0.68288934 0.22079125
-0.16582295 0.83856434 -0.14736898 -0.8844203 0.40297675 -0.71943134 0.13464503 -0.33782282
0.81944436 0.07576202 -0.07557683 0.85003555 -0.035775308 -0.4379058 0.5432278 0.08359203
-0.038789283 1.0980012 -0.1881948 0.21149343 -0.6787015 0.8693001 -0.48765057 -0.8428995
0.8139452 0.26637602 -0.33556172 0.09360196 -0.4050654 -1.2010475 0.123000816 -0.18125351
0.45299485 -0.085397646 -0.69833374 0.7610844 0.41345614 0.06869578 -0.30714738 -0.3066525
0.23150636 0.72011465 -0.53733706 -0.5080515 -0.4471788 0.63020813 0.49085066 -1.4098094
-0.22763906 -0.68960756 0.35958195 0.15905434 -0.16570461 0.2354664 -0.00028969863 0.13078265
-0.11861062 -0.6414522 -0.44513792 0.66090935 -0.043489173 0.27926648 -0.46229374 0.046654683
0.22273026 -0.13634256 0.37720218 0.69028646 -0.26864213 0.20073183 -0.5126294 -0.810258
0.07233375 0.25985694 -0.7129976 0.29434478 -0.08587724 -0.26244706 -0.22563261 0.5347341
-0.67788583 -0.12007884 0.90229577 -0.6154192 -1.2297249 0.09239606 -0.21132006 -0.62023187
0.36704084 0.40022022 -0.13952443 -0.122322306 -0.16370581 1.3415173 0.32259962 0.21163854
00000000: 5850 073f 2cb7 4fbf 1ef8 2b40 4b2e 37c0
00000010: b7db 1bbd 43ee 3bbe 3bd9 5340 d8d3 39c0
00000020: bbdd 89be f2ce c3be d2a1 c1bf ad97 0a3f
00000030: bf0a a0be 57fc 403f c24e e0be f813 a93d
00000040: 95ea fcbe 3c82 88be cb2a 853d 3cff e1bc
00000050: a940 4f40 de01 3840 be6a 91bd e0a0 263f
00000060: b39b f440 19ac 0cbf 5022 d4be a3bb aa3f
00000070: da8a ed3e 2f74 d03f b69b 1cc0 d3bb 1fbf
00000080: 33ad 5340 451e d2bf b135 0ac0 4c1d 30be
00000090: 01ea 103f 2be9 9bbf 435f d1bd f287 4c3f
000000a0: 9cb5 1abf 922d a63f 8b4f 863f dba6 20be
000000b0: 0246 ab3d 3019 4340 937d f33d e367 08be
000000c0: 8b02 f1bd f8ef e4bf 92ee 433f 88a2 093f
000000d0: 6f19 b6bf de9e de3f 799d 31bf 4997 0340
000000e0: 5c5c da3c 4064 fdbe 2e01 e2bc 20ea 47be
000000f0: faf6 9abd 2adf 2fbe fbb8 97be 1309 023f
00000100: 6c21 9abf 4423 263e 2598 45bf 05dd 55c0
00000110: 276d 903f 7563 90bf 7d63 83c0 18ba 63c0
00000120: 43bb 603e 1728 ecbd 85e2 2e3e 14a9 5e3f
00000130: 2a28 79be 6fff 18c0 49c3 35bf cb2c b13e
00000140: 0cdd 123f cd2b 9ebf e025 4cc0 6142 45bf
00000150: 10dc f63e 886e 483b 1cc7 65bf 210f 2ac0
00000160: f3c4 d03e f789 54c0 4217 333f 4af4 f53f
00000170: efe6 4340 be2e 2cc0 d0ce 693f 88e5 3fbf
00000180: 6512 ac3e ab1a 89be 042f e23f 0f48 08bf
00000190: 60ca 0d3f 1e69 8e3f 601c f240 c916 24bf
000001a0: f2ef 033f 4448 2340 9009 c4be 1239 ca3e
000001b0: 5159 ec3e daeb 343f 95bd 8d40 2cad 27bd
000001c0: e520 e1bf 91d7 07bf 0eca 74bd d804 d03e
000001d0: ad75 7a3e f62d 853e a4a2 4bbf bc2e 5d40
000001e0: 0b05 7a40 b257 1640 81e0 233f cdc3 0440
000001f0: c39d ccbf 6184 883f 3049 fdbe 0409 33bd
00000200: a551 c53d 6eb5 a83e c055 4d40 043c c53f
00000210: 26e5 14bf 918e dc3d cf1c ff3d 90a1 393d
00000220: 5047 80bc 9be0 46bd d03e b5be 6326 57be
00000230: 8698 e23e 536e 013e 4284 03be 6cbd 823f
00000240: d1fb 42be 6e22 f3be bbb8 d03e fcb5 febb
00000250: 79b8 0ebf e9be 0e3e ddd6 633f 4752 a4be
00000260: 562c 86be 2d73 a5be b088 30bf ace9 0c3f
00000270: 8bed 75bf 15ce 813e d6d1 2e3f 1a17 623e
00000280: 7ecd 29be 27ac 563f e5e7 16be 5e69 62bf
00000290: f852 ce3e a72c 38bf 63e0 093e 1df7 acbe
000002a0: 1bc7 513f 1e29 9b3d 06c8 9abd ee9b 593f
000002b0: 2189 12bd 3035 e0be fa10 0b3f 4c32 ab3d
000002c0: 83e1 1ebd 4e8b 8c3f 23b6 40be bc91 583e
000002d0: 62bf 2dbf 748a 5e3f 56ad f9be 43c8 57bf
000002e0: b65e 503f 7062 883e bfce abbe 62b2 bf3d
000002f0: bb64 cfbe edbb 99bf dae7 fb3d 859a 39be
00000300: f1ee e73e f6e4 aebd 00c6 32bf 6dd6 423f
00000310: 86b0 d33e 60b0 8c3d 6c42 9dbe 8e01 9dbe
00000320: 0110 6d3e 6f59 383f ec8e 09bf aa0f 02bf
00000330: 9ff4 e4be 5255 213f c750 fb3e a274 b4bf
00000340: 371a 69be 1f8a 30bf 201b b83e 24df 223e
00000350: 78ae 29be 1b1e 713e b1e2 97b9 e3eb 053e
00000360: 20ea f2bd 3636 24bf 1ee9 e3be 5b31 293f
00000370: b421 32bd 04fc 8e3e c4b1 ecbe fb18 3f3d
00000380: 6713 643e 629d 0bbe a520 c13e 9db6 303f
00000390: 768b 89be a58c 4d3e ae3b 03bf 116d 4fbf
000003a0: b823 943d f80b 853e 0387 36bf 5cb4 963e
000003b0: 68e0 afbd 765f 86be 3c0c 67be 55e4 083f
000003c0: ed89 2dbf e5eb f5bd dbfc 663f 1d8c 1dbf
000003d0: a067 9dbf 253a bd3d 4964 58be 84c7 1ebf
000003e0: c7ec bb3e aae9 cc3e 7edf 0ebe 1e84 fabd
000003f0: 7fa2 27be d7b6 ab3f c72b a53e c6b7 583e

lstm.bias_ih_l0 f4 [528]
-0.22790131 -1.6015003 -1.1477375 -0.82443583 -3.076268 -3.1170301 -0.4588718 -1.6454434
-0.52674586 -1.0084214 -1.1084212 -0.76665336 -2.7392185 0.044431575 -0.6303692 -3.1920118
-0.49890125 -1.0703884 -0.2263338 -0.83852535 -0.22523773 -0.7284358 -0.11179847 -0.07708374
-0.42381918 -0.8104959 -0.8950874 -1.3008802 -1.3918455 -1.1241386 -1.1667334 -0.29284102
-0.6870047 -0.36796278 -0.46436733 -3.003731 -1.1066318 -1.493858 -3.013466 0.1856743
-0.83352375 -0.29677716 -0.71302646 -0.27146748 -3.2273555 -0.37455606 -2.704526 -3.1289935
0.30194384 -1.2673372 -0.053282086 -0.000999954 0.0010355774 -1.5346085 -2.5852647 -0.6694583
-0.5968815 -0.73695654 -0.9150651 -0.7977854 -0.33921587 -2.5578647 0.06242063 0.027605182
-0.82316536 -2.9020298 -2.3991363 -0.26452255 -0.5475873 0.12583931 -0.7522462 -0.8776732
-1.5860754 -0.88555795 -1.824068 -0.7795425 -0.83151025 -0.7228011 -0.21052189 -1.6424264
-1.144322 -2.1477833 -0.53172326 -1.3585051 -0.48696294 -0.9006295 -1.9963238 -0.55646634
-2.7917004 -0.64667815 -0.894641 -1.3025512 -1.8394035 -1.3522402 -1.9957181 -1.5979
-0.07188125 -1.758669 -0.21558388 -0.5628396 -2.7225351 -1.6385448 -0.7458454 -2.003433
-1.4846307 -0.6798535 0.030643094 -0.15156567 -0.00063194265 -0.75610316 -0.833446 -1.2734272
-0.6700107 -0.36049223 -0.029674372 -0.734935 -1.0873821 -0.35830882 -1.6457622 -0.20753063
-0.48054504 -0.94350284 -2.6813843 -1.4599097 -0.977457 -1.4586294 -0.7194429 -2.9850118
-3.075511 -0.5852187 -0.6552695 -1.5127162 -1.5341909 -2.7029884 -2.9292827 -2.3046222
-1.6307923 -1.8228103 -0.20701054 -2.0181665 -1.2710863 -1.417269 -2.8335412 -2.1553385
-2.298424 -1.1894735 -1.0274674 -1.5507534 -1.8771533 -1.0378447 -1.4430168 -2.761212
-1.0974586 -1.1540023 -0.89009255 -0.89572865 -0.45109263 -1.7427047 -1.4226537 -3.2951992
-2.8344884 -1.9547709 -3.185651 -1.3579543 -0.13597342 -0.22256076 0.8421127 -2.0265136
-0.9756686 -1.7464086 -1.6883495 -1.0275725 -2.8758311 -1.1772747 -1.0397128 -1.1685644
-1.6653832 -1.3019204 -1.9311988 -1.5263726 -0.952626 -0.695025 -1.3576447 -1.0366125
-1.0966125 -1.5127604 -1.8493922 -0.72669226 -1.6901301 -1.7930384 -2.235944 -0.5996281
-1.2785422 -2.3091767 -1.3517699 -1.1881145 -0.33014724 -1.9921668 -1.7070488 0.9443195
-2.3370752 -1.1394306 -0.7544683 -0.6315746 -1.9148141 -1.5003749 -2.5820541 -1.2782602
-1.9361479 0.40563968 -1.1998739 -3.1916711 -2.2922347 -1.2072166 -1.0810223 -3.2680125
-0.86483127 -1.9008648 -1.8406634 -0.6377467 -2.2472506 -1.5363437 -0.4799367 -1.2360396
-2.2117407 -1.2697108 -2.3691814 -2.4392138 -1.9526461 -2.9238784 -0.39134187 -1.4226197
-2.1805377 -3.1364346 -0.66102135 -2.8019989 -2.5066874 -1.1539508 -0.9503831 -1.2013459
-0.8790453 -1.556768 -0.59384537 -1.1951983 0.6177834 -1.4407651 -0.7408233 -1.1563843
-2.3755252 -1.5563878 -3.2962217 -0.23247351 -0.76711726 -1.001175 -2.2502055 -1.9536233
00000000: f65e 69be f6fd ccbf 10e9 92bf 3a0e 53bf
00000010: 93e1 44c0 6c7d 47c0 3ff1 eabe e49d d2bf
00000020: d1d8 06bf f413 81bf bfe0 8dbf 6543 44bf
00000030: 5b4f 2fc0 e2fd 353d e05f 21bf ec49 4cc0
00000040: fc6f ffbe 7d02 89bf 0cc4 67be 99a9 56bf
00000050: b8a4 66be c57a 3abf 99f6 e4bd 14de 9dbd
00000060: d4fe d8be a97c 4fbf 7324 65bf 3e83 a6bf
00000070: fe27 b2bf c6e3 8fbf 8557 95bf 42ef 95be
00000080: 8adf 2fbf 9e65 bcbe 8ec1 edbe 213d 40c0
00000090: 1ca6 8dbf bd36 bfbf a0dc 40c0 6721 3e3e
000000a0: d061 55bf 2df3 97be e788 36bf c9fd 8abe
000000b0: fe8c 4ec0 d0c5 bfbe f416 2dc0 6e41 48c0
000000c0: 6298 9a3e 1b38 a2bf 513e 5abd e310 83ba
000000d0: 36bc 873a 0d6e c4bf fa74 25c0 9f61 2bbf
000000e0: 3acd 18bf 2fa9 3cbf b541 6abf aa3b 4cbf
000000f0: b4ad adbe 0eb4 23c0 c6ac 7f3d 4324 e23c
00000100: f7ba 52bf dbba 39c0 738b 19c0 806f 87be
00000110: ae2e 0cbf 05dc 003e 3593 40bf 31af 60bf
00000120: 8504 cbbf edb3 62bf 0f7b e9bf 1990 47bf
00000130: dbdd 54bf 7e09 39bf 0d93 57be 073b d2bf
00000140: 2579 92bf 4875 09c0 041f 08bf 7fe3 adbf
00000150: 3553 f9be a88f 66bf 8a87 ffbf 9474 0ebf
00000160: 38ab 32c0 b38c 25bf 3107 65bf ffb9 a6bf
00000170: 9371 ebbf 3516 adbf b173 ffbf fd87 ccbf
00000180: 7a36 93bd 111c e1bf 05c2 5cbe 4216 10bf
00000190: 043e 2ec0 d6bb d1bf b9ef 3ebf 3f38 00c0
000001a0: 6108 bebf e10a 2ebf 3a07 fb3c 0834 1bbe
000001b0: f4a8 25ba fa8f 41bf b85c 55bf aaff a2bf
000001c0: d285 2bbf 7092 b8be ab17 f3bc b324 3cbf
000001d0: 562f 8bbf 4174 b7be 56a8 d2bf e982 54be
000001e0: 000a f6be 6789 71bf cd9b 2bc0 52de babf
000001f0: 9f3a 7abf 5eb4 babf 692d 38bf 6f0a 3fc0
00000200: 2cd5 44c0 e5d0 15bf bebf 27bf afa0 c1bf
00000210: 5e60 c4bf c3fd 2cc0 5e79 3bc0 ee7e 13c0
00000220: cdbd d0bf d951 e9bf 92fa 53be a429 01c0
00000230: f5b2 a2bf 1269 b5bf bd58 35c0 11f1 09c0
00000240: 6119 13c0 ab40 98bf 0d84 83bf 167f c6bf
00000250: 8f46 f0bf 18d8 84bf c6b4 b8bf b3b7 30c0
00000260: 8679 8cbf 59b6 93bf 1bdd 63bf 794e 65bf
00000270: 9df5 e6be f310 dfbf 8419 b6bf 8be4 52c0
00000280: 4268 35c0 ef35 fabf b5e1 4bc0 72d1 adbf
00000290: 9e3c 0bbe f8e6 63be b394 573f 66b2 01c0
000002a0: 6bc5 79bf 518a dfbf d61b d8bf 7f87 83bf
000002b0: 9e0d 38c0 f0b0 96bf 4f15 85bf 8593 95bf
000002c0: 472b d5bf 54a5 a6bf 8631 f7bf 2d60 c3bf
000002d0: 4cdf 73bf 29ed 31bf 4dc7 adbf b8af 84bf
000002e0: cc5d 8cbf 22a2 c1bf e2b8 ecbf 8108 3abf
000002f0: 2f56 d8bf 4882 e5bf b519 0fc0 3a81 19bf
00000300: 45a7 a3bf 8dc9 13c0 cc06 adbf 2314 98bf
00000310: 0f09 a9be 52ff febf 9380 dabf ecbe 713f
00000320: a492 15c0 ddd8 91bf d624 41bf dfae 21bf
00000330: a118 f5bf 490c c0bf 6040 25c0 089e a3bf
00000340: b2d3 f7bf 01b0 cf3e 7895 99bf 5744 4cc0
00000350: f9b3 12c0 1386 9abf f05e 8abf 1e27 51c0
00000360: 9565 5dbf 8a4f f3bf dc9a ebbf 5e43 23bf
00000370: f4d2 0fc0 e9a6 c4bf 43ba f5be 8c36 9ebf
00000380: 298d 0dc0 e285 a2bf aba0 17c0 141c 1cc0
00000390: 4ff0 f9bf d320 3bc0 f65d c8be 6718 b6bf
000003a0: ee8d 0bc0 58bb 48c0 b238 29bf f353 33c0
000003b0: 916d 20c0 a9b4 93bf 4f4c 73bf b4c5 99bf
000003c0: 1d09 61bf 2c44 c7bf 4006 18bf 42fc 98bf
000003d0: 0e27 1e3f fe6a b8bf 99a6 3dbf 6704 94bf
000003e0: 9b08 18c0 b737 c7bf 4cf5 52c0 890d 6ebe
000003f0: cc61 44bf 8126 80bf 5e03 10c0 5410 fabf

lstm.bias_hh_l0 f4 [528]
-0.21495304 -1.6259578 -1.1195701 -0.88759494 -3.16167 -3.0374439 -0.40891188 -1.7467043
-0.43030304 -1.1593083 -1.1029712 -0.87469083 -2.7105575 0.12566341 -0.5217088 -3.2050486
-0.52339804 -1.1631517 -0.26449588 -0.7617706 -0.2728427 -0.7178599 -0.13309081 -0.07383998
-0.39427456 -0.78706104 -0.90706074 -1.1527178 -1.4479487 -1.0864494 -1.0519718 -0.4058047
-0.6431589 -0.33936176 -0.33516172 -2.9340816 -1.177431 -1.4030994 -2.9790154 0.21822132
-0.8314968 -0.28677866 -0.7817237 -0.37358776 -3.1007464 -0.40477055 -2.6920059 -3.197037
0.21958077 -1.2710717 -0.16104782 0.06842882 0.04985537 -1.5877213 -2.4399967 -0.619147
-0.6474098 -0.8121538 -0.85502887 -0.85130143 -0.43841836 -2.5838456 -0.07423324 0.039272
-0.71341926 -2.9972374 -2.499434 -0.2287853 -0.6267353 0.011399625 -0.8113828 -0.9065535
-1.6787657 -0.82291764 -1.8388133 -0.6603659 -0.7945093 -0.64824337 -0.0849577 -1.6099803
-1.1387717 -2.086741 -0.51821303 -1.485288 -0.567897 -0.86818784 -2.0889575 -0.56770194
-2.6804566 -0.77415854 -0.85555387 -1.3369275 -1.8039293 -1.2413831 -2.0569227 -1.56338
-0.036823448 -1.7152476 -0.110841 -0.4837304 -2.7243643 -1.6832196 -0.8287281 -2.068294
-1.4012154 -0.65759325 0.13776183 -0.15574537 0.071469024 -0.7414454 -0.6851534 -1.1752515
-0.7696185 -0.46250388 -0.013052738 -0.6590782 -0.96883345 -0.27990946 -1.6646461 -0.19122045
-0.51030594 -0.96471083 -2.6592433 -1.5289134 -0.8639163 -1.4503828 -0.7236938 -2.8751905
-3.098601 -0.56286347 -0.63541347 -1.6319616 -1.6948216 -2.765837 -2.843948 -2.239971
-1.6222752 -1.8978525 -0.14123037 -1.9941864 -1.292098 -1.373084 -2.8150349 -2.167667
-2.3423748 -1.0779309 -1.0523976 -1.442267 -1.8358979 -1.0595098 -1.3587297 -2.7856376
-1.2035165 -1.2104218 -0.8153874 -0.82367647 -0.55341285 -1.7249391 -1.4075301 -3.1758137
-2.7166903 -1.9141576 -3.0711 -1.3478361 -0.036284514 -0.25224978 0.7756232 -1.9294934
-1.035511 -1.7130135 -1.6147605 -1.0711439 -2.867331 -1.1723814 -0.9650111 -1.0734597
-1.5409323 -1.1817876 -1.8163329 -1.5320522 -0.8080417 -0.7109402 -1.3018037 -0.97276
-1.1494557 -1.4080476 -1.7051547 -0.74230325 -1.6646794 -1.7625765 -2.1963625 -0.5484284
-1.284463 -2.2384593 -1.3773842 -1.2910749 -0.34094784 -1.9812819 -1.6081612 1.0566435
-2.2408538 -1.230762 -0.69967836 -0.7200757 -1.9284481 -1.3867823 -2.5086164 -1.29988
-1.9600937 0.45988116 -1.3185111 -3.0710258 -2.3581252 -1.2961012 -1.0253578 -3.2122462
-0.93723905 -1.8641802 -1.7942941 -0.67431855 -2.21581 -1.5968915 -0.51889545 -1.2219558
-2.1495073 -1.2478554 -2.4149225 -2.5128274 -2.033003 -2.895192 -0.48583913 -1.4192502
-2.2149463 -3.054973 -0.5191738 -2.7471368 -2.5392795 -1.1032821 -1.0816083 -1.2259438
-0.9019838 -1.5576916 -0.45475852 -1.1231751 0.6553769 -1.4882427 -0.63654697 -1.215843
-2.4330797 -1.5415096 -3.3744442 -0.33187535 -0.7747006 -1.0075475 -2.1957438 -2.055494
00000000: a61c 5cbe 631f d0bf 134e 8fbf 6c39 63bf
00000010: cd58 4ac0 7b65 42c0 e65c d1be 0294 dfbf
00000020: ae50 dcbe 3764 94bf 292e 8dbf bdeb 5fbf
00000030: c679 2dc0 e9ad 003e b58e 05bf 841f 4dc0
00000040: 6afd 05bf 28e2 94bf 016c 87be 6603 43bf
00000050: 0ab2 8bbe abc5 37bf f548 08be 6a39 97bd
00000060: 5bde c9be d57c 49bf 2235 68bf 428c 93bf
00000070: 6256 b9bf c610 8bbf 03a7 86bf a2c5 cfbe
00000080: 10a6 24bf d3c0 adbe 519a abbe fec7 3bc0
00000090: 0fb6 96bf c398 b3bf 30a8 3ec0 6975 5f3e
000000a0: f9dc 54bf a7d4 92be 0b1f 48bf e546 bfbe
000000b0: a172 46c0 163e cfbe d349 2cc0 419c 4cc0
000000c0: c8d9 603e 7ab2 a2bf b8e9 24be 6924 8c3d
000000d0: 2535 4c3d 743a cbbf e828 1cc0 6b80 1ebf
000000e0: a6bc 25bf 50e9 4fbf 2ce3 5abf e4ee 59bf
000000f0: 5f78 e0be ba5d 25c0 9907 98bd addb 203d
00000100: a5a2 36bf bdd2 3fc0 baf6 1fc0 b246 6abe
00000110: ba71 20bf 7ec5 3a3c c8b6 4fbf e413 68bf
00000120: cbe1 d6bf bbaa 52bf 3c5e ebbf bd0d 29bf
00000130: f664 4bbf 47f3 25bf 4dfe adbd d613 cebf
00000140: 45c3 91bf 2a8d 05c0 9ca9 04bf eb1d bebf
00000150: b361 11bf 8f41 5ebf 7bb1 05c0 ea54 11bf
00000160: 9a8c 2bc0 412f 46bf 9405 5bbf 7120 abbf
00000170: 28e7 e6bf a4e5 9ebf 9fa4 03c0 d61c c8bf
00000180: 2fd4 16bd 3c8d dbbf 9b00 e3bd 83ab f7be
00000190: fc5b 2ec0 bd73 d7bf 8627 54bf ee5e 04c0
000001a0: 075b b3bf 0858 28bf 7011 0d3e b77b 1fbe
000001b0: 5a5e 923d 5ecf 3dbf 3766 2fbf a46e 96bf
000001c0: b805 45bf 4fcd ecbe 27db 55bc 59b9 28bf
000001d0: 7805 78bf 4b50 8fbe 2013 d5bf 4bcf 43be
000001e0: 69a3 02bf 4af7 76bf 0b31 2ac0 6fb3 c3bf
000001f0: 9e29 5dbf 25a6 b9bf ff43 39bf 1f03 38c0
00000200: 7b4f 46c0 d217 10bf 75aa 22bf 1ee4 d0bf
00000210: eaef d8bf 7903 31c0 3e03 36c0 af5b 0fc0
00000220: b7a6 cfbf d5ec f2bf b29e 10be 8041 ffbf
00000230: 7863 a5bf 37c1 afbf 8829 34c0 0ebb 0ac0
00000240: 78e9 15c0 a4f9 89bf f7b4 86bf 349c b8bf
00000250: b4fe eabf 049e 87bf dbea adbf e347 32c0
00000260: d40c 9abf 1aef 9abf 3bbd 50bf 76dc 52bf
00000270: 77ac 0dbf ceca dcbf f229 b4bf 8840 4bc0
00000280: 41de 2dc0 1e03 f5bf e78c 44c0 e585 acbf
00000290: 129f 14bd e226 81be 3e8f 463f a4f9 f6bf
000002a0: a08b 84bf 0744 dbbf 79b0 cebf 3e1b 89bf
000002b0: 5a82 37c0 9810 96bf f80a 77bf 2167 89bf
000002c0: 453d c5bf d144 97bf 997d e8bf 491a c4bf
000002d0: d2db 4ebf 2d00 36bf 81a1 a6bf cd06 79bf
000002e0: 5d21 93bf e73a b4bf 8242 dabf 9607 3ebf
000002f0: 3714 d5bf 1b9c e1bf 3491 0cc0 ce65 0cbf
00000300: 4969 a4bf eb42 0fc0 204e b0bf f141 a5bf
00000310: b790 aebe a59a fdbf 3ad8 cdbf 1840 873f
00000320: 266a 0fc0 9c89 9dbf 1f1e 33bf e256 38bf
00000330: 63d7 f6bf 1582 b1bf 2c8d 20c0 7862 a6bf
00000340: 5ae4 fabf 8b75 eb3e f9c4 a8bf b08b 44c0
00000350: 86eb 16c0 a5e6 a5bf ed3e 83bf 7195 4dc0
00000360: e6ee 6fbf 759d eebf 6eab e5bf 24a0 2cbf
00000370: d5cf 0dc0 f166 ccbf 55d6 04bf 0c69 9cbf
00000380: 8791 09c0 bab9 9fbf 178e 1ac0 2ad2 20c0
00000390: b91c 02c0 d34a 39c0 e8bf f8be fea9 b5bf
000003a0: aec1 0dc0 ad84 43c0 93e8 04bf 17d1 2fc0
000003b0: 8e83 22c0 5938 8dbf 2472 8abf baeb 9cbf
000003c0: 69e8 66bf 7062 c7bf 1cd6 e8be 34c4 8fbf
000003d0: c8c6 273f bd7e bebf bef4 22bf bea0 9bbf
000003e0: 94b7 1bc0 3050 c5bf e5f6 57c0 91eb a9be
000003f0: c752 46bf 51f7 80bf 1187 0cc0 378d 03c0

attention.weight f4 [24, 132]
-0.37016755 -0.4336894 0.29987213 -0.28321734 0.170395 0.12940398 0.27891684 0.06864953
0.3649449 -0.8774358 0.56512856 0.65375847 -0.16332918 0.05793644 -0.24646537 -0.0011490233
0.032011684 -0.83434284 0.031068949 -0.5351195 0.55180043 -0.57595634 -0.026932104 0.14611658
0.053947438 -0.13034001 0.112467185 0.07281422 0.111085474 0.24665059 -0.26602438 -0.13543667
-0.00017073783 0.2167075 -0.12653045 -0.008667343 -0.031695087 -0.31806812 0.09541179 -0.40028664
0.33453858 -0.1645774 -0.42185465 -0.04358795 0.08165568 0.3192999 -0.013355466 -0.022019135
0.047738712 0.40854427 0.16812104 -0.5312127 -0.04814298 0.29860222 -0.2842372 0.54515064
-0.0623056 -0.06740469 0.03152966 -0.17513299 0.6638472 -0.20039216 -0.011625724 -0.084669314
0.40574506 -0.03131836 -0.4989003 0.53341097 -0.019053154 0.065683 0.039247308 -0.51014465
0.33614677 0.10820327 0.22011495 -0.2632545 -0.025830569 -0.18443237 0.015595868 0.3400423
0.103985436 -0.5326048 -0.10550182 -0.7164392 0.3818804 0.5911813 -0.016344735 -0.15999508
0.03188544 -0.18754105 0.6659826 -0.4015911 0.098714806 -0.15245025 -0.052218724 0.5582191
-0.05264023 -0.12462804 -0.11828824 -0.6256573 -0.060341615 -0.13694704 0.27111828 0.10003477
0.34735307 0.026483024 0.14417966 0.50648636 0.13744025 0.10732688 -0.0027576364 -0.06775382
0.29479575 0.39785057 0.075893745 0.54057854 -1.2237043 0.04190021 -0.27246934 0.2752538
-0.2725546 -0.024041297 -0.15429528 -0.06736557 -0.21965857 -0.27645478 -0.0489736 -0.040028494
-0.111750804 -0.33193734 0.15257274 0.1555059 1.2395493 -0.10845706 -0.10875257 0.04873338
-0.017991398 0.114676654 0.0648379 0.1651321 -1.2927345 0.62388873 -0.64504766 -0.6601942
0.3556934 0.7320202 0.5692672 0.13314657 1.2727325 -0.05402189 -0.89866066 1.5246131
0.09637349 0.56155455 0.9885271 -1.111221 -0.5996708 -0.5378173 -0.9344246 -0.008861294
0.6023534 -0.549293 0.052282516 1.3084354 -0.08147207 -0.32331833 0.27035046 0.51759076
-0.45561817 0.6824995 -0.21701817 -1.0928762 -0.26571158 0.52458316 -0.27569115 -0.529141
-0.17922656 -0.7873514 0.1276419 -0.14041057 0.97737795 -0.50459594 0.6563302 1.3335066
-0.8210429 -0.19067949 0.26471472 -0.59263664 1.0537636 1.3369149 -0.8090772 -0.5831291
-0.9496255 0.41347027 1.2457852 -1.1229283 -0.34875277 0.4413977 0.37065148 -0.5196137
0.46629792 -0.91910607 -0.21765685 0.6731946 0.44238803 0.9044303 -0.08330619 0.95433867
0.6909156 0.0026196844 -0.68270546 0.17685783 -1.0194429 0.23925562 -0.14982551 0.9063654
-0.79695773 0.54862046 0.44270632 1.1329145 0.06647131 -0.0151389325 0.06359897 -0.054834463
-0.24038711 0.4346863 -0.32413003 -0.34089565 0.9774467 -0.18771178 0.46250653 0.64382845
0.2473348 0.0076196897 -0.22727455 -0.35855553 0.3691652 0.1441693 0.6917795 -1.2039759
0.64188886 0.62319475 -0.17338236 0.30232763 -0.15593937 -0.86251825 -0.49555773 -0.55222064
0.026669081 -0.94502383 -0.08907827 0.14083135 0.16738948 -0.4157587 -0.17140716 -0.015702056
00000000: 9a86 bdbe 890c debe d788 993e dd01 91be
00000010: 077c 2e3e 7a82 043e 30ce 8e3e 2098 8c3d
00000020: 0fda ba3e a29f 60bf 44ac 103f b75c 273f
00000030: c43f 27be c34e 6d3d 6b61 7cbe d39a 96ba
00000040: af1e 033d 7e97 55bf 4f84 fe3c 97fd 08bf
00000050: cb42 0d3f e071 13bf b7a0 dcbc 969f 153e
00000060: fdf7 5c3d da77 05be 3255 e63d 9f1f 953d
00000070: c880 e33d f991 7c3e 5934 88be e9af 0abe
00000080: 1608 33b9 92e8 5d3e 3391 01be 7901 0ebc
00000090: b5d2 01bd d3d9 a2be 4267 c33d 5ff2 ccbe
000000a0: a448 ab3e fa86 28be 55fd d7be 4789 32bd
000000b0: 183b a73d 477b a33e e2d0 5abc 7961 b4bc
000000c0: ab89 433d b72c d13e ec27 2c3e 8efd 07bf
000000d0: 9331 45bd 64e2 983e 8a87 91be fe8e 0b3f
000000e0: 2834 7fbd 780b 8abd 3f25 013d 1056 33be
000000f0: e4f1 293f 9a33 4dbe d279 3ebc 1b67 adbd
00000100: d1bd cf3e ae47 00bd dc6f ffbe 9f8d 083f
00000110: 5c15 9cbc cf84 863d c9c1 203d d798 02bf
00000120: 6e1b ac3e ad99 dd3d d065 613e 4bc9 86be
00000130: a19a d3bc d7db 3cbe d085 7f3c 061a ae3e
00000140: 51f6 d43d ca58 08bf 5711 d8bd 8f68 37bf
00000150: d485 c33e a857 173f 65e5 85bc c0d5 23be
00000160: 4f9a 023d c30a 40be d67d 2a3f 599d cdbe
00000170: fd2a ca3d eb1b 1cbe 4de3 55bd 72e7 0e3f
00000180: 489d 57bd fc3c ffbd 1b41 f2bd 142b 20bf
00000190: c528 77bd d83b 0cbe 04d0 8a3e 08df cc3d
000001a0: 43d8 b13e edf2 d83c d5a3 133e 17a9 013f
000001b0: 23bd 0c3e 32ce db3d 76b9 34bb 84c2 8abd
000001c0: 78ef 963e 12b3 cb3e 2e6e 9b3d 5b63 0a3f
000001d0: 58a2 9cbf 8e9f 2b3d 1a81 8bbe 11ee 8c3e
000001e0: 478c 8bbe 41f2 c4bc 95ff 1dbe f6f6 89bd
000001f0: 2dee 60be 7b8b 8dbe 8b98 48bd ebf4 23bd
00000200: 9bdd e4bd b1f3 a9be 073c 1c3e f03c 1f3e
00000210: 8da9 9e3f bc1e debd abb9 debd a79c 473d
00000220: b262 93bc 98db ea3d bcc9 843d 6418 293e
00000230: 5378 a5bf 2cb7 1f3f d821 25bf 7d02 29bf
00000240: 721d b63e ad65 3b3f 7fbb 113f 9357 083e
00000250: e6e8 a23f 0f46 5dbd a00e 66bf 8626 c33f
00000260: 775f c53d 0ac2 0f3f 1d10 7d3f 7d3c 8ebf
00000270: 0784 19bf 65ae 09bf 7336 6fbf f62e 11bc
00000280: d533 1a3f 779e 0cbf 3126 563d d07a a73f
00000290: d4da a6bd fb89 a5be 606b 8a3e d480 043f
000002a0: c946 e9be 4ab8 2e3f 033a 5ebe 5ee3 8bbf
000002b0: 590b 88be 154b 063f 6427 8dbe c975 07bf
000002c0: 2b87 37be dd8f 49bf 8fb4 023e cac7 0fbe
000002d0: 7135 7a3f 332d 01bf 4205 283f 58b0 aa3f
000002e0: de2f 52bf 7c41 43be b088 873e 09b7 17bf
000002f0: bae1 863f 0720 ab3f af1f 4fbf f347 15bf
00000300: a81a 73bf 60b2 d33e e475 9f3f 1dbc 8fbf
00000310: b98f b2be e1fe e13e 08c6 bd3e 6705 05bf
00000320: 9abe ee3e 894a 6bbf 70e1 5ebe 7b56 2c3f
00000330: af80 e23e bf88 673f 709c aabd 8a4f 743f
00000340: d8df 303f 03af 2b3b c9c5 2ebf 381a 353e
00000350: 1b7d 82bf 6dff 743e dc6b 19be 9007 683f
00000360: 6c05 4cbf 6472 0c3f 67aa e23e 5803 913f
00000370: 1c22 883d 4909 78bc 2d40 823d 1a9a 60bd
00000380: 0a28 76be 348f de3e 5ff4 a5be e089 aebe
00000390: f239 7a3f 8437 40be a8cd ec3e f1d1 243f
000003a0: 5545 7d3e 97ae f93b a9ba 68be 9794 b7be
000003b0: 3903 bd3e 1ea1 133e 7618 313f e21b 9abf
000003c0: d452 243f b189 1f3f 258b 31be b0ca 9a3e
000003d0: 92ae 1fbe ffcd 5cbf beb9 fdbe 555e 0dbf
000003e0: 1e79 da3c 15ed 71bf ab6e b6bd 1836 103e
000003f0: 2668 2b3e 53de d4be 5c85 2fbe 99a1 80bc

attention.bias f4 [24]
-0.36745298 -0.20086865 0.11627628 0.032330275 -0.036744207 -0.23212354 -0.2155418 -0.045407403
0.044671793 0.16270483 0.021401443 -0.017088838 0.06418941 0.057057172 0.019577146 0.088286154
-0.09626156 0.098592885 -0.1789278 0.17558317 0.16917218 -0.42769045 -0.06868634 -0.5388973
00000000: cc22 bcbe 83b0 4dbe 4222 ee3d c06c 043d
00000010: 1881 16bd cbb1 6dbe fdb6 5cbe 1dfd 39bd
00000020: c5f9 363d 189c 263e 1452 af3c e4fd 8bbc
00000030: bd75 833d c8b4 693d 4060 a03c 5fcf b43d
00000040: c824 c5bd 11eb c93d d938 37be 13cc 333e
00000050: 793b 2d3e 3efa dabe 6cab 8cbd 2cf5 09bf

dense.weight f4 [1, 3168]
0.08176694 -0.09059401 -0.00475848 -0.014697124 0.058165416 -0.036404572 0.021141378 0.004944999
-0.024198668 -0.05635833 -0.06498531 -0.016713513 -0.0367478 -0.007960201 -0.1525052 -0.014168375
0.033917 0.13088655 0.016580844 0.14014046 -0.023585543 -0.06565433 -0.031387877 0.0058932924
0.024853332 -0.027409649 -0.0222504 -0.0306502 -0.014709393 0.055139847 -0.003914804 -0.006985725
-0.041725807 -0.0602516 0.004625625 -0.038381003 -0.005071293 -0.08387423 0.04465427 0.005420164
0.047392372 -0.0039459863 0.08282556 0.023685591 -0.018540805 0.01836704 -0.014732199 -0.0022466527
0.024400149 -0.00020143362 0.028231533 0.035746638 -0.038272444 0.022764796 -0.021412022 0.049529154
0.011399509 0.1954486 -0.12591583 -0.023722293 -0.028703835 -0.058325317 -0.0026155442 -0.027627505
0.048922922 -0.007860774 -0.07335391 -0.03695079 -0.048243787 -0.029799929 -0.040714744 -0.017123869
0.064908184 -0.04530044 0.07095112 -0.015536738 -0.024677465 -0.07430934 0.031402614 0.04615089
-0.13984358 -0.012845012 -0.02236611 -0.06733922 0.033973116 -0.061440825 -0.02960223 -0.030454773
-0.055311263 -0.040266264 0.027736261 -0.08854819 0.031041378 -0.030930892 0.039532743 -0.043231465
-0.010963334 0.10117691 0.0132843135 0.029024826 0.0006417691 0.0017211771 -0.0041082026 0.006833475
0.10066958 0.0011937844 -0.001965603 -0.011673535 0.044452336 0.0012327087 0.043199185 0.09419857
0.0545391 -0.09104928 0.0206491 0.08339359 0.09302286 0.03145987 -0.016473979 0.029933464
-0.027613405 -0.048079763 0.08825105 -0.02241578 -0.026010115 0.054015882 0.057482775 -0.029510897
-0.0066473605 -0.0053939903 0.012546075 -0.011568454 -0.072304115 0.0067084446 -0.048672214 0.076194845
-0.07583086 0.026281761 -0.13328505 0.055606246 0.11231499 0.014266666 0.119825944 0.005787779
-0.007050976 -0.06322739 0.05478078 -0.021787954 -0.14309125 -0.08632635 0.0665118 -0.17222597
-0.08462412 -0.10229029 -0.06570236 0.0931437 -0.0814658 0.024270495 -0.020834645 -0.03908841
-0.015063215 0.014787036 0.06349275 -0.032419283 -0.05460792 0.13236289 0.029113123 0.0007495818
-0.075137295 0.003022875 -0.009678693 0.056018613 0.0002740358 -0.0652713 -0.023000222 -0.0028977897
-0.006640258 0.011382477 -0.080549 -0.0019352344 -0.07100481 0.08852155 -0.07517989 -0.1309332
0.08299697 -0.14919475 -0.021932414 0.045303047 0.0035453513 -0.18564199 0.08815635 0.0055426243
0.07919639 0.008253133 -0.06823452 0.07539162 0.059974436 0.0073076077 -0.04289549 0.10938312
-0.020948945 0.0977435 0.10836647 0.09231929 -0.23592752 -0.008363886 -0.17355813 -0.13273774
-0.043682657 0.11685917 0.060148176 -0.1909691 0.12133633 0.089120515 0.09441163 -0.0588868
0.014493405 0.016665153 -0.013940532 0.0004745051 0.017950565 0.06871592 -0.18634774 0.11886514
-0.083357885 0.038901452 0.0060348357 0.046755325 -0.051037975 0.032693986 -0.086868346 -0.034789965
-0.0630452 -0.038871005 -0.07337586 0.011348185 -0.3101304 -0.08192045 -0.063140355 0.088874556
-0.07723847 -0.032203265 -0.012100113 0.10524742 0.09244178 0.116579264 0.058767635 -0.032206956
-0.06544324 -0.0038303502 0.024900794 -0.13470909 -0.11254683 -0.08743614 -0.06110341 -0.089204535
00000000: 6d75 a73d 5a89 b9bd 06ed 9bbb 35cc 70bc
00000010: dc3e 6e3d f61c 15bd af30 ad3c a809 a23b
00000020: 493c c6bc fed7 66bd 0517 85bd c7ea 88bc
00000030: dc84 16bd 816b 02bc 532a 1cbe 7922 68bc
00000040: 8dec 0a3d 2007 063e 8dd4 873c fb80 0f3e
00000050: 7836 c1bc c775 86bd 9390 00bd 851c c13b
00000060: 3799 cb3c 338a e0bc 7946 b6bc 2116 fbbc
00000070: aaff 70bc 52da 613d c247 80bb 82e8 e4bb
00000080: aee8 2abd 62ca 76bd 8e92 973b 6635 1dbd
00000090: 172d a6bb 41c6 abbd 65e7 363d a29b b13b
000000a0: 811e 423d 554d 81bb 72a0 a93d 4908 c23c
000000b0: e3e2 97bc 7a76 963c 525f 71bc 943c 13bb
000000c0: d2e2 c73c ed37 53b9 d145 e73c 116b 123d
000000d0: 91c3 1cbd 3d7d ba3c 4468 afbc 15df 4a3d
000000e0: 02c5 3a3c ae23 483e 14f0 00be 4155 c2bc
000000f0: 4e24 ebbc 87e6 6ebd 8d69 2bbb 1453 e2bc
00000100: 6763 483d 7aca 00bc 933a 96bd b659 17bd
00000110: 479b 45bd fb1e f4bc 81c4 26bd 5b47 8cbc
00000120: 95ee 843d f48c 39bd d24e 913d cd8d 7ebc
00000130: 6528 cabc 7f2f 98bd 07a0 003d b708 3d3d
00000140: 2833 0fbe e373 52bc 2239 b7bc 25e9 89bd
00000150: 6527 0b3d 60a9 7bbd 6080 f2bc 4a7c f9bc
00000160: 108e 62bd 3dee 24bd 2837 e33c c158 b5bd
00000170: 7d4a fe3c c862 fdbc 16ed 213d 7a13 31bd
00000180: 8e9f 33bc d735 cf3d 73a6 593c 79c5 ed3c
00000190: 653c 283a 1f99 e13a 1a9e 86bb 58eb df3b
000001a0: da2b ce3d c278 9c3a 59d1 00bb 5b42 3fbc
000001b0: a713 363d d792 a13a a1f1 303d 2eeb c03d
000001c0: 6464 5f3d 0b78 babd 4d28 a93c 42ca aa3d
000001d0: c582 be3d 11dc 003d 70f4 86bc 0637 f53c
000001e0: 8235 e2bc 49ef 44bd f7bc b43d 4ca1 b7bc
000001f0: 2a13 d5bc c23f 5d3d 0f73 6b3d d6c0 f1bc
00000200: 1ad2 d9bb 12c0 b0bb 0d8e 4d3c 9d89 3dbc
00000210: 2e14 94bd 83d2 db3b 845c 47bd 0b0c 9c3d
00000220: 364d 9bbd d94c d73c e07b 08be 60c3 633d
00000230: 6705 e63d bcbe 693c 4e67 f53d 69a7 bd3b
00000240: e00b e7bb 5d7d 81bd d061 603d a77c b2bc
00000250: 8386 12be dfcb b0bd 5737 883d 015c 30be
00000260: 694f adbd 927d d1bd f58e 86bd 20c2 be3d
00000270: 8bd7 a6bd ebd2 c63c 6bad aabc 2b1b 20bd
00000280: b4cb 76bc 5345 723c 7d08 823d 15ca 04bd
00000290: 8eac 5fbd 238a 073e a57e ee3c 957f 443a
000002a0: 95e1 99bd 6d1b 463b 6193 1ebc c673 653d
000002b0: 76ac 8f39 f6ac 85bd f66a bcbc d8e8 3dbb
000002c0: 8596 d9bb 927d 3a3c e0f6 a4bd b1a7 fdba
000002d0: f86a 91bd c94a b53d eaf7 99bd 5a13 06be
000002e0: 51fa a93d 82c6 18be 9bab b3bc b08f 393d
000002f0: 2059 683b ef18 3ebe 518b b43d e79e b53b
00000300: b831 a23d 2638 073c 8abe 8bbd ec66 9a3d
00000310: c1a7 753d a874 ef3b 2eb3 2fbd 4204 e03d
00000320: 1f9d abbc be2d c83d 3def dd3d e511 bd3d
00000330: fc96 71be ae08 09bc 39b9 31be 67ec 07be
00000340: 96ec 32bd dc53 ef3d ef5d 763d 678d 43be
00000350: 2f7f f83d d184 b63d e25a c13d 4933 71bd
00000360: bf75 6d3c 5c85 883c d466 64bc ffc6 f839
00000370: 100d 933c efba 8c3d f1d1 3ebe 916f f33d
00000380: 8ab7 aabd 2157 1f3d dfbf c53b 8382 3f3d
00000390: 320d 51bd 21ea 053d 08e8 b1bd ec7f 0ebd
000003a0: d81d 81bd 3437 1fbd 1546 96bd bded 393c
000003b0: 69c9 9ebe e9c5 a7bd bb4f 81bd dd03 b63d
000003c0: 342f 9ebd 92e7 03bd 8d3f 46bc f68b d73d
000003d0: 1e52 bd3d 1cc1 ee3d 55b6 703d 71eb 03bd
000003e0: 1b07 86bd 9d06 7bbb c0fc cb3c 2ef1 09be
000003f0: f47e e6bd b811 b3bd 9247 7abd deb0 b6bd
