model/weighs_models/LSTM_model.pth (torch, 416826 bytes, 7 tensors)

lstm.weight_ih_l0 f4 [128, 4]
-0.19583341 -0.4164475 0.9121135 -1.330419 -1.6946265 -1.1377496 0.78138256 -0.4461315
0.7677293 -0.62178504 -0.57942307 -0.8636545 0.06433742 -0.29749215 0.5330768 -0.5582772
0.2610288 0.28478837 -1.361949 -0.3834026 -0.061480302 -0.17620817 0.58846897 -0.02265266
0.2910934 -0.05056853 -1.7766681 -0.4106836 -0.5956592 0.17489854 -0.41105637 -1.0627958
-0.83411133 -0.4798786 0.06424807 -0.11874179 -0.2922469 -0.77736926 -0.66320026 -2.9831514
-0.021285327 -0.5780459 0.84347165 -1.6244773 0.44361013 -0.5846604 0.015482366 -1.9309449
-0.0020796831 -0.52631277 0.6912044 -1.6202958 -0.72667104 -0.3580706 -0.9773683 -0.19437043
-0.90433383 -0.37818882 -0.6716847 -0.30202508 -1.2733649 0.24502431 -1.1492163 -2.5039148
0.19788727 -1.4594913 -0.95705473 -1.4938712 0.41308773 -0.56899095 0.05992458 -2.2380292
-0.70959365 0.695484 -1.2896466 -0.52826685 0.08962881 -0.54460084 0.5433364 -1.4971001
0.048993535 0.6461709 -1.5458245 -2.1190443 -0.25368476 -0.37756225 0.78201485 -1.125804
-0.63853943 -0.14856006 0.44319886 -0.6198779 -0.730554 -0.605522 0.11902938 -0.22416967
-0.5020744 -0.22526942 0.3988699 -0.26592588 -1.5279167 -0.10048841 -0.6080244 -2.6382616
-0.07337354 -0.2579751 0.20625453 -1.4148377 -0.15854768 -0.49170846 0.9792777 -1.5564411
-0.09000708 -0.16633911 0.40716732 -1.2422131 -0.3761578 -0.6467469 0.72208416 -1.0749379
-0.00070435344 -0.07012934 -0.11154782 0.2940625 0.06031803 1.1393887 0.041876655 -1.1520449
0.8611605 -0.44822618 0.37075925 -1.006039 -2.5601652 -1.2512873 1.449881 -3.5145497
0.008690208 0.19936754 0.30227312 -0.9276689 -0.07685885 -0.08323451 1.0897264 -1.1272256
-1.0360196 -1.4783976 1.0062608 -1.0284959 -0.17356098 -0.046038833 0.12210968 -0.47702485
-0.60871905 -1.5008527 2.5148697 -0.45372406 -0.08016116 -0.9135217 1.5554354 -0.7374013
0.05330697 0.18299818 -0.38375255 -0.570301 -0.19565834 -0.14329101 0.15298343 -2.086064
0.23288102 -0.2941647 0.81972474 -0.48450607 0.048158795 -0.010166845 0.4137295 -0.88992894
0.075667776 -0.46492648 0.21543252 -0.45947465 -1.3888735 -0.5044875 0.59425235 -2.6774828
-1.2724142 -1.2617089 2.973347 -0.26604158 0.11424277 -0.31675225 -0.44111022 -3.33439
0.0018835035 -0.6608122 -0.090510555 -2.1766117 0.23949747 -0.34789234 0.0152581595 -0.9880698
-1.110357 -1.6714292 1.704309 -0.17788707 0.16676866 -0.39198703 0.22124742 -0.8794791
-0.120296314 0.9500279 -0.60000366 -1.5946503 0.06902831 -0.3122116 0.32798892 -0.8429947
0.13699633 -1.1928107 1.6679974 -0.3938807 0.13363497 0.3972345 -0.11424593 -0.54465145
0.38192827 0.17080683 -0.25649977 -0.98819077 -0.40366358 -0.8181979 -0.22656116 -3.0371795
0.046717517 -0.5389066 0.7581551 -0.32446995 0.46227452 -0.37342036 0.5248223 -0.78718513
0.026201878 -0.37335634 0.15529034 -0.37406367 0.7615511 -0.20137085 0.44680366 -1.1317698
-1.1186 -0.022284292 0.32835692 -1.7089772 0.028794426 0.46448323 1.4263984 -1.3976994
00000000: 8e88 48be 9b38 d5be 4580 693f 2b4b aabf
00000010: 85e9 d8bf c7a1 91bf b008 483f 596b e4be
00000020: e889 443f 4e2d 1fbf 1255 14bf 7618 5dbf
00000030: 56c3 833d e450 98be b977 083f 41eb 0ebf
00000040: 91a5 853e c8cf 913e 5854 aebf 584d c4be
00000050: c5d2 7bbd ea6f 34be e7a5 163f 1292 b9bc
00000060: 320a 953e f220 4fbd dc69 e3bf 1f45 d2be
00000070: 1f7d 18bf 9a18 333e fb75 d2be b109 88bf
00000080: 5288 55bf a6b2 f5be 7e94 833d e52e f3bd
00000090: 63a1 95be ac01 47bf 7ec7 29bf f4eb 3ec0
000000a0: 915e aebc d1fa 13bf c2ed 573f dfee cfbf
000000b0: de20 e33e 4eac 15bf c0a9 7d3c 3429 f7bf
000000c0: 4b4b 08bb 6fbc 06bf c6f2 303f da65 cfbf
000000d0: 1d07 3abf 0855 b7be cf34 7abf 0b09 47be
000000e0: 6c82 67bf f7a1 c1be 87f3 2bbf 08a3 9abe
000000f0: 9ffd a2bf a7e7 7a3e 8519 93bf 2440 20c0
00000100: f6a2 4a3e 9cd0 babf 8a01 75bf 2c37 bfbf
00000110: 3c80 d33e 64a9 11bf 7a73 753d df3b 0fc0
00000120: eea7 35bf 3d0b 323f 2413 a5bf 7f3c 07bf
00000130: 4f8f b73d f66a 0bbf 1818 0b3f faa0 bfbf
00000140: 72ad 483d 756b 253f 94dd c5bf 6c9e 07c0
00000150: f8e2 81be d74f c1be 2032 483f 581a 90bf
00000160: 5277 23bf 2120 18be f6ea e23e 51b0 1ebf
00000170: 9605 3bbf 7d03 1bbf adc5 f33d bc8c 65be
00000180: f387 00bf 07ad 66be ad38 cc3e 7027 88be
00000190: c692 c3bf decc cdbd 7da7 1bbf 47d9 28c0
000001a0: de44 96bd 5015 84be 6334 533e 6719 b5bf
000001b0: 535a 22be 36c1 fbbe f1b1 7a3f 7639 c7bf
000001c0: a255 b8bd cd54 2abe 3c78 d03e d700 9fbf
000001d0: c197 c0be 3491 25bf 82da 383f 9197 89bf
000001e0: 5ca4 38ba f99f 8fbd 2f73 e4bd 5c8f 963e
000001f0: 0a10 773d 7dd7 913f db86 2b3d 3576 93bf
00000200: 0475 5c3f e77d e5be 28d4 bd3e e3c5 80bf
00000210: bfd9 23c0 2f2a a0bf b395 b93f 62ee 60c0
00000220: 6061 0e3c 0127 4c3e 8bc3 9a3e b67b 6dbf
00000230: 2c68 9dbd db76 aabd 287c 8b3f ee48 90bf
00000240: 4a9c 84bf 223c bdbf 27cd 803f c1a5 83bf
00000250: f8b9 31be 3793 3cbd a414 fa3d 9a3c f4be
00000260: 03d5 1bbf f11b c0bf a0f3 2040 854e e8be
00000270: 892b a4bd 8fdc 69bf 8218 c73f 55c6 3cbf
00000280: 6958 5a3d e063 3b3e 377b c4be 3fff 11bf
00000290: a95a 48be e1ba 12be b0a7 1c3e 1382 05c0
000002a0: 5d78 6e3e c19c 96be 7bd9 513f 2e11 f8be
000002b0: 2842 453d d792 26bc 5ad4 d33e 62d2 63bf
000002c0: b5f7 9a3d d80a eebe 589a 5c3e 4340 ebbe
000002d0: 9bc6 b1bf 1826 01bf ec20 183f e15b 2bc0
000002e0: 78de a2bf ad7f a1bf 514b 3e40 9a36 88be
000002f0: 1df8 e93d 5a2d a2be 33d9 e1be a566 55c0
00000300: e4df f63a fd2a 29bf 995d b9bd 9b4d 0bc0
00000310: d33e 753e f21e b2be 5cfd 793c 24f2 7cbf
00000320: 2e20 8ebf 64f1 d5bf cc26 da3f 0728 36be
00000330: 67c5 2a3e 86b2 c8be af8e 623e 8b25 61bf
00000340: ea5d f6bd 0735 733f d799 19bf 801d ccbf
00000350: b75e 8d3d 33da 9fbe 2aee a73e 80ce 57bf
00000360: c448 0c3e 05ae 98bf f080 d53f bbaa c9be
00000370: 9bd7 083e 5262 cb3e c5f9 e9bd 476e 0bbf
00000380: 1a8c c33e fce7 2e3e f053 83be 12fa 7cbf
00000390: feac cebe 6b75 51bf a6ff 67be 2661 42c0
000003a0: de5a 3f3d c8f5 09bf 7416 423f ed20 a6be
000003b0: 3faf ec3e f430 bfbe c15a 063f f784 49bf
000003c0: 52a5 d63c 9028 bfbe 6e04 1f3e 4685 bfbe
000003d0: 03f5 423f 2934 4ebe 73c3 e43e d5dd 90bf
000003e0: 492e 8fbf 8c8d b6bc 661e a83e c4bf dabf
000003f0: 4ae2 eb3c bfd0 ed3e 3994 b63f d0e7 b2bf

lstm.weight_hh_l0 f4 [128, 32]
-0.22515625 -0.9554498 0.6036734 -0.7565383 -0.11811878 -0.8609707 1.0163411 -0.19798233
0.16033515 0.4323941 0.23199104 0.053022496 -0.33534348 -0.049357142 1.6112193 1.1057271
0.21693741 -0.21019942 -0.6867238 -0.21551903 1.327553 -0.43464103 0.7386054 0.13376124
-0.1785865 0.1581453 0.21606876 0.120390065 -0.009156379 -0.21767785 0.872261 -1.5308415
1.8291634 2.8486857 -0.1296143 -0.67976946 0.102948315 -1.6659228 0.28368458 1.9934617
0.30601323 -0.53341484 -1.8016376 -0.5952522 -1.2311963 -0.040405244 -0.93008304 0.14713478
-0.028331345 -0.5904721 1.8307543 -0.08593704 0.60759175 -1.2081717 -1.6217756 -0.20440938
-0.60845476 -1.4296775 -0.7360851 1.4675201 0.42073908 1.039752 0.89805603 -1.6459885
0.416504 0.29918176 -0.45409968 -1.2584782 0.5813415 -0.14088273 -2.2783194 0.43563217
-1.3096547 0.55965453 -0.17147978 0.04033667 -0.09455923 -2.2997103 -2.9514277 1.4911144
1.0377247 -0.4587566 1.6321282 0.06280073 0.8301787 -0.4194368 -1.6795918 0.94971716
1.126264 -1.0475693 -0.06740109 0.26294893 0.07610522 0.19309868 0.99387455 -0.688178
0.8265303 0.58499867 1.702715 -0.645645 0.9084303 -0.65031356 0.7977424 0.3253806
-0.7303143 2.5356812 0.26353168 0.018572522 -0.113653 -2.0066857 -0.3795006 2.849643
2.4587872 -0.48491836 0.8836549 0.0053497874 2.421484 -0.6459512 -0.5752559 0.4239586
1.2844411 -2.26437 0.25020882 0.5900021 6.0616847e-05 0.51000607 0.99399513 -1.555124
0.091357164 1.946744 0.010847436 0.5845828 -0.18208072 1.2073439 1.099265 -0.36591756
0.46891198 0.36309958 0.29722774 -0.04235368 -0.058586936 0.88854384 0.37591603 -0.5385129
-0.05879188 -0.45964813 -1.8966906 -0.2316843 0.3069875 -0.29112527 0.16778642 -0.44426993
-0.34442344 -0.7233088 0.1048865 0.44803053 0.21677689 -0.11453264 -0.6009949 0.071435
0.91087455 0.82952935 0.7485574 -0.10127151 1.1195161 -0.66015494 0.26456675 0.9465883
-0.667943 1.1827865 -0.45904514 -0.372279 -0.4811408 -1.5578884 -0.5795303 1.4371701
1.0197014 -0.67813474 1.1959118 -0.027012203 2.2134578 -0.6803572 -0.98018163 0.62866414
0.92227805 -1.4526575 -0.16283867 1.003112 0.05398496 0.892246 0.6199274 -0.6969614
-0.040603057 -0.038730964 1.126631 -0.4432304 1.0471201 -0.041062254 0.026807154 0.44351706
-0.2354392 0.51690495 0.37775877 0.10151427 0.09306351 -1.6479987 -0.45303145 0.9275367
0.75196517 -0.8216023 0.31762582 -0.005058779 1.8263246 -0.74771273 -0.40645206 -0.16204901
0.46836028 -0.2783831 -0.07770638 0.17864203 0.57202756 -0.27563086 1.5646906 -2.4840646
0.42136726 0.13481374 0.24398169 -1.1635783 0.46908876 -1.190823 -0.2929158 -0.05398561
0.24641019 0.51017433 0.12468104 -0.22480623 -0.22384544 -1.3235738 0.14533672 1.506872
0.42824635 -0.2155141 0.55109066 -0.11849226 2.2368243 -1.236605 -0.38910925 -0.6342085
-0.39714628 -0.6141155 -0.011521745 0.37541783 0.35169974 -0.25256103 2.2065167 -2.051042
00000000: 5c8f 66be 5c98 74bf 578a 1a3f 7eac 41bf
00000010: 42e8 f1bd 9368 5cbf 7717 823f e1bb 4abe
00000020: e62e 243e c262 dd3e 0f8f 6d3e 1e2e 593d
00000030: 24b2 abbe b72a 4abd 6f3c ce3f 7788 8d3f
00000040: d724 5e3e 843e 57be 22cd 2fbf 05b1 5cbe
00000050: 42ed a93f 4589 debe 3e15 3d3f b5f8 083e
00000060: 61df 36be d7f0 213e 2141 5d3e 118f f63d
00000070: a304 16bc f1e6 5ebe 7f4c 5f3f 9df2 c3bf
00000080: 0722 ea3f de50 3640 9cb9 04be 5f05 2ebf
00000090: 91d6 d23d f53c d5bf 1b3f 913e c129 ff3f
000000a0: c4ad 9c3e e08d 08bf 109c e6bf 7362 18bf
000000b0: d797 9dbf f87f 25bd ec19 6ebf 80aa 163e
000000c0: 2317 e8bc 2e29 17bf 2856 ea3f c2ff afbd
000000d0: 228b 1b3f 5fa5 9abf 5896 cfbf b150 51be
000000e0: b1c3 1bbf acff b6bf 1370 3cbf b3d7 bb3f
000000f0: 1d6b d73e 9816 853f 00e7 653f c0af d2bf
00000100: 0340 d53e 5a2e 993e c17f e8be d015 a1bf
00000110: ccd2 143f 9043 10be fccf 11c0 2e0b df3e
00000120: c4a2 a7bf 8545 0f3f 6598 2fbe 1038 253d
00000130: 45a8 c1bd 742e 13c0 31e4 3cc0 d6dc be3f
00000140: 2ad4 843f 25e2 eabe 94e9 d03f ab9d 803d
00000150: 9786 543f 6cc0 d6be ddfc d6bf aa20 733f
00000160: 6b29 903f c016 86bf 9509 8abd 3ea1 863e
00000170: 0edd 9b3d a9bb 453e 906e 7e3f 6f2c 30bf
00000180: 7d97 533f 79c2 153f 91f2 d93f fe48 25bf
00000190: e38e 683f f37a 26bf d938 4c3f 4998 a63e
000001a0: e1f5 3abf 9a48 2240 a0ed 863e 6725 983c
000001b0: e7c2 e8bd 8a6d 00c0 e74d c2be 8d60 3640
000001c0: c55c 1d40 3847 f8be 3537 623f 454d af3b
000001d0: 98f9 1a40 0f5d 25bf f843 13bf 1a11 d93e
000001e0: 9168 a43f 70eb 10c0 5f1b 803e 610a 173f
000001f0: d83e 7e38 c28f 023f 7776 7e3f 4e0e c7bf
00000200: 7719 bb3d e82e f93f 72b9 313c 38a7 153f
00000210: 5e73 3abe 3f8a 9a3f b7b4 8c3f 8c59 bbbe
00000220: 3b15 f03e 30e8 b93e 3c2e 983e 0d7b 2dbd
00000230: dbf8 6fbd 9c77 633f 1178 c03e fbdb 09bf
00000240: c1cf 70bd 0057 ebbe c2c6 f2bf a63e 6dbe
00000250: 772d 9d3e 5f0e 95be 34d0 2b3e 5977 e3be
00000260: 4558 b0be c42a 39bf bcce d63d 4264 e53e
00000270: c3fa 5d3e 1790 eabd cdda 19bf 834c 923d
00000280: 132f 693f 095c 543f 75a1 3f3f 7067 cfbd
00000290: 4e4c 8f3f eaff 28bf 4b75 873e 9c53 723f
000002a0: 50fe 2abf 8c65 973f f707 ebbe 5a9b bebe
000002b0: 1658 f6be e368 c7bf 195c 14bf 31f5 b73f
000002c0: 9385 823f 3d9a 2dbf a313 993f b248 ddbc
000002d0: 4ba9 0d40 e42b 2ebf 2fed 7abf 22f0 203f
000002e0: 6a1a 6c3f aef0 b9bf 2ebf 26be f965 803f
000002f0: 551f 5d3d 3c6a 643f 90b3 1e3f 106c 32bf
00000300: 644f 26bd 5ca4 1ebd 7235 903f 18ef e2be
00000310: 0808 863f e530 28bd ad9a db3c ab14 e33e
00000320: f916 71be e253 043f 9969 c13e b7e6 cf3d
00000330: 1598 be3d 9ff1 d2bf bdf3 e7be 0c73 6d3f
00000340: ca80 403f 8754 52bf da9f a23e 1dc4 a5bb
00000350: 01c5 e93f 1a6a 3fbf 7c1a d0be 2df0 25be
00000360: ebcc ef3e 3b88 8ebe 8624 9fbd f0ed 363e
00000370: 6670 123f 7d1f 8dbe c847 c83f eafa 1ec0
00000380: 73bd d73e 9d0c 0a3e 56d6 793e 22f0 94bf
00000390: 672c f03e e36c 98bf 0ff9 95be 0420 5dbd
000003a0: f452 7c3e c99a 023f c658 ff3d 9b33 66be
000003b0: bd37 65be de6a a9bf 26d3 143e 2fe1 c03f
000003c0: 1b43 db3e baaf 5cbe 4714 0d3f 12ac f2bd
000003d0: 2128 0f40 1349 9ebf 5439 c7be 7d5b 22bf
000003e0: c256 cbbe ac36 1dbf b3c5 3cbc c436 c03e
000003f0: fd11 b43e ae4f 81be 9237 0d40 4644 03c0

lstm.bias_ih_l0 f4 [128]
-1.6514812 -0.72413725 -1.5736566 -0.6785894 -1.6267827 -0.36844754 -0.68434876 -1.9122826
-0.9189091 -1.6982532 -2.701685 -2.9527943 -2.5790303 -0.6483055 -0.14290534 -1.0479683
-1.3712381 -2.810632 -0.5176383 -2.6839547 -1.3247724 -2.2488863 -0.98632854 -1.071238
-1.2870187 -0.82930535 -2.9040813 -2.2028594 -3.0176883 -1.8972762 0.12413431 -1.3280995
-2.1130507 -0.86333084 -1.9047823 -1.2621052 -2.8556833 -0.6098011 -0.863212 -2.6363113
-1.7284058 -1.9175664 -1.9166185 -1.7872059 -2.0387805 -1.2969525 -0.6582819 -1.4987987
-1.902585 -1.7957637 -1.7061281 -1.7035478 -1.262205 -2.0075088 -1.4992152 -2.010466
-1.9970244 -1.3928037 -1.7149549 -2.2138553 -1.5020181 -2.219346 -0.95947343 -1.7206225
-0.021988152 0.05893893 0.02892241 -0.067101985 -0.022397649 -0.09241372 -0.009992456 0.14777897
-0.08988289 0.03880297 -0.10757246 0.11517936 -0.121396855 0.02108277 -0.12852478 0.029454194
0.014354027 -0.12185867 0.16405074 0.05704146 -0.012182261 -0.08091513 0.008471968 0.11307622
0.10505813 0.065261185 -0.061837815 0.07902782 0.0039736293 0.06397843 0.18121226 -0.10064965
-1.6776524 -0.86872596 -1.6217539 -0.95157015 -1.733833 -0.5227308 -0.7034059 -2.0641465
-0.9483167 -1.8158461 -2.5151217 -2.9634912 -2.4579294 -0.66053945 -0.34300986 -0.7831938
-1.25425 -2.5139124 -0.7540638 -2.75309 -1.1755788 -2.2156284 -0.88771355 -0.92740893
-1.2600157 -0.799131 -2.9673407 -2.4805665 -2.7381399 -1.8523529 0.05916834 -1.3045812
00000000: bc63 d3bf 0f61 39bf 946d c9bf 09b8 2dbf
00000010: 6a3a d0bf 28a5 bcbe 7b31 2fbf adc5 f4bf
00000020: a03d 6bbf 5c60 d9bf 68e8 2cc0 95fa 3cc0
00000030: d50e 25c0 59f7 25bf c755 12be d323 86bf
00000040: bb84 afbf 65e1 33c0 f283 04bf eac5 2bc0
00000050: 2492 a9bf c1ed 0fc0 0780 7cbf 541e 89bf
00000060: 07bd a4bf 5b4d 54bf 78dc 39c0 a6fb 0cc0
00000070: ce21 41c0 f2d9 f2bf 213a fe3d 2aff a9bf
00000080: 393c 07c0 4003 5dbf e8cf f3bf aa8c a1bf
00000090: 84c3 36c0 ed1b 1cbf 76fb 5cbf 53b9 28c0
000000a0: 673c ddbf d172 f5bf c153 f5bf 2ac3 e4bf
000000b0: 617b 02c0 8a02 a6bf 2a85 28bf a3d8 bfbf
000000c0: e887 f3bf 96db e5bf 6862 dabf db0d dabf
000000d0: ef8f a1bf 067b 00c0 49e6 bfbf 7aab 00c0
000000e0: 7f9e ffbf 6447 b2bf a483 dbbf ceaf 0dc0
000000f0: 2142 c0bf c409 0ec0 0da0 75bf 5c3d dcbf
00000100: 7f20 b4bc f369 713d b1ee ec3c c46c 89bd
00000110: 467b b7bc 6843 bdbd 66b7 23bc 5f53 173e
00000120: 8514 b8bd ddef 1e3d f34e dcbd 28e3 eb3d
00000130: ea9e f8bd c6b5 ac3c 009c 03be ec49 f13c
00000140: 272d 6b3c 0a91 f9bd ebfc 273e 4ea4 693d
00000150: 1b98 47bc d5b6 a5bd 02ce 0a3c 8194 e73d
00000160: b828 d73d a8a7 853d a649 7dbd 56d9 a13d
00000170: 3835 823b 2007 833d b58f 393e 6721 cebd
00000180: 50bd d6bf d364 5ebf a295 cfbf 1a9a 73bf
00000190: 3dee ddbf b0d1 05bf 6912 34bf fa1a 04c0
000001a0: e2c4 72bf a56d e8bf c1f7 20c0 d7a9 3dc0
000001b0: b74e 1dc0 1d19 29bf fd9e afbe 647f 48bf
000001c0: 448b a0bf f1e3 20c0 530a 41bf a032 30c0
000001d0: 5e79 96bf dbcc 0dc0 3241 63bf ac6a 6dbf
000001e0: 3248 a1bf d993 4cbf e9e8 3dc0 9ac1 1ec0
000001f0: af3d 2fc0 e619 edbf 805a 723d 84fc a6bf

lstm.bias_hh_l0 f4 [128]
-1.5356137 -1.0488011 -1.8684608 -0.7022863 -1.5531782 -0.45541367 -0.8435673 -2.0547829
-0.87206316 -1.6130128 -2.5486414 -2.679034 -2.5169144 -0.54395413 -0.019552339 -1.0436333
-1.2637774 -2.7258046 -0.66763353 -2.8872786 -1.1638598 -2.132083 -1.1110647 -0.9564135
-1.276972 -0.78940755 -2.8519597 -2.232111 -2.896184 -1.7635796 0.025974778 -1.2476854
-1.8389182 -0.9317717 -1.7692538 -1.2477621 -2.723141 -0.7101736 -1.0634446 -2.6522567
-1.4442511 -1.9743091 -2.2278469 -1.7417749 -1.9630513 -1.3296165 -0.35505548 -1.4006515
-2.1314085 -1.7271019 -1.50582 -1.715493 -1.0699571 -1.8096826 -1.5072608 -2.1091657
-2.1206322 -1.2138498 -1.5868591 -2.026481 -1.7370751 -2.5189233 -0.74088424 -1.5294011
0.1551998 -0.14760624 -0.15843236 -0.06964179 0.033839185 -0.16362783 -0.12623763 -0.065867774
-0.040326808 0.06953063 -0.052791562 -0.07810176 0.0008260426 -0.1553417 -0.029223824 0.025897278
0.11919362 -0.006477787 -0.047319345 0.08307995 -0.056462 -0.013635926 -0.1464257 0.011608702
0.009391403 -0.13534781 -0.108727925 0.043845978 0.14238727 0.07689385 0.10953305 -0.07757641
-1.4818556 -0.93961734 -1.6655157 -0.67656523 -1.5358614 -0.207481 -0.7375047 -2.1861994
-0.86743444 -1.831144 -2.536472 -2.7328851 -2.562074 -0.57731926 -0.15725307 -1.0233791
-1.2362967 -2.5958192 -0.6651624 -2.9027183 -1.2763897 -2.3452442 -1.0972147 -1.0199956
-1.2212714 -0.88090783 -2.9438112 -2.3304877 -3.0306306 -1.7716078 0.022393739 -1.1940225
00000000: fd8e c4bf 1d3f 86bf b929 efbf 09c9 33bf
00000010: 8bce c6bf fb2b e9be 07f4 57bf 9081 03c0
00000020: 883f 5fbf 3477 cebf f11c 23c0 4b75 2bc0
00000030: 2015 21c0 9440 0bbf 3a2c a0bc c795 85bf
00000040: 75c3 a1bf 9573 2ec0 08ea 2abf 2cc9 38c0
00000050: 5cf9 94bf 0c74 08c0 5e37 8ebf 84d7 74bf
00000060: d273 a3bf 9d16 4abf 8286 36c0 e8da 0ec0
00000070: 145b 39c0 fabc e1bf 0fc9 d43c 28b4 9fbf
00000080: ac61 ebbf 9788 6ebf e976 e2bf abb6 9fbf
00000090: f147 2ec0 f0cd 35bf f41e 88bf 93be 29c0
000000a0: 38dd b8bf 29b6 fcbf 0b95 0ec0 7bf2 debf
000000b0: 4445 fbbf e030 aabf d5c9 b5be 8c48 b3bf
000000c0: ff68 08c0 ad11 ddbf b6be c0bf 4695 dbbf
000000d0: 5bf4 88bf aea3 e7bf eced c0bf 92fc 06c0
000000e0: 70b8 07c0 6e5f 9bbf 331e cbbf ddb1 01c0
000000f0: 7a58 debf 0a36 21c0 97aa 3dbf 6ac3 c3bf
00000100: b2ec 1e3e 1726 17be 183c 22be 5ba0 8ebd
00000110: f59a 0a3d 0e8e 27be 7044 01be afe5 86bd
00000120: b92d 25bd 1366 8e3d f73b 58bd d1f3 9fbd
00000130: c88a 583a e511 1fbe cd66 efbc 8726 d43c
00000140: c91b f43d 9e43 d4bb eed1 41bd d225 aa3d
00000150: b344 67bd 3869 5fbc 9ef0 15be 6d32 3e3c
00000160: 66de 193c 9e98 0abe bfac debd d797 333d
00000170: f8cd 113e 867a 9d3d dd52 e03d 61e0 9ebd
00000180: 72ad bdbf c38a 70bf 9e2f d5bf 6133 2dbf
00000190: 1b97 c4bf e675 54be 1ccd 3cbf b1ea 0bc0
000001a0: 2f10 5ebf ed62 eabf 8f55 22c0 97e7 2ec0
000001b0: 05f9 23c0 32cb 13bf f306 21be 16fe 82bf
000001c0: f83e 9ebf e721 26c0 1548 2abf 23c6 39c0
000001d0: bd60 a3bf 7b18 16c0 8871 8cbf 378f 82bf
000001e0: 9f52 9cbf 2d83 61bf 6767 3cc0 b626 15c0
000001f0: daf5 41c0 0bc4 e2bf 1373 b73c bbd5 98bf

dense1.weight f4 [128, 768]
0.0025911042 -0.014943899 -0.023046946 -0.008394941 0.0058874334 -0.0014478264 -0.028067177 -0.009210174
-0.016119374 0.035801947 -0.007434089 0.021140642 0.03431313 0.018916069 0.032763198 -0.03268198
-0.027620995 -0.029556554 0.009975398 -0.034329552 0.024768561 -0.008231036 -0.005733488 0.034732018
-0.025884597 0.022308474 0.010512013 0.0026711181 -0.0006295341 -0.011608279 -0.013194806 -0.011790468
0.022679685 -0.035917368 0.0055681607 -0.027752245 0.030363409 -0.006441337 -0.027169254 -0.000912807
-0.013180164 0.0034216389 0.03293418 -0.008209881 0.0077118087 0.0137364585 0.00819449 -0.031866062
-0.008397479 -0.021678587 -0.031759016 0.03426029 0.014737293 -0.03063527 0.021673705 0.029189138
-0.0055981125 -0.001685468 0.0153014 -0.006194765 -0.02447538 -0.013417951 0.01993075 0.019492522
0.03045588 -0.0027789462 0.019650484 -0.010214704 0.034015704 -0.0013550367 -0.019638699 0.029133165
0.019708397 -0.018715937 0.009718498 0.00644606 -0.0344435 -0.030541636 0.007379472 -0.021296773
0.019610772 -0.009475239 -0.02678871 0.017164279 -0.035357732 0.026501393 0.019462535 -0.014046087
0.011464838 0.03019677 -0.023111952 0.024436258 0.018740982 0.0062859375 -0.021233441 -0.0136182895
0.034917142 -0.012938409 0.009814062 -0.02765776 -0.028369047 0.014614143 0.008001052 -0.019641649
0.023050783 -0.0303027 0.032324865 5.7142384e-05 -0.02959929 0.0040369392 -0.016878966 -0.02493442
0.016130932 0.02275193 0.0058116307 -0.0009846737 0.022899754 -0.0053336504 0.018885776 4.28869e-06
-0.025502559 -0.024363441 0.026681226 0.016086446 0.019210951 0.02183465 0.0148524 0.03040937
0.020961985 0.019875007 0.0031402071 0.031290155 0.021614812 -0.012654548 -0.013171048 -0.024969354
-0.016292673 -0.03186239 0.015340127 0.015605832 -0.033695634 -0.0062643993 -0.024526399 -0.018915402
-0.022688719 0.02297387 0.025843792 -0.005051909 0.0026796742 0.029213458 -0.0063000037 0.024221342
-0.0116896955 0.01321166 0.017512385 -0.025186786 -0.023358596 -0.012155184 0.00055041484 -0.027600985
-0.008493667 0.014522136 0.025366964 -0.0007626082 -0.024417805 0.0018866622 -0.021099512 0.025282873
-0.031266905 0.019803345 0.0070234374 0.010555334 -0.024659649 -0.011321345 -0.033475995 -0.0016325196
0.005799255 0.028267004 0.01718463 -0.0044397144 -0.029080333 0.034010347 -0.013325734 0.011478092
0.031472184 0.029903155 0.007817378 -0.010965733 0.031652004 0.015568086 0.016051628 0.0041766977
0.018151378 0.019276882 0.0070553035 0.030187916 -0.020449588 0.004449664 -0.009769072 0.0104391705
-0.0015799069 0.0025354417 0.016050737 -0.013620599 0.013559835 0.019199358 -0.035096176 -0.02024863
0.035400916 -0.013702687 0.02711015 0.009711013 0.027719356 -0.0330335 0.019164292 0.009221023
-0.018737027 0.02828554 -0.02025029 -0.015678942 0.027852498 -0.019844994 -0.0033865767 -0.02489941
-0.015080582 -0.0077199773 -8.806225e-05 -0.029868057 -0.026639948 0.035290204 0.0034289989 0.027294401
-0.027991952 -0.022795772 -0.012476728 0.013935648 0.035320017 0.024427572 -0.028515052 -0.02308351
-0.015019689 0.013848619 0.022965904 -0.029056128 -0.034182753 0.020353403 -0.028012242 -0.01747881
0.0069436296 -0.0133261075 -0.0078101773 0.00033668152 -0.0062856493 -0.012421809 0.030081447 0.012556205
00000000: 84cf 293b 41d7 74bc f3cc bcbc ef8a 09bc
00000010: 5feb c03b fec4 bdba 23ed e5bc 45e6 16bc
00000020: c70c 84bc 10a5 123d a999 f3bb 242f ad3c
00000030: ed8b 0c3d dff5 9a3c b432 063d 8add 05bd
00000040: 6d45 e2bc 9620 f2bc da6f 233c 259d 0cbd
00000050: 70e7 ca3c 78db 06bc fcdf bbbb 2943 0e3d
00000060: ef0b d4bc 43c0 b63c 943a 2c3c ed0d 2f3b
00000070: 5107 25ba a730 3ebc 072f 58bc cf2c 41bc
00000080: bfca b93c 171e 13bd 1e75 b63b ad58 e3bc
00000090: afbc f83c da11 d3bb 0e92 debc 7149 6fba
000000a0: 9df1 57bc 933d 603b fee5 063d bd82 06bc
000000b0: 57b3 fc3b e20e 613c 2f42 063c fd85 02bd
000000c0: 9495 09bc 4b97 b1bc be15 02bd 8554 0c3d
000000d0: b074 713c d1f6 fabc 0e8d b13c 0f1e ef3c
000000e0: 5f70 b7bb ecea dcba b9b2 7a3c 75fd cabb
000000f0: 9880 c8bc f7d6 5bbc d045 a33c c8ae 9f3c
00000100: 9c7e f93c fb1e 36bb 0dfa a03c 935b 27bc
00000110: 0d54 0b3d 7d9b b1ba 56e1 a0bc ada8 ee3c
00000120: 8173 a13c 2a52 99bc 563a 1f3c 7839 d33b
00000130: a114 0dbd 7432 fabc 7fcf f13b 9276 aebc
00000140: c5a6 a03c 083e 1bbc ff73 dbbc 1a9c 8c3c
00000150: 45d3 10bd 7319 d93c e56f 9f3c 8f21 66bc
00000160: 04d7 3b3c 375f f73c 4755 bdbc 8c2e c83c
00000170: b086 993c 44fa cd3b c1f1 adbc 3f1f 5fbc
00000180: 4705 0f3d 9ffb 53bc 29cb 203c 8792 e2bc
00000190: 3466 e8bc 2970 6f3c d816 033c 86e7 a0bc
000001a0: ffd4 bc3c 5e3d f8bc 1467 043d 2bac 6f38
000001b0: 367a f2bc 4d48 843b c245 8abc 4543 ccbc
000001c0: 0425 843c 4162 ba3c 7e6f be3b 2b10 81ba
000001d0: 4498 bb3c e7c5 aebb 58b6 9a3c 91e7 8f36
000001e0: beea d0bc d795 c7bc 9692 da3c b9c7 833c
000001f0: 4960 9d3c 94de b23c 7b57 733c 121d f93c
00000200: 78b8 ab3c e9d0 a23c efcb 4d3b 1b2a 003d
00000210: 8c11 b13c 0555 4fbc 61cb 57bc 888c ccbc
00000220: 3678 85bc 2382 02bd 2855 7b3c 9baf 7f3c
00000230: 6f04 0abd 9745 cdbb 96eb c8bc 79f4 9abc
00000240: b1dd b9bc b333 bc3c 5cb6 d33c 7c8a a5bb
00000250: 799d 2f3b 1051 ef3c 4370 cebb d66b c63c
00000260: 2386 3fbc b875 583c 2276 8f3c 8554 cebc
00000270: 875a bfbc 8926 47bc b749 103a 761b e2bc
00000280: 0529 0bbc 41ee 6d3c 61ce cf3c c5e9 47ba
00000290: d907 c8bc e149 f73a e2d8 acbc 071e cf3c
000002a0: ba11 00bd a03a a23c dd24 e63b 48f0 2c3c
000002b0: 0803 cabc 2a7d 39bc 201e 09bd 45fa d5ba
000002c0: ad07 be3b 3490 e73c c8c6 8c3c 067b 91bb
000002d0: e139 eebc 6f4e 0b3d 2e54 5abc 9b0e 3c3c
000002e0: fae8 003d 76f7 f43c 7614 003c 9ea9 33bc
000002f0: 88a5 013d 4911 7f3c b47e 833c aedc 883b
00000300: 33b2 943c 8dea 9d3c 2d30 e73b a64c f73c
00000310: e585 a7bc 7dce 913b 750e 20bc 0e09 2b3c
00000320: e114 cfba a729 263b d67c 833c ef28 5fbc
00000330: 122a 5e3c f947 9d3c 02c1 0fbd 74e0 a5bc
00000340: 8d00 113d 3c81 60bc 1b16 de3c f11a 1f3c
00000350: b413 e33c 234e 07bd 6ffe 9c3c c613 173c
00000360: 657e 99bc 14b7 e73c f0e3 a5bc 2071 80bc
00000370: ec2a e43c f891 a2bc 54f1 5dbb d9f9 cbbc
00000380: 8c14 77bc ddf7 fcbb 0fae b8b8 dbad f4bc
00000390: 053c dabc 768c 103d 0eb9 603b 8298 df3c
000003a0: 614f e5bc 33be babc 316b 4cbc 5852 643c
000003b0: b9ab 103d 551c c83c 6698 e9bc a119 bdbc
000003c0: 2415 76bc 51e5 623c fe22 bc3c 1e07 eebc
000003d0: 3703 0cbd 2ebc a63c ee79 e5bc b92f 8fbc
000003e0: 6387 e33b bf55 5abc 84ec ffbb a184 b039
000003f0: d9f7 cdbb d884 4bbc 5e6d f63c 8ab8 4d3c

dense1.bias f4 [128]
-0.031675693 -0.09597489 0.11754131 0.13940234 0.14950058 -0.033331744 0.14348426 -0.06646609
0.13016573 0.1418797 -0.099902466 -0.09849506 -0.032023527 0.07656033 0.15190965 -0.036694694
-0.106379844 -0.08299598 0.15042277 0.155767 0.12352279 -0.102146536 -0.102089375 -0.10429849
-0.10323154 -0.08352574 0.10999927 0.11144792 0.14405115 0.13106215 0.14133152 -0.11203023
-0.09348981 0.11260282 -0.112293355 -0.13817894 0.14307016 0.1510913 -0.12928663 -0.10390066
-0.08338935 -0.15591393 0.11842062 -0.11040942 0.0922828 -0.058306113 -0.100458466 -0.12332432
-0.07693819 -0.03951394 -0.04391786 -0.11793175 -0.05022418 0.12775387 0.09622642 0.14214171
-0.1256934 -0.12946588 0.13367355 -0.08798382 -0.14496608 -0.08696168 -0.044977397 0.15727647
0.101194076 -0.17756051 -0.06504571 0.15535298 -0.10877202 -0.11715254 0.06866789 -0.09745916
-0.07690255 -0.08483804 -0.08140523 -0.059953917 -0.072360426 -0.10333957 -0.12279613 -0.064352915
0.12099741 0.15759192 -0.08915066 -0.13359798 0.11919426 -0.081498295 -0.19272213 0.11462943
-0.053541075 -0.09428154 0.15209909 0.1263061 0.15770105 -0.0808646 -0.11653173 0.1261425
-0.121209584 -0.03911716 0.13314062 -0.06428853 -0.105831526 -0.09275259 -0.11619612 0.14043815
-0.045326184 -0.02967854 -0.1844077 -0.06976811 -0.08432801 -0.055590887 -0.053913176 -0.17635812
-0.062980935 -0.049927317 0.14715135 0.14281097 -0.27571607 -0.101913854 -0.06674432 -0.059093274
0.14609481 -0.09799131 -0.09213329 0.1410203 -0.037794787 -0.06657947 -0.117243215 0.122389466
00000000: 5fbe 01bd 7c8e c4bd 80b9 f03d 7dbf 0e3e
00000010: ae16 193e de86 08bd 8aed 123e 601f 88bd
00000020: 2a4a 053e e948 113e aa99 ccbd c7b7 c9bd
00000030: 1a2b 03bd aacb 9c3d 348e 1b3e 2d4d 16bd
00000040: addd d9bd ccf9 a9bd 6d08 1a3e 6281 1f3e
00000050: 84f9 fc3d 3432 d1bd 3c14 d1bd 729a d5bd
00000060: 0f6b d3bd 8b0f abbd 4c47 e13d cf3e e43d
00000070: 2582 133e 2835 063e 36b9 103e 1b70 e5bd
00000080: 9677 bfbd 4f9c e63d 0ffa e5bd c87e 0dbe
00000090: fc80 123e aeb7 1a3e b763 04be dfc9 d4bd
000000a0: 09c8 aabd e7a7 1fbe 8386 f23d 561e e2bd
000000b0: c4fe bc3d 64d2 6ebd 2bbd cdbd 7691 fcbd
000000c0: c591 9dbd 5fd9 21bd 37e3 33bd 3486 f1bd
000000d0: dfb7 4dbd e9d1 023e 5b12 c53d 998d 113e
000000e0: c5b5 00be b492 04be b8e1 083e dc30 b4bd
000000f0: fd71 14be f718 b2bd 383a 38bd 150d 213e
00000100: d73e cf3d 6cd2 35be af36 85bd da14 1f3e
00000110: ddc3 debd aced efbd c0a1 8c3d ab98 c7bd
00000120: 167f 9dbd 91bf adbd c9b7 a6bd 3d92 75bd
00000130: b431 94bd b2a3 d3bd 8a7c fbbd 76cb 83bd
00000140: 7dcd f73d c75f 213e 9f94 b6bd e9cd 08be
00000150: 1f1c f43d 94e8 a6bd f358 45be d6c2 ea3d
00000160: e34d 5bbd ae16 c1bd ddbf 1b3e 6356 013e
00000170: 627c 213e 579c a5bd 30a8 eebd 802b 013e
00000180: bb3c f8bd 5139 20bd 0456 083e b4a9 83bd
00000190: 33be d8bd 12f5 bdbd 3bf8 edbd 05cf 0f3e
000001a0: f3a7 39bd 6920 f3bc 5fd5 3cbe 95e2 8ebd
000001b0: 2ab4 acbd 45b3 63bd 10d4 5cbd 3997 34be
000001c0: 26fc 80bd 9680 4cbd d8ae 163e 0a3d 123e
000001d0: a82a 8dbe 36b8 d0bd 3fb1 88bd ca0b 72bd
000001e0: e199 153e abaf c8bd 61b0 bcbd a067 103e
000001f0: b5ce 1abd d15a 88bd 361d f0bd 54a7 fa3d

dense2.weight f4 [1, 128]
-0.0028380423 0.018314669 0.06555795 0.062952705 0.063127674 -0.017910974 0.06629612 0.009159822
0.0619264 0.061479047 0.001611067 0.0012498292 0.070914805 0.081286505 0.060477708 -0.009284045
-0.001267587 -0.027351549 0.05956362 0.061798774 0.061149206 -0.021550346 -0.011752203 0.026186412
0.016173394 0.016895074 0.065345265 0.06893344 0.061825734 0.06868928 0.06706367 -0.010752356
0.00018560917 0.072422035 0.018220691 0.0074756634 0.068960555 0.0523107 0.00827465 -0.02330201
0.0034648872 -0.005653187 0.06724645 0.0022486895 0.09039548 -0.037404373 -0.019741653 -0.017608307
0.001609615 -0.044194408 0.00024389793 0.0028386973 0.016223134 0.062771775 0.08510428 0.060438342
-0.030757356 -0.011356024 0.059137993 0.026810057 -0.000518676 -0.016849715 0.0012895664 0.06279663
0.08054322 0.02643185 0.00022425257 0.06235151 -0.006429916 -0.016676592 0.07529674 0.021794165
0.0020923978 -0.006297627 0.0075982874 -0.016454129 -0.0069598034 -0.01788326 0.016366446 0.014607932
0.071087666 0.06621043 0.019847577 -0.019795269 0.06630402 -0.009383133 -0.27920714 0.06890605
-0.007201111 0.0027787618 0.0585641 0.06466665 0.059454795 0.02485849 -0.008025043 0.06721876
-0.02893222 -0.00086885307 0.06680927 -0.0018935397 -0.0025662116 0.020474654 0.021512937 0.06374702
-0.0007915939 0.062023744 0.014878777 -0.000953038 -0.006106081 -0.008552508 -0.01738467 0.1888579
-0.004162221 -0.041545473 0.062063973 0.070568174 -0.909746 -0.012765594 -0.008196473 -0.0016682249
0.06997589 0.020632662 -0.023587642 0.060786862 -0.009488961 0.00020381557 -0.017568326 0.064654745
00000000: 73fe 39bb a508 963c 3f43 863d 59ed 803d
00000010: 1549 813d 09ba 92bc 43c6 873d 1413 163c
00000020: 89a6 7d3d 74d1 7b3d 702a d33a 4fd1 a33a
00000030: c83b 913d 8a79 a63d 79b7 773d 1b1c 18bc
00000040: 2925 a6ba 5b10 e0bc fbf8 733d b620 7d3d
00000050: 9777 7a3d 5a8a b0bc 508c 40bc e384 d63c
00000060: 117e 843c 8a67 8a3c bdd3 853d fa2c 8d3d
00000070: fb3c 7d3d f7ac 8c3d ad58 893d a62a 30bc
00000080: 15a0 4239 0152 943d 8f43 953c 69f6 f43b
00000090: 313b 8d3d bf43 563d 6692 073c dbe3 bebc
000000a0: 2913 633b 5f3e b9bb 82b8 893d c05e 133b
000000b0: 4421 b93d 5435 19bd 3fb9 a1bc 4c3f 90bc
000000c0: b8f9 d23a 3205 35bd dabe 7f39 7009 3a3b
000000d0: 61e6 843c 7d8e 803d 274b ae3d 328e 773d
000000e0: daf6 fbbc 9e0e 3abc ae3a 723d c4a0 db3c
000000f0: c2f7 07ba 6a08 8abc ab06 a93a 859b 803d
00000100: d8f3 a43d 9b87 d83c 5725 6b39 4c64 7f3d
00000110: 0bb2 d2bb 599d 88bc 2d35 9a3d ad89 b23c
00000120: 9c20 093b 535c cebb 0efb f83b cfca 86bc
00000130: 100f e4bb ea7f 92bc ed12 863c 1c56 6f3c
00000140: 6996 913d 5599 873d 6397 a23c b029 a2bc
00000150: 67ca 873d b6bb 19bc 3df4 8ebe 9d1e 8d3d
00000160: 4cf7 ebbb e31b 363b e9e0 6f3d f36f 843d
00000170: df86 733d 08a4 cb3c 787b 03bc fda9 893d
00000180: 4303 edbc bec3 63ba 4cd3 883d a630 f8ba
00000190: e32d 28bb 76ba a73c e63b b03c cc8d 823d
000001a0: f882 4fba 9c0c 7e3d 1dc6 733c 4cd5 79ba
000001b0: 8515 c8bb d21f 0cbc 4c6a 8ebc f763 413e
000001c0: 3e63 88bb 962b 2abd cb36 7e3d 0c86 903d
000001d0: 1de5 68bf c826 51bc 804a 06bc 57a8 daba
000001e0: 854f 8f3d d405 a93c df3a c1bc a5fb 783d
000001f0: 9677 1bbc 53b7 5539 73eb 8fbc b569 843d
