model/weighs_models/LSTM_best_best.pth (torch, 203622 bytes, 7 tensors)

lstm.weight_ih_l0 f4 [32, 4]
00000000: 6c2c 23be b33a babe 05b0 83bd bf6c 66bf
00000010: 24ef 76bf 6354 19bf 242b 423b dffd 2e3e
00000020: 0775 70be 3ca0 2b3e 6fee 90be 11b5 4a3e
00000030: 7d42 48be c1ef b4bf 608b 033e f445 c03e
00000040: 9547 40be 0cf4 b93d 5aa2 703e cc5c 3e3e
00000050: 4eed 373e 01b7 57bf a7de 80bf cd7c 1fbf
00000060: 812b 26bd 7987 5f38 3121 92be 9edc a23e
00000070: 7552 203d b909 1f3e af8b 923e ebbf 1dbd
00000080: 4eaf 08be 3a6d 2dbe 3f57 493e 7c03 15bf
00000090: c653 9dbf a75a d7bd 1304 76bd f0d6 b5be
000000a0: ee18 e4bd 38fd 40be 2785 2f3f eccd 983e
000000b0: 012f e03e 3b53 ffbc d4fc aebe 7f88 8ebc
000000c0: 1ad0 503d 7d82 643b abf0 713e 6db3 d23e
000000d0: 08af 873e ee98 d33d 4b11 a83d f770 28bf
000000e0: 7f7d 5fbe 44df 74be b5b2 d23e b5e5 d93d
000000f0: bb2b d6be cad2 cd3e a61a a63e 4511 a3be
00000100: 3d58 21be 081c efbc 8eed 4e3d 6e05 313d
00000110: 4de0 40be 2527 8bbd f49b a03d 98ed 15bf
00000120: 99a4 4d3d 6271 5f3c b926 b33c 16e3 c03e
00000130: 25c8 d53d 8d2e e03c bff8 1f3e bfa8 d9be
00000140: 7753 cc3c 96a5 2d3c 7d99 ffbd 8cba b23e
00000150: c332 f23d 1e98 263d fa9e 273d c8e2 4e3e
00000160: ba3a a5bc fa4e cdbb fa30 843d f2eb 7c3f
00000170: 4e6e 9ebd fe19 cdbc a767 e03c 4dd2 a83e
00000180: c4e2 abbb 95d0 d53e 9440 09be 12e7 8bbe
00000190: 18da 79bf 09dd 35be f0bf 42bd 48b0 e1bd
000001a0: 06ba 69be eccb 18be 9dee cfbe 1968 c33e
000001b0: f055 303d bef5 85bf 415f 63be 0c3e 093e
000001c0: d0ff 5a3e 1e29 e83d 39b2 573d 982c fc3e
000001d0: e4f0 b53d ad86 18bf 4cf7 e2be 1d23 35bf
000001e0: 4155 063e 81db 093e 941c 31be 3f59 f53e
000001f0: 2c69 45bc 4c6d e03e 2f5e 43bd a69e be3e
-0.15934914 -0.3637291 -0.064300574 -0.90009683 -0.9645865 -0.5989439 0.0029627765 0.17089032
-0.23482142 0.16760343 -0.2830691 0.19795634 -0.19556613 -1.4135667 0.12846136 0.3755337
-0.18777306 0.09079751 0.23499432 0.18590087 0.17961618 -0.84263617 -1.0067948 -0.62299806
-0.040568832 5.3293512e-05 -0.28540948 0.31808943 0.039141137 0.15531053 0.28622195 -0.038513105
-0.13348123 -0.16936198 0.19662188 -0.5820844 -1.2291191 -0.105153374 -0.06006248 -0.35515547
-0.111375675 -0.18846595 0.6856255 0.29844606 0.4378586 -0.031167617 -0.34177268 -0.01739907
0.05097971 0.0034867816 0.23626964 0.41152516 0.26500726 0.103319034 0.08206423 -0.6579737
-0.21825217 -0.23913294 0.41151968 0.10639516 -0.4183024 0.40199882 0.32442206 -0.31849113
-0.15756316 -0.029188171 0.05051952 0.04321807 -0.18835564 -0.067945756 0.07842246 -0.58565664
0.0502058 0.013637872 0.02186905 0.37673253 0.10438565 0.027365947 0.15622233 -0.42511556
0.024942143 0.010598561 -0.124804474 0.3490795 0.11826088 0.040672414 0.040923096 0.20203698
-0.020169605 -0.0062655183 0.06454654 0.98797524 -0.07735883 -0.025036808 0.027393175 0.32972947
-0.0052455384 0.41760698 -0.13403541 -0.2732473 -0.9759841 -0.177601 -0.047546327 -0.11019951
-0.22824869 -0.1492154 -0.40611735 0.38165358 0.043050706 -1.046562 -0.22204305 0.13402575
0.21386647 0.113359675 0.0526602 0.49252772 0.08883837 -0.595805 -0.44329298 -0.70756704
0.1311846 0.1346264 -0.17296058 0.47919652 -0.012049001 0.43833387 -0.047697242 0.37230414

lstm.weight_hh_l0 f4 [32, 8]
00000000: d5d9 093f d8c0 51be 9f92 13be 9d9e a83e
00000010: fea3 44be 3ac6 bfbe c807 01be cd0f e4be
00000020: 8f96 2d3f b61d 153f 4ddb b3be cf98 0a3e
00000030: 02bb b3be 2583 63be eed7 27bf b39d 043d
00000040: 2d0d 7ebf ff8b 30bf 3f11 5fbf d1a5 c1be
00000050: 8579 aa3e 65ff 46bf eb73 afbe 1827 063f
00000060: f7d4 3c3e e78d 1fbe 6292 84bf b239 b93d
00000070: 2535 b7be 57e3 20bf 83d1 c8be aaeb 933c
00000080: 71bb 8ebe 6a86 873e 3ad8 abbc f7a4 223e
00000090: 87db 91bd 5c15 b33e e5be ffbd d296 ebbb
000000a0: 4d49 babe c9a1 d93e e83c edbe 1245 b6bd
000000b0: 7085 fa3d 1167 f83d 9620 fdbe ac92 11bf
000000c0: 93f6 bcbe 5a0f 92be f84c 9ebe 44dc 03bf
000000d0: dc46 073f 7b35 563e c082 42be 7c27 d53e
000000e0: 65c1 873e 63a3 0e3e 9812 2cbe bee7 fdbb
000000f0: b4fd 2b3d 67b2 a23d 17bf f1be 74d2 41bc
00000100: 0ee4 0e3d 6c49 e43d 7c67 90be 3d84 033e
00000110: 0617 06bf 4647 cebd 5ffe dbbe ec50 edbe
00000120: a16f 603f f8a6 1e3f 7440 04be 1bc7 843e
00000130: f1e8 92be da6e fabe a06e 9bbe b9d6 06be
00000140: 24a1 143f 24b7 0fbe fae0 a73e 14e4 2dbe
00000150: 83ed 81bd 0af1 823d 0d96 c03d 76ba b6bc
00000160: 501e a3bd 1427 423e 9468 753d b26d bebe
00000170: 2fe4 94be 0e5c 183f 8ed1 e63d ac3a d7be
00000180: a911 cf3e 7443 af3e 5df6 82bc d6da bc3d
00000190: a017 ab3e 3c70 cf3e db28 f53d e160 81bc
000001a0: 9065 f63d 9104 063e cc89 8cbc 6fdb 1f3f
000001b0: 040b 5ebe c7df f8bd 3af3 7d3c c303 a5be
000001c0: 888c 413f c143 013f 0df3 a0be 4e7c 163f
000001d0: a69e 86be da09 e3be e571 973d 0ed4 2e3e
000001e0: 8c81 073f 83ea 043f 6574 2f3d 9d18 92be
000001f0: 1df9 37be 1c1c 22be 3789 bebc 5d39 f4be
00000200: 21e0 a5be 3e29 383d c2e1 b8be 1b46 443e
00000210: 766d 153f 7393 863d 3a1e 2a3e 0292 c43e
00000220: 673e 2bbe f9ea 0abf cc0a c9bd 4b07 06bf
00000230: 2095 2b3f a65f 4d3e 73eb 643e 92a1 47be
00000240: 1e42 d23e 7e21 1d3f 1817 aabe 6c88 f2bd
00000250: e1fb 1bbf c46b dfbe 05be a5be e78d 43bd
00000260: cc16 88be e652 14be 1f6e ab3d ce2c 0cbf
00000270: 376b 803e 5d05 c03d 266a 593e 1355 82be
00000280: 88c3 e1bd f89b 883e d8ac 20be 35dd 1f3e
00000290: 29a6 02be fc2f 4dbe d7cd 70bd 9dfa e43c
000002a0: 05a0 2e3f f05b 1b3f d9e3 dd3e 33b8 87be
000002b0: c150 e3be 70df 9dbe f748 a0be 6425 7d3e
000002c0: b1aa e73e 508a 123e c4c7 e2be 6329 c63e
000002d0: 3ecf 2f3c 7e7a c0be feda 16bf 9c35 0dbf
000002e0: ffc1 223d 99f7 ec3d ce29 35bd 7c29 41be
000002f0: bd54 de3c 9f38 7fbd a177 7ebe 3e12 30be
00000300: f39e e73d da00 0c3c fd7d 3d3d 17b6 253e
00000310: 2c08 22bf a55b 04be 45b3 26bd 65f1 ad3d
00000320: 8aca c83e da5c 253f be29 bebe 46b4 afbe
00000330: e376 52be 98fb 20bf 85f7 eebe e69a 35be
00000340: 3687 b4be 2265 2ebf d97b 1abf 7f36 a2be
00000350: 1e98 353f dd4a d2bd 45e9 5e3e 050f d83e
00000360: 5398 5abe 3999 833a 4b13 12bf 7175 dabc
00000370: 3374 6b3d f398 fcbe 919b 09bf bf01 adbd
00000380: 6dfc 833e 2a0c 953d 5d93 df3d 2620 ed3e
00000390: d3b2 153d 6eee 593d 0195 4c3e fca1 ccbd
000003a0: f3a3 3bbd b469 ca3e fd48 aabe 49ef 13be
000003b0: d277 9bbd f9a1 0c3d f032 d9bd a0d0 04be
000003c0: b856 cdbd 4694 f1be e567 a53e 87fe 7bbf
000003d0: b060 fc3d 652a 093e 8f04 b73e da89 143f
000003e0: d30c 2fbd fbeb cd3c deef a9be 3e4e a73d
000003f0: 74ed abbe 5afe b7be 3a63 2f3e deb4 d6be
0.5384801 -0.2048372 -0.144114 0.32933512 -0.19203183 -0.37455922 -0.12600625 -0.44543305
0.6780786 0.5824846 -0.3512825 0.13534854 -0.35103613 -0.22217996 -0.6556386 0.032376956
-0.99238855 -0.6896362 -0.8713569 -0.3782182 0.33295837 -0.7773345 -0.34268126 0.524034
0.18440615 -0.15581475 -1.0357172 0.09044208 -0.35782734 -0.62846893 -0.39222345 0.01805671
-0.2787738 0.26469737 -0.020977128 0.15883242 -0.0712195 0.34977233 -0.12487582 -0.00718961
-0.3638405 0.42506245 -0.4633553 -0.08899893 0.122324824 0.12129033 -0.49438924 -0.5686443
-0.3690687 -0.28527337 -0.30918097 -0.51507974 0.528425 0.20918839 -0.1899519 0.41631687
0.26514736 0.13929515 -0.16803968 -0.007748573 0.041989997 0.07944184 -0.47216102 -0.011829961
0.03488546 0.111468166 -0.28203952 0.12843414 -0.5237888 -0.10072188 -0.42967507 -0.463508
0.8767033 0.61973524 -0.12915212 0.25933155 -0.28693345 -0.48912698 -0.30357838 -0.13167848
0.5805838 -0.14034706 0.3278883 -0.16981536 -0.0634413 0.06393631 0.0940362 -0.022305708
-0.07964766 0.1896022 0.059914187 -0.37193066 -0.2908034 0.59515464 0.11270438 -0.4203695
0.4044316 0.3423115 -0.015986616 0.09221427 0.33416462 0.40515316 0.11970683 -0.015793266
0.1203109 0.1308768 -0.01715555 0.62444204 -0.2168389 -0.12152057 0.015499884 -0.32229432
0.7560506 0.5049401 -0.31435433 0.58783424 -0.26292914 -0.44343454 0.073947705 0.1707308
0.5293205 0.51920336 0.04283561 -0.28534403 -0.17966123 -0.15831035 -0.023258789 -0.47700015
-0.3239756 0.044961207 -0.3610974 0.19167368 0.5837015 0.065710925 0.16613093 0.38392645
-0.16723023 -0.5426479 -0.098165125 -0.5235488 0.6702442 0.20056018 0.22355442 -0.19495228
0.41066068 0.6137923 -0.33220744 -0.11842427 -0.6093121 -0.43636906 -0.32371536 -0.04774275
-0.26579893 -0.14484748 0.08370613 -0.54755867 0.25081798 0.09376023 0.21231899 -0.2545553
-0.11023623 0.26681495 -0.15690935 0.15611728 -0.12758698 -0.20037836 -0.058790054 0.027951533
0.6821292 0.6068716 0.43337896 -0.2650772 -0.44397548 -0.30834532 -0.31305668 0.24721295
0.45247415 0.14310575 -0.44293034 0.3870345 0.010730563 -0.37593454 -0.58927906 -0.55159926
0.03973579 0.11570663 -0.04422932 -0.18863481 0.027140016 -0.062309857 -0.24850322 -0.17194459
0.11309614 0.008545125 0.04626273 0.16182743 -0.6329372 -0.12925585 -0.04069831 0.08493308
0.39217025 0.64594805 -0.37141222 -0.34317225 -0.20553164 -0.628839 -0.46673217 -0.1773487
-0.35259408 -0.68123066 -0.60345227 -0.31682202 0.7093524 -0.10268185 0.21768673 0.4219896
-0.2134717 0.0010040171 -0.5706069 -0.026667329 0.057483863 -0.4933544 -0.53753 -0.08447599
0.25778523 0.07277711 0.10916779 0.4631359 0.036547493 0.0532059 0.19978715 -0.099918336
-0.04581065 0.3953377 -0.3325881 -0.14446749 -0.07591213 0.034334157 -0.10605419 -0.12970209
-0.10026306 -0.47183436 0.32305828 -0.9843525 0.12323129 0.13395078 0.35745665 0.58022845
-0.04273684 0.025136938 -0.33190817 0.081692204 -0.335796 -0.35936242 0.17127696 -0.41934866

lstm.bias_ih_l0 f4 [32]
00000000: ad26 f2be c006 913e eeb0 823f ab78 c5bd
00000010: 6a1d 163e 1e03 503e a406 6a3e ea40 c5be
00000020: c979 acbe 8914 6fbe bbc0 dbbc 65fc 2ebf
00000030: ef93 06be 0619 35bf 5e0c f7be 749e 7fb8
00000040: 6586 3c3e 5ecd 56bd 06f2 503d 5ab0 45be
00000050: 4e57 03bd 619a 363e d0b4 b63d 3c05 d2bd
00000060: 6373 3cbf 781c 9dbe f2f8 8f3f 68ad 4a3e
00000070: 275f f93d 5d3f 323e 3553 403f cb3c 09bf
-0.47295132 0.28325462 1.0210245 -0.09642156 0.14659658 0.20313689 0.22854096 -0.38526088
-0.33686665 -0.23347677 -0.0268253 -0.68353873 -0.1314237 -0.7074131 -0.48251623 -6.094431e-05
0.18410642 -0.052441947 0.05101206 -0.19305554 -0.032065682 0.17832328 0.08921206 -0.10254905
-0.73613566 -0.30685782 1.1247847 0.19792712 0.12176352 0.17406984 0.75126964 -0.5360839

lstm.bias_hh_l0 f4 [32]
00000000: 25ec b9be dd69 2d3e c9b0 1d3f 2d28 103d
00000010: 5a25 4a3d b50a b3be 765c 143f 9571 04bf
00000020: 0396 3abf 276c 81be 869d 8dbe ad62 13bf
00000030: 3731 5e3d 0a5c 49bf 670b f3be c9cc bebe
00000040: 627b 67be 5bbd 683d b86e a6bd 3c8e 823e
00000050: cd1d b7bb 93d8 3abe de81 10be cda8 8b3d
00000060: dbf2 c9be c56f 333d f876 f03e 56e2 763d
00000070: 39c0 b93d 0810 06be 7f56 a03e f0df cabe
-0.36312976 0.16934915 0.6159788 0.035194565 0.049352027 -0.34969106 0.57953584 -0.5173581
-0.7288515 -0.25277826 -0.27659243 -0.5757244 0.054246154 -0.78656065 -0.47469637 -0.37265614
-0.2260566 0.05682121 -0.08126587 0.2549914 -0.0055882693 -0.18246679 -0.1411204 0.068193056
-0.39443097 0.043807764 0.46965766 0.060274445 0.09069867 -0.13092053 0.3131599 -0.39623976

dense1.weight f4 [256, 192]
00000000: 094f 4dbc dbe7 30bd 78b9 f43c 40cb 233b
00000010: 25c8 c2bd a027 13bc 5db8 2fbd 42de 4ebd
00000020: cfee b03d 7220 17bd 1d9a 82bd 0078 81bd
00000030: 2117 d2bd b47d 9ebc e54c 0abd de51 16be
00000040: e1b5 1abd fb0b fb3c 9b02 9eba efef 6fbd
00000050: 2944 383c 1a17 dfbc b44f 02be 89cb f0bd
00000060: 7640 d4ba ab03 d53a 1e2b a93d d1c3 6b3d
00000070: 042e dcbc 37e8 5c3d 58a9 033d 679c b1bd
00000080: c67c 81bc 3d0c 1d3d 2786 cebc 1067 363c
00000090: 78c2 76bd 472d ffba 4af5 88bd 0657 bcbd
000000a0: 7849 833d 3ca6 ea3c d4e9 74bd 3674 b53d
000000b0: 4e73 a6bc f1e6 473d 96ea 58bd 730c aabc
000000c0: 15d2 a03c 0a25 403d e426 853d 9b3c 213d
000000d0: c124 cebd 9573 b83c f2e6 73bb 8091 06be
000000e0: 0ce6 783d fbd2 3f3c bb81 d0bb 6721 a53c
000000f0: b4ee a4bd f002 723d a4df dfbd 2f11 58bd
00000100: 2d51 283d 9b51 28bd 627e 573d afbd 2cbd
00000110: 4266 94bb 0941 4c3d dcf2 90bc 854c a2bd
00000120: 9fb5 983d 01a5 a23c 0e88 cb3d 6e10 9b3d
00000130: af6f 97bd 0b07 b73c 1579 7c3d 8f20 56bd
00000140: b56b c43d ac58 e539 43e7 953d 3837 e53c
00000150: 1525 91bd c25a 88bc ee96 5dbd 6a54 a9bd
00000160: dfc5 f8bc f1a5 84bd 7089 383d c850 853d
00000170: 5f9f 8f3c e1a7 b13d a990 41bb 256e bcbc
00000180: 289e 3ebd 6a3b adbd 496e ae3d d590 a1bc
00000190: 4666 b1bd 926c c53d 2c77 9d3b 2fbf 5dbd
000001a0: c56d 523d 8de0 293b 4ead 21bd f618 3f39
000001b0: 88eb 523c d958 fabb 920a 3ebd 8365 1abe
000001c0: e44e 6c3d fd93 f03c fabd 823d 50a0 5a3c
000001d0: 66c3 ddbd 514b d83b a2fb 2f3c b8d5 acbc
000001e0: 6ac0 953d f262 88bd 8a6d 86bd 7c4d a83b
000001f0: a493 003d b9f2 503b 0bc7 09be aa63 e1bd
00000200: 7345 dcbb 101a e4bc d52c 4bbc fc0a bbbd
00000210: c797 703d 04c5 e8bc ee8a afbd efa2 63bd
00000220: f46d c13d 14d0 19bd 99ac 11bd 1ebe 3c3c
00000230: 0e0d 81bd 46fd 8abc 6e22 b1bd a408 03be
00000240: 3116 123d e71a 4c3d fe31 b8bd 9b8b d33d
00000250: 3d4f 29bd a9c8 26bd f7aa 0cbe 9487 9abd
00000260: 5c17 81bc 5bad 8f3d 5da7 c0bd 7b66 e13d
00000270: fb80 a23c 6496 453d 9ad9 15be e259 b4bd
00000280: 3fb1 173d 26c9 d43d 51d6 febd 06bb fe3d
00000290: f60a f6bc 4a2f 843d f0bf 27bd 78f1 68bd
000002a0: 7595 98bc 99ba f33c d0a3 2d3d 51f0 c43d
000002b0: b04b 6bbd 0afb d53d 4750 9dbd 9ff9 88bd
000002c0: d93c c0bc 71c4 d33b b9c0 61be 0ffe e53d
000002d0: 0022 95bb ae8a 3a3d e3f6 09be 0f9c 67bd
000002e0: 3485 c8bc 9862 24be 2c33 713e 465e d33c
000002f0: 8ffb 523d 8a51 853d cb0f 9a3e 6d16 0cbd
00000300: c093 103e 2e10 353b 6306 60bd 681c 40bc
00000310: 5ca3 6cbd ad82 003d bb94 67bd 0e51 d8bc
00000320: 9f48 0f3e f55c 47bd addd d5bc 39a7 18bd
00000330: 0f6b 983c 347b 8dbc 9c33 7d3c da88 76bc
00000340: 48ec 27bc 401c af3c 3a6d 39bc 1e5d c93c
00000350: 5a53 04bd 46eb ba3d 257e 853d 77b5 48bd
00000360: 550f c33c 0820 2dbd 5f65 bdbc 7cf7 d9bb
00000370: ad85 f2bc da88 0ebd 4dcd fabc c56b 2ebd
00000380: e64e a9bc a3c6 513d e928 f43c 4741 5b3d
00000390: ccc8 c93c 58ee 8c3d 3ef1 99bd d7c6 83bc
000003a0: 6745 c03d d4b1 f3bc 1ce9 483d 5c0e 973d
000003b0: f9fe 90bd dcfb 8e3c e4c4 54bd a47e babd
000003c0: e8dd ad3d ef50 843c 737b 8d3d 3370 5a3d
000003d0: 3e0a 13bd 6e97 86bb 6a59 8c3c d3cb a5bd
000003e0: b494 c2bb 3152 593c b621 2cbd c2cc bb3d
000003f0: 024f a3bd 661a 3f3d 1e3b 2abc 373e c8bd
-0.0125310505 -0.043189865 0.029873595 0.0024992973 -0.09510831 -0.008981615 -0.042900432 -0.05050493
0.08639299 -0.036896177 -0.06377051 -0.06321716 -0.10258318 -0.01934705 -0.03376474 -0.14679667
-0.03777111 0.030645361 -0.001205522 -0.058578428 0.011246719 -0.027232695 -0.12725717 -0.11757571
-0.0016193527 0.0016251703 0.08260177 0.057559792 -0.02687741 0.053932395 0.03214392 -0.086724095
-0.015806567 0.03834175 -0.025210453 0.01113297 -0.060244054 -0.001946845 -0.0668741 -0.09196286
0.064104974 0.02864372 -0.05979331 0.08860056 -0.020318653 0.048804227 -0.052958094 -0.02075789
0.019631425 0.046910323 0.065015584 0.03936444 -0.10065604 0.022516051 -0.0037216512 -0.13141441
0.060766265 0.0117080165 -0.0063631213 0.020157529 -0.080533415 0.059084833 -0.10931328 -0.052750763
0.04109304 -0.04109345 0.052610762 -0.042173084 -0.0045287916 0.04986671 -0.01769393 -0.07924751
0.074565165 0.01985407 0.0993806 0.07571493 -0.07394349 0.022342226 0.06163891 -0.052277144
0.09590856 0.0004374435 0.073195 0.027980432 -0.07087151 -0.01664484 -0.054099016 -0.08268054
-0.03036779 -0.06476963 0.045052946 0.065095484 0.017532049 0.086745985 -0.0029535687 -0.02300174
-0.04653755 -0.08458598 0.08517129 -0.019722382 -0.08662085 0.09639849 0.004805466 -0.054137405
0.051374216 0.0025921196 -0.039471917 0.00018224478 0.012873538 -0.007639986 -0.0463968 -0.15077786
0.057692423 0.029367441 0.063838914 0.013343886 -0.10828285 0.0066007753 0.010741146 -0.021098003
0.07312091 -0.06659497 -0.06563862 0.00513619 0.0313908 0.0031882955 -0.13454835 -0.110053375
-0.006722146 -0.027844459 -0.0124008255 -0.091329545 0.058738496 -0.028414257 -0.085714206 -0.055575307
0.094448 -0.037551954 -0.035564993 0.011519937 -0.06301318 -0.016966473 -0.08649145 -0.12796265
0.035665695 0.049830344 -0.0899391 0.10329362 -0.041335333 -0.04071871 -0.13737093 -0.07545391
-0.015758209 0.07015487 -0.09406922 0.11005875 0.019836893 0.048239127 -0.1463379 -0.08806206
0.03703427 0.103899285 -0.12443221 0.12438016 -0.030034523 0.06454332 -0.04095453 -0.056870908
-0.018625954 0.029752063 0.042392552 0.09616149 -0.057445228 0.104482725 -0.07681327 -0.066882364
-0.023466514 0.0064626266 -0.22046174 0.112300985 -0.0045511723 0.04554241 -0.13473086 -0.056545313
-0.024477579 -0.16053236 0.23554677 0.025801789 0.051509436 0.06509693 0.30090174 -0.034201074
0.14118862 0.0027628052 -0.05469359 -0.011725523 -0.05777298 0.031374622 -0.056538325 -0.026405837
0.13992546 -0.048672635 -0.02610668 -0.03726885 0.018605737 -0.017270662 0.015454199 -0.015047276
-0.010249205 0.021375775 -0.011317546 0.024580535 -0.032306053 0.09126906 0.06518201 -0.049001183
0.023811022 -0.042266876 -0.023119627 -0.006651817 -0.029604757 -0.03479848 -0.030615473 -0.042583246
-0.020667505 0.051214825 0.029804664 0.05352905 0.02463188 0.06881398 -0.075167164 -0.016086025
0.093882374 -0.029747881 0.049050435 0.07375786 -0.07079882 0.01745408 -0.051945582 -0.09106186
0.08489591 0.016151873 0.06908312 0.053329658 -0.03589844 -0.0041074073 0.01713248 -0.08095517
-0.005938137 0.013264225 -0.042024337 0.09169914 -0.07974054 0.046656035 -0.010390071 -0.097774915

dense1.bias f4 [256]
00000000: f09e d7bd 5690 53bd 5abc b5bd e746 84bd
00000010: a46c 5a3c 278c 503c f2ce e9bd 194b 8ebd
00000020: 1807 b0bd 9763 69bd 740b 0fbe bf90 b8bd
00000030: 5e83 5a3d 7c8a b5bd 5416 953c c9b5 9cbd
00000040: 0fe9 163d 4d47 89bd d420 3abd 03e7 f13c
00000050: 68d5 72bd 181f 8bbd d5be 69bd 1db3 7bbd
00000060: 9c16 82bd 5a4e 9ebd 652f cabd 54b0 bdbd
00000070: 12d9 92bd 658a c3bd ceef 87bd 155a 27be
00000080: b115 30bd d122 e53c 1418 b0bd b6b7 e8bd
00000090: 462c 79bd a69b 7abd f8fc 4bbd 898b 07bd
000000a0: 65f6 63bd 3784 f0bd 6d5b 11bd cda2 a1bd
000000b0: a973 88bd f48d a6bd adb9 b8bd f78e c6bd
000000c0: cf26 7abd 55a6 42bd 8354 1dbe 600b c0bd
000000d0: 289e 313d ece4 aebd 5645 27bd 6c82 5bbd
000000e0: 2ed6 8ebc cb97 8abd 98fb 66bd 3500 ef3c
000000f0: 14ab a2bd 19eb 88bd 8772 06bd 5e8c e0bd
00000100: dd00 79bd 207b b3bd 4933 c4bd 12c8 bbbd
00000110: 797c 17be 6416 80bd 9b03 9ebd b293 bf3c
00000120: 0110 a7bd b195 7cbd 0fe3 e3bc 0989 37bd
00000130: ec71 a1bd 39fc 86bd 76fe a4bd ec67 b7bd
00000140: 31e4 02bd 515a afbd 89cf e8bd 176c b7bd
00000150: d3cd a0bd ffec 1dbd 64ef bdbd a4a3 31bd
00000160: ee6c 9cbd 2a5c a4bd b4bc 84bd 1ce8 37bd
00000170: 9ba4 a8bd c0ab f4bd a522 afbd ee03 babd
00000180: 9ef5 843c e9b1 bebd 4f50 413d 397e 3dbd
00000190: a9a8 36bd 448d e4bd 2479 adbd aa94 9e3c
000001a0: 7564 87bd 10c5 42bd 94b3 453c 7b99 97bd
000001b0: 90a7 99bd 95dd 0dbe 0bc2 043c 8cc7 023d
000001c0: 0cc6 f8bd a3d9 95bd a97b 8ebd f81b 4abd
000001d0: a36b 66bd 543c d3bd 38f1 a4bd f0fb 90bd
000001e0: 9132 4abd 16ff bfbd c5a4 ddbc e3ce b4bd
000001f0: 2364 a8bd 7caf 81bd 0d92 ddbd ceec 3bbd
00000200: 30f0 98bd 87bf bebd 5b08 16be deac 86bd
00000210: c4fb 5dbd 7389 27bd a223 adbd 3b66 bdbd
00000220: 0e58 8bbd 1932 e2bd a921 e5bd e6d1 7abd
00000230: 0286 37bd b888 88bd acca 93bd 2ff2 f7bd
00000240: da7c 5fbd 5ea6 a3bd 9b3b 4abd c4da 5ebd
00000250: 8720 9cbd 530c 85bd 7105 07bd 96e2 acbd
00000260: 32a5 bbbd 1517 833d 3644 fa3c 2105 04bd
00000270: d05e eebd 8df9 b6bd 2bb4 0ebe 31aa 96bd
00000280: 3485 5abc 8e6e 03bd 17d2 b0bd 3db5 fabc
00000290: 0797 9bbd 312b c23c 3a0f 66bd ac5f 8fbd
000002a0: b9fb 9abd a85d e1bd f87b 5dbd 8a2d ecbd
000002b0: 1ede c5bd 4951 c7bd 10af c2bd fb6b 12be
000002c0: f642 ffbd 4ab4 87bd c85d a3bd 3fbf 90bd
000002d0: 8087 69bd 4faa 9cbd d55d 46bd a8b3 45bd
000002e0: d2da 413d ef0c 89bd 23e9 1dbd ca9b edbc
000002f0: e9c3 12bd 4af4 e6bc 0489 cbbd 14e4 a3bd
00000300: 03dd 31be b9fa f4bc ee83 8ebd a687 0b3d
00000310: 3302 c2bd a150 84bd aa8f 9cbd f63e 97bd
00000320: 1149 0abd 1aaa abbd de08 d2bd 44b3 7fbd
00000330: df73 08be 9959 30bd 048e 823c 0db3 ce3c
00000340: 13dd 423d 2782 cfbd 21da 3fbd 03ea 173d
00000350: b8d7 8ebd 2f9d 83bd 5bb8 81bd 75bb 82bd
00000360: dce6 a3bd 9560 91bd 6d4b e63b 5896 4bbd
00000370: e594 11be b31d 70bd 644a 44bd 3a6d 37bd
00000380: 60ed 7ebd 4b4e 99bd 35c8 5cbd a9b8 8ebd
00000390: 3da5 80bd 604d 2dbd c034 9fbd 2c27 5dbd
000003a0: 862a 523d ef98 70bd f5d3 90bd 508d 5cbd
000003b0: 2f26 8dbd f615 a0bd 816f b33c 29ac 51bd
000003c0: 966a e1bd 7a48 a4bd cf19 77bd f47c 8c3d
000003d0: 39a8 03be 36cb acbd 8ff5 00be 2d47 c4bd
000003e0: 3d7b 8bbd bc7c 8ebd acf3 01bd 5ed4 33bd
000003f0: d0af 8fbd 71ad 7fbd dd09 a4bd f02e 96bd
-0.10528362 -0.05165132 -0.08873816 -0.06458836 0.013331566 0.012728727 -0.11416425 -0.069479175
-0.08595103 -0.056979742 -0.13969213 -0.09011983 0.053347938 -0.088643044 0.018199123 -0.0765186
0.036843356 -0.06703053 -0.045441464 0.0295291 -0.05928555 -0.0679304 -0.057066757 -0.061450113
-0.06351969 -0.07729788 -0.09872321 -0.092621475 -0.07170309 -0.09547881 -0.06637536 -0.16342957
-0.042989437 0.027970703 -0.085983425 -0.11363165 -0.060833238 -0.061183594 -0.049801797 -0.033092055
-0.055654902 -0.11743968 -0.03548758 -0.0789238 -0.066626854 -0.08132544 -0.0901979 -0.09695237
-0.061072167 -0.047521908 -0.1536427 -0.093771696 0.04336372 -0.08539757 -0.04083761 -0.053591177
-0.017436113 -0.067672335 -0.056392282 0.029174903 -0.07942787 -0.06685466 -0.032824066 -0.10964273
-0.06079184 -0.087637186 -0.09580094 -0.0916902 -0.14793576 -0.06254271 -0.077155314 0.023385856
-0.081573494 -0.061666194 -0.02781823 -0.04480842 -0.07883057 -0.065910764 -0.08056347 -0.089553684
-0.0319559 -0.08562148 -0.11367709 -0.089561634 -0.07851758 -0.038556095 -0.09274176 -0.04336895
-0.07637964 -0.080253914 -0.06481305 -0.04489909 -0.08234521 -0.11946821 -0.0855153 -0.09082781
0.0162304 -0.093112774 0.04719573 -0.046262953 -0.04459444 -0.11159757 -0.08470371 0.019357998
-0.066109575 -0.047551215 0.012066741 -0.07402321 -0.07502663 -0.13854058 0.008102904 0.031928584
-0.121471494 -0.073169015 -0.0695718 -0.04934308 -0.056254994 -0.10314241 -0.08053821 -0.07079303
-0.04936463 -0.09374826 -0.027056107 -0.08828523 -0.082222246 -0.06332299 -0.108188726 -0.04588013
-0.07467687 -0.09313875 -0.14651625 -0.065759405 -0.05419518 -0.040902566 -0.08454062 -0.092480145
-0.068039045 -0.110447116 -0.11188061 -0.06123533 -0.044805534 -0.06666702 -0.07216391 -0.1210674
-0.054562427 -0.079907164 -0.04937325 -0.05440785 -0.076233916 -0.06496491 -0.032964174 -0.08441655
-0.09162368 0.06400887 0.030550104 -0.032231454 -0.11639178 -0.08934317 -0.13935916 -0.0735668
-0.013337422 -0.032087855 -0.086338215 -0.030604 -0.075971656 0.023702236 -0.056166865 -0.0700067
-0.075675435 -0.11004192 -0.054073304 -0.115321234 -0.09661506 -0.09732301 -0.09506047 -0.14299004
-0.12463944 -0.06626184 -0.07976872 -0.07067727 -0.05701399 -0.07649671 -0.04842933 -0.048267037
0.047327824 -0.0669192 -0.038552415 -0.02900495 -0.035831366 -0.028192658 -0.09938243 -0.08002487
-0.17369466 -0.02990471 -0.06958757 0.03406491 -0.09473076 -0.06460691 -0.07644589 -0.07385056
-0.033761088 -0.08382054 -0.102555975 -0.06242682 -0.13325451 -0.043054197 0.015936859 0.025231862
0.047574114 -0.101322465 -0.046838883 0.037088405 -0.06974739 -0.06426465 -0.06333991 -0.06383411
-0.08003017 -0.070985 0.0070280344 -0.049703926 -0.14216955 -0.058622073 -0.047922507 -0.0447819
-0.062238097 -0.07485636 -0.05390187 -0.06968815 -0.06281517 -0.04231012 -0.07773733 -0.053992435
0.051310085 -0.0587396 -0.070716776 -0.053845704 -0.068920486 -0.07816689 0.021903755 -0.051189575
-0.11006658 -0.08021636 -0.060327347 0.068597704 -0.1285714 -0.08437197 -0.12593673 -0.09583888
-0.06810615 -0.06957385 -0.031726524 -0.0439037 -0.070159554 -0.062421266 -0.08009694 -0.07333171

dense2.weight f4 [1, 256]
00000000: 8d8f 62ba befc e8bb f047 26be c155 cc3c
00000010: b1fc 9e3d 8cf0 e03b 93a2 0abe db3d 893b
00000020: 4947 df3b 8f3a a6ba bb70 99be 5d50 df3a
00000030: 40b2 e73d 037d f0bc 1b17 2a3d 67f2 7f3e
00000040: add8 9e3d 1ead 85bc 4c5d 71be 0e71 c53d
00000050: 2be8 83bc 1eb7 8a3c a323 3e3c 1ff3 2ebd
00000060: 65ee 2cbd 41c1 bf3c c75d 943c 1cc2 0a3d
00000070: 223e 8cbc 4f8f 163b c644 2dbb 093d 6cbd
00000080: 30b5 8a3c 8fc3 143e 0908 233c 7666 f6bb
00000090: 76c8 26bc c757 88bc 4d6f 2f3e d20e 6f3b
000000a0: cadc d0bc dc29 16bd b227 623d 81a7 7e3c
000000b0: 880f b73c 35da c83c 5882 183d e050 82bc
000000c0: 72de 1f3d 44db 76ba 97f6 29be b1c2 223b
000000d0: 9509 39bc 1731 a13c 34db 803c 0316 c5bc
000000e0: 006f bebd f274 1abc 2ad5 d236 b746 4c3d
000000f0: d973 243c 18d6 68bb ffdf 10bc 8743 e73a
00000100: f6f7 f2bc 7b14 babb 44ec b53a c7c7 dcbb
00000110: 6713 83be 7d6b c7bc e9a5 55bd da4f 143d
00000120: 0954 9dbc 4d37 aeba e632 2bbd f1d0 e53c
00000130: 31af 9eba 5ed7 58bc 9109 39bd aa77 a0bc
00000140: 1822 983c e586 cf3c 8b48 3439 be96 b73c
00000150: c554 87bb 5ea0 013c 5844 a0bc 722a 7e3c
00000160: 51e7 c9bc 2910 2c3c 0dca 15be 0855 fdbc
00000170: 5ddb 19bc a624 3abe edc8 1f3c 1e20 7fbc
00000180: e2c0 863d 8f9f c6ba 3fc5 9ebc 2210 90bb
00000190: 20cf 61bb 9c75 11bd db78 f6bd cd8d 153d
000001a0: 80df c73c cd77 c03d ab81 f2ba 4378 813b
000001b0: c0dd 1fbb b24e 23b9 6716 4e3c c25d 593d
000001c0: 5607 063e 73e0 cc3c 7b4e 573c 3c75 04bc
000001d0: 5ac6 06bb a581 cdbd 87ce 513b 67a0 3b3c
000001e0: 7764 39ba dc0a bdbd b04b 46bd 04e0 acbb
000001f0: b2be 563b 32f5 7a3c f1e8 6abd 650d 87bb
00000200: 62ca 363c b994 9e3c 5b0d 3fbd 3433 9d3b
00000210: f9ba 53bd c810 36bc 6091 8cbc d187 193c
00000220: 08a9 5bbc 485c 043b 2543 cabc bf7a c23b
00000230: 0284 88bc d11c bebb 1230 4b3e 482b 80bd
00000240: 9b5f 87bb def3 3f3c b39f aa3c d0ca 03bd
00000250: 184c 9bbc e44c c7bb 0f13 093c 20c2 65ba
00000260: 9170 1ebc 95d2 3b3e 9e3e 963d cecf 423d
00000270: a0d9 acbd cdfb 223e bc1b 4fbc f43b 533c
00000280: 8d2d 9aba ac6f c2bb ccfb 85bb 2e0d de3c
00000290: 4fe0 f5bc 376a 9a3d 28ca 513e 6202 32bd
000002a0: 5a6d 943a d99a 8ebb bb9f 713a b817 57be
000002b0: b86b 6ebc 53fa d23b 1de9 203a 4cbd bcbe
000002c0: 8acd fabc 359b d2ba 8339 4ebc 8aa5 903b
000002d0: f0a1 77bc f19f 4cbc 9ce6 76bd ff01 95bc
000002e0: 179a 24bd 7a1f afbb cc34 d2ba 63e8 43bc
000002f0: 9044 34bd 9268 d93a a954 b43a 05e2 ddbb
00000300: 5f19 f0be f8e8 d6bb 2a84 1d3b e8b9 673d
00000310: 00aa 623d b2c9 833b cd6c 563d 11c1 40bb
00000320: 5b91 d83c ec9c 97ba 1f3b a1bb 4286 0fbc
00000330: 4322 6fbe 4a82 d73c c0c2 fa3c cb6a 173d
00000340: d086 753d fb08 7d3b 29d4 7c3a 4ab3 e83d
00000350: 608b 75bb fc5a ec3b ecd6 ecbc fc58 86ba
00000360: 090a 063b c11c a5bc 1faa 363c d8c0 153c
00000370: a6dc 36be c3e8 bf3b 0782 eabb 1f23 d5ba
00000380: 8681 06b7 3074 2bbb 712f 93bc a39a 713c
00000390: 16c4 0cbd a844 48bc 9a5f 18bd 50c8 bcba
000003a0: 1920 7ebc 7227 9f3c f0c0 553c 8799 60bc
000003b0: cdbd f1bb 7cb8 45b6 c08d 3b3d c61e 3fbd
000003c0: 4ebb a7be 9dcd d7bc fbb3 dcbc e9d9 103e
000003d0: b396 013c 2bad 8cbd 4642 98be 0b48 04ba
000003e0: 0416 b6b9 d7ca c83c 5598 553b 0fb6 ac3b
000003f0: 4ca8 cdbb 34b2 d93b f552 53bc 2969 4b3b
-0.00086426066 -0.0071102073 -0.1623838 0.024943234 0.07763041 0.006864613 -0.1353858 0.004188282
0.006813918 -0.0012682247 -0.2996882 0.00170375 0.11313295 -0.029356485 0.04152594 0.24994813
0.077561714 -0.0163179 -0.23570746 0.09640704 -0.016101917 0.01693302 0.011605176 -0.042712327
-0.04221954 0.02340758 0.018111123 0.033876523 -0.017119471 0.0022973602 -0.0026438697 -0.057675395
0.0169321 0.14527725 0.009950646 -0.0075195385 -0.01017963 -0.016643418 0.17132302 0.003647734
-0.025495905 -0.036661014 0.055213638 0.015542866 0.022346273 0.024518112 0.03723368 -0.015907705
0.0390305 -0.00094168284 -0.16597973 0.0024835283 -0.011293788 0.019676728 0.015729524 -0.024058348
-0.09298515 -0.009427296 6.2833033e-06 0.049872126 0.010037386 -0.0035528 -0.008842467 0.0017644026
-0.029659253 -0.005678711 0.0013879617 -0.0067376825 -0.2560074 -0.024343247 -0.052160177 0.036208965
-0.01920511 -0.0013291627 -0.041796587 0.028053733 -0.0012106654 -0.013234941 -0.04517514 -0.01958831
0.018570945 0.025332877 0.00017193162 0.022410747 -0.0041299784 0.00791177 -0.019563839 0.015513049
-0.024646433 0.0105019 -0.14627858 -0.030924335 -0.009390679 -0.18178043 0.009752494 -0.015571622
0.06579758 -0.0015153753 -0.019381164 -0.0043964544 -0.0034455732 -0.03551255 -0.1203477 0.036512185
0.024398565 0.0939785 -0.0018501779 0.003951104 -0.0024393648 -0.00015574208 0.012578583 0.05306793
0.13088736 0.02500937 0.01314127 -0.0080845915 -0.0020565004 -0.10034493 0.003201397 0.011451817
-0.00070721604 -0.09230587 -0.048412025 -0.005275728 0.0032767472 0.015317248 -0.057351056 -0.00412147
0.01115665 0.019358026 -0.046643596 0.0047973637 -0.051691983 -0.011112399 -0.017159164 0.00937076
-0.013406999 0.0020196605 -0.02469022 0.0059350426 -0.016664509 -0.005801775 0.19842556 -0.06258255
-0.00413127 0.011715857 0.020828104 -0.03217584 -0.018957183 -0.006082164 0.00836636 -0.00087645836
-0.009670393 0.1834205 0.07336162 0.04756146 -0.08439946 0.15916367 -0.01264089 0.012892712
-0.0011762843 -0.0059337225 -0.0040888544 0.027105894 -0.030014185 0.0753979 0.20487273 -0.043459304
0.0011324093 -0.0043519554 0.0009217222 -0.21005142 -0.014552049 0.0064385324 0.0006138252 -0.36863172
-0.030615587 -0.0016067984 -0.012586954 0.004414265 -0.0151142925 -0.012489305 -0.06027852 -0.018189428
-0.040186014 -0.0053443285 -0.0016037463 -0.011957261 -0.0440107 0.001658695 0.0013758141 -0.0067713284
-0.46894357 -0.0065585338 0.0024035075 0.05657378 0.055337906 0.0040218467 0.052349854 -0.0029411952
0.026436498 -0.0011567152 -0.004920378 -0.008760037 -0.23352914 0.026307244 0.030610442 0.03696708
0.05994302 0.003861009 0.00096446514 0.11362322 -0.0037467107 0.0072129946 -0.028911076 -0.0010249908
0.0020452759 -0.020155312 0.0111489585 0.009140216 -0.17857608 0.005856605 -0.0071566137 -0.0016261077
-8.017179e-06 -0.0026161782 -0.017966958 0.014746341 -0.03436669 -0.0122234 -0.037200548 -0.001440296
-0.015510582 0.019427989 0.013046488 -0.013708479 -0.0073773623 -2.9462672e-06 0.04578948 -0.046660207
-0.3276009 -0.026343161 -0.02694129 0.14145626 0.007909465 -0.06868967 -0.29738063 -0.00050461356
-0.00034730148 0.024510784 0.0032592018 0.0052707265 -0.006276166 0.006643558 -0.0128981965 0.0031038022
