model/weighs_models/LSTM-Attention_model.pth (torch, 320168 bytes, 7 tensors)

lstm.weight_ih_l0 f4 [528, 4]
-0.020706516 -0.14165246 -0.012931165 -0.34947595 -0.3242346 0.0024801153 -0.101127185 -0.594826
0.28127843 0.06339984 -0.014814007 -0.38975653 -0.8024511 0.29338357 -0.10472392 -0.82739604
0.045662772 -0.08324513 -0.28971156 -0.6884198 -0.43743518 0.20336212 0.11891934 0.15162511
0.07245228 -0.17649846 -0.37321368 -0.33789012 -0.8247639 0.3385794 -1.1913844 -0.9433761
0.65996337 0.49331552 -0.556419 -0.5934493 0.40912598 -0.38620648 0.36588544 -0.026384778
0.6753228 0.31038135 -0.17604408 -1.1867453 0.3860314 -0.19883385 -0.10713572 -0.22304603
0.5559442 -0.2063171 -0.84676105 -0.47811735 0.18027687 -0.040845573 0.3501529 -0.17145585
-0.7938841 0.6087912 -0.73948294 -0.5872013 -1.3884103 0.22042774 -0.088880055 -0.69147336
0.080407456 0.47843716 0.11910515 -0.41796142 0.0150583275 0.4193005 -0.6157312 -0.6435032
0.42615834 0.03793312 -0.0463966 -1.147292 -1.3910614 0.73041654 -1.0851688 -0.6919658
0.11636107 -0.081361614 0.16144085 -0.32405743 -0.47893822 0.42814696 0.013970648 -1.1733685
0.33080074 0.29274556 0.14502107 -0.39086562 -0.51610374 -0.203606 0.44257513 -0.72761387
-0.16632964 -0.03443906 0.12952587 -0.3171872 0.16152939 0.3348907 -0.16576056 -0.5530248
-0.16128005 -0.48721123 0.078763366 -0.036516722 0.4454756 0.07349846 0.21064937 -0.08040378
0.09632294 -0.037979208 0.037104752 -0.6163494 -1.1869836 0.7748299 -0.5724905 -0.8160348
0.10965527 0.088891484 -0.059815574 -0.35561755 0.2647847 0.18798183 0.18347651 -1.1579765
-1.1027734 0.30246693 -1.1059766 -0.63008344 -0.1607185 0.75141954 -0.07733881 -0.5905245
0.049799792 -0.21946108 0.20080358 -0.14417644 0.14247288 -0.08361996 0.3823765 -0.14310554
-0.6862522 0.12270455 -0.74789083 -0.3945167 -0.059332985 -0.06312251 -0.2077991 -0.5211963
-0.84431887 0.8059847 -0.26276475 -1.0122727 -0.6947119 0.6658497 -1.5945077 -0.8762194
-0.371037 -0.6771088 0.58279127 -0.47400913 -0.0007773286 0.034641 -0.112349935 -0.51142836
0.22628815 0.4854275 -0.17955586 -0.80761874 0.25240144 0.07124166 0.14100932 -0.7400353
0.14329083 -0.044934843 0.06991332 -0.72929835 -0.6049594 0.24490757 -0.37553105 -0.33362487
0.20266135 0.19421647 0.32803673 0.045344476 -0.1784144 -0.018540246 0.3047477 -0.20831822
0.16737983 -0.68734944 0.96473724 -0.18708816 -0.10905189 0.57352775 0.056535702 -0.9212607
0.32775295 -0.14292687 0.46221814 -0.16801608 0.3511308 -0.012731555 -0.7547982 -0.6226889
-0.5783289 0.19556795 -1.3516858 -0.6963315 -0.83286166 0.72103083 -1.0720665 -0.80071366
0.15878476 0.17772008 0.17764607 -0.37676212 0.12871532 0.042079713 0.5268953 -0.20400578
-0.29589868 0.35737544 -1.2215025 -0.9906126 -0.05449629 0.09131651 0.30955428 -0.99105954
0.3863419 0.4251831 -0.13899508 -0.90087366 -0.09344178 0.7027113 0.65370315 -0.42699218
-0.12174338 0.5060753 -0.2773431 -0.26939812 -0.074304365 -0.3360564 -0.15007414 -0.22966754
0.73557967 0.22084062 0.14984046 -0.9383076 0.6457783 -0.00013785716 -0.32604322 -0.25527483
00000000: b6a0 a9bc 580d 11be 3ddd 53bc 83ee b2be
00000010: 1402 a6be 6e89 223b c51b cfbd 8446 18bf
00000020: ba03 903e c6d7 813d 73b6 72bc 2b8e c7be
00000030: 6f6d 4dbf 5f36 963e 7f79 d6bd 3ad0 53bf
00000040: e308 3b3d 6c7c aabd 1355 94be 483c 30bf
00000050: 81f7 dfbe 293e 503e fc8b f33d 9d43 1b3e
00000060: dc61 943d 03bc 34be dd15 bfbe efff acbe
00000070: ba23 53bf 475a ad3e 497f 98bf 1981 71bf
00000080: 5cf3 283f da93 fc3e 7a71 0ebf 4bec 17bf
00000090: f678 d13e dbbc c5be 5655 bb3e e424 d8bc
000000a0: f4e1 2c3f 4eea 9e3e e644 34be 45e7 97bf
000000b0: e8a5 c53e 1a9b 4bbe f969 dbbd 2e66 64be
000000c0: 5c52 0e3f ca44 53be 55c5 58bf cccb f4be
000000d0: 809a 383e b04d 27bd 3e47 b33e 1f92 2fbe
000000e0: fd3b 4bbf bdd9 1b3f c14e 3dbf d352 16bf
000000f0: 6eb7 b1bf cfb7 613e bf06 b6bd 6604 31bf
00000100: aaac a43d b7f5 f43e 67ed f33d 0aff d5be
00000110: 34b7 763c 8eae d63e 8fa0 1dbf a0bc 24bf
00000120: 6d31 da3e c25f 1b3d 5c0a 3ebd 77da 92bf
00000130: 4d0e b2bf 94fc 3a3f d0e6 8abf ac24 31bf
00000140: b64e ee3d eba0 a6bd c050 253e dbea a5be
00000150: 6437 f5be 1436 db3e 25e5 643c f030 96bf
00000160: b75e a93e bfe2 953e 6780 143e 8a1f c8be
00000170: 601f 04bf 177e 50be 3599 e23e e744 3abf
00000180: 5152 2abe f90f 0dbd 6ea2 043e 5c66 a2be
00000190: f667 253e cb76 ab3e 23bd 29be 0993 0dbf
000001a0: 9926 25be c073 f9be b04e a13d 8f92 15bd
000001b0: 6115 e43e 5c86 963d 78b4 573e bdaa a4bd
000001c0: f644 c53d 1690 1bbd 27fb 173d 13c9 1dbf
000001d0: 14ef 97bf 415b 463f bd8e 12bf a8e7 50bf
000001e0: f192 e03d bd0c b63d 2d01 75bd 8113 b6be
000001f0: dc91 873e 4f7e 403e 44e1 3b3e 9338 94bf
00000200: ae27 8dbf f2dc 9a3e a490 8dbf 264d 21bf
00000210: 6493 24be 085d 403f cf63 9ebd 9d2c 17bf
00000220: defa 4b3d 68ba 60be 749f 4d3e fda2 13be
00000230: 69e4 113e f140 abbd dac6 c33e 428a 12be
00000240: 39ae 2fbf 864c fb3d c675 3fbf 18fe c9be
00000250: 2507 73bd 6046 81bd 4ac9 54be 1f6d 05bf
00000260: 4825 58bf 0355 4e3f 1a89 86be 2792 81bf
00000270: a4d8 31bf 2075 2a3f d418 ccbf ea4f 60bf
00000280: 90f8 bdbe 0157 2dbf cf31 153f 53b1 f2be
00000290: a4c5 4bba b9e3 0d3d b917 e6bd f8ec 02bf
000002a0: 15b8 673e f489 f83e 7edd 37be 1ac0 4ebf
000002b0: c33a 813e 26e7 913d bf64 103e f472 3dbf
000002c0: d5ba 123e 990d 38bd b72e 8f3d 4cb3 3abf
000002d0: 9fde 1abf 0dc9 7a3e 9b45 c0be e1d0 aabe
000002e0: 7586 4f3e afe0 463e 6ef4 a73e 21bb 393d
000002f0: 44b2 36be b7e1 97bc e407 9c3e 5f51 55be
00000300: 9e65 2b3e 22f6 2fbf 05f9 763f 0a94 3fbe
00000310: 9956 dfbd b7d2 123f fb91 673d bed7 6bbf
00000320: 3ccf a73e 6c5b 12be dba7 ec3e 680c 2cbe
00000330: 6bc7 b33e 0398 50bc 743a 41bf 8a68 1fbf
00000340: 5d0d 14bf f742 483e 0a04 adbf c842 32bf
00000350: 6c36 55bf 7a95 383f 7a39 89bf 92fb 4cbf
00000360: 7998 223e 41fc 353e dae8 353e f7e6 c0be
00000370: f3cd 033e c75b 2c3d 9ce2 063f e4e6 50be
00000380: 0880 97be eaf9 b63e 325a 9cbf ca98 7dbf
00000390: 8037 5fbd 2704 bb3d e67d 9e3e 14b6 7dbf
000003a0: 9bce c53e 99b1 d93e ba54 0ebe a89f 66bf
000003b0: 675e bfbd e3e4 333f 1759 273f b89e dabe
000003c0: 9854 f9bd 278e 013f eaff 8dbe 8dee 89be
000003d0: e32c 98bd 960f acbe 09ad 19be f82d 6bbe
000003e0: f34e 3c3f 0b24 623e c76f 193e ed34 70bf
000003f0: ba51 253f c08d 10b9 23ef a6be 62b3 82be

lstm.weight_hh_l0 f4 [528, 132]
-0.14600083 0.30999503 0.12595235 -0.16744514 0.08535051 0.6433898 -0.2212783 -0.2626963
-0.5751902 0.50646615 0.14276958 0.067109205 0.31957895 0.86960286 -0.5496138 -1.5264646
0.44961414 0.009066531 0.14913732 0.70072937 0.07442924 -0.03767277 -0.8029154 -0.39234617
0.054343503 1.5509672 0.032211103 0.14869861 0.6264005 0.7983053 0.040745147 1.1748153
-0.22908387 0.058330093 0.30790973 0.116366655 -0.22430354 1.2602377 -0.81420135 0.7118761
0.20268336 -0.5842771 -1.3810445 -0.10273346 0.4557495 -0.3703214 1.3287232 0.18888934
0.46988937 0.54656506 0.22167362 -0.7365305 -1.3524085 -0.07239639 -0.23924232 -0.33235192
-0.16556658 0.4199074 0.6877804 0.5260521 0.30629718 0.37429774 -0.2686127 0.6303406
-0.06264522 1.290507 -0.7048404 0.50985247 -0.13538365 0.33089522 0.43245915 -0.29696238
-0.08532038 0.8351266 -0.06891849 -0.06265466 -0.47174644 -0.08667487 -0.13678637 0.11489053
0.14296216 -0.58075804 -0.2327004 -0.08165321 -0.15445285 0.15511887 -0.11176745 1.9068217
-0.11289844 0.10137623 0.10505417 -0.040442947 0.47335002 0.005514367 0.14626136 0.52549964
0.36400256 -0.33377448 0.11019185 0.2081938 0.2660081 0.20823401 -0.35942063 0.10194652
0.7032103 0.119642995 0.45298702 -0.4146353 -0.56043243 -0.5623695 -0.17453635 -0.27871165
-2.1337485 -0.06345058 0.6885499 -1.6287056 0.18466203 0.070105836 -0.22455552 0.9378397
-1.0850413 0.10325288 -0.24416165 -0.8441816 -0.017468512 0.971915 0.05958141 0.47708055
0.2828291 0.224667 -0.0029325534 0.19907337 0.2827486 0.6701694 0.42661366 -0.22362569
-0.27338776 -0.16087833 -0.7718757 0.3036583 0.4575674 0.63495106 0.12497125 -0.011130414
-0.9511556 0.482269 -0.12832865 -0.17639953 -0.28407687 0.10045015 0.18836688 -0.037185892
-0.56923795 -1.2398399 0.48291677 -0.6051045 -0.433679 -0.6150652 0.7063067 -0.094889626
0.41862038 -0.7276655 0.18461384 1.0090971 0.10218595 0.34115124 0.7454017 0.11326271
-0.32676327 0.39939827 -0.4743025 0.019699749 1.3418643 -0.55455357 -0.8761187 0.44025257
-0.15915261 -0.37188706 -0.88193834 0.281883 0.7439878 0.23996434 0.6535873 -1.0953729
-0.35221118 -0.06861685 0.48539105 -0.72038245 -0.022700325 -0.02513905 -0.12728588 -0.20812029
0.42657587 0.30010584 0.23675187 -0.72486037 0.37315744 1.1974878 -0.88090014 -0.16446406
-0.0059259464 0.59092 0.43490055 -0.33064398 -0.34109646 1.0588994 -0.37897623 0.18906125
0.09788491 -0.19456927 0.051717438 -0.25507644 -0.5940691 -1.6566365 -0.40459475 -0.12381435
0.49653417 -0.6517799 0.31478956 1.5510027 0.67677486 -0.22237363 0.4072745 0.326267
1.2964483 0.09325777 -0.18131688 0.6033354 0.25663844 -0.319654 0.28342724 0.24513401
0.7400643 0.12151297 -0.4177696 0.39986753 -0.008130419 -0.6338661 -0.6011176 -0.09688703
0.016379658 0.3281823 -0.2663698 -0.43131217 -2.546821 0.4786259 -0.17840089 -1.8207618
-0.432485 0.039361745 0.32398987 -0.19260117 0.043161962 0.3013812 0.5168762 -1.2454759
00000000: 3e81 15be abb7 9e3e a7f9 003e bd76 2bbe
00000010: 40cc ae3d 32b5 243f c796 62be 2180 86be
00000020: aa3f 13bf c4a7 013f 3032 123e 8d70 893d
00000030: da9f a33e 4b9e 5e3f 7db3 0cbf 3163 c3bf
00000040: d333 e63e ca8b 143c 74b7 183e 0063 333f
00000050: 5b6e 983d c34e 1abd dd8b 4dbf 99e1 c8be
00000060: 4b97 5e3d 1886 c63f caef 033d 7344 183e
00000070: c85b 203f bc5d 4c3f 62e4 263d 5960 963f
00000080: f694 6abe 89eb 6e3d 58a6 9d3e a451 ee3d
00000090: d4af 65be 784f a13f 806f 50bf 833d 363f
000000a0: 3a8c 4f3e 2f93 15bf 11c6 b0bf ec65 d2bd
000000b0: 0058 e93e c49a bdbe 9a13 aa3f 356c 413e
000000c0: 5795 f03e b0eb 0b3f 69fe 623e 438d 3cbf
000000d0: b91b adbf 8f44 94bd f0fb 74be 082a aabe
000000e0: 498a 29be 1afe d63e 6012 303f 5aab 063f
000000f0: fcd2 9c3e f4a3 bf3e 9b87 89be 005e 213f
00000100: 234c 80bd 552f a53f 6c70 34bf b185 023f
00000110: 03a2 0abe 196b a93e 496b dd3e 740b 98be
00000120: 74bc aebd dbca 553f 2325 8dbd 1651 80bd
00000130: c088 f1be 9882 b1bd ba11 0cbe ba4b eb3d
00000140: ac64 123e 8fac 14bf 0349 6ebe cc39 a7bd
00000150: e328 1ebe 7bd7 1e3e 55e6 e4bd bc12 f43f
00000160: 4c37 e7bd 579e cf3d a426 d73d 81a7 25bd
00000170: ef5a f23e ddb1 b43b 8ac5 153e 2587 063f
00000180: 8b5e ba3e 7de4 aabe 44ac e13d c130 553e
00000190: 3732 883e 4c3b 553e fb05 b8be 56c9 d03d
000001a0: 9705 343f 6307 f53d eaed e73e 144b d4be
000001b0: 8078 0fbf 73f7 0fbf a8b9 32be 4bb3 8ebe
000001c0: 568f 08c0 61f2 81bd ce44 303f 6d79 d0bf
000001d0: 0b18 3d3e a693 8f3d e2f1 65be 4316 703f
000001e0: a2e2 8abf 3f76 d33d 8305 7abe 491c 58bf
000001f0: 201a 8fbc 6ccf 783f a30b 743d e743 f43e
00000200: face 903e 1b0f 663e 1530 40bb e4d9 4b3e
00000210: 6dc4 903e 3990 2b3f 1b6d da3e 22fe 64be
00000220: 7bf9 8bbe 4abd 24be a599 45bf 1a79 9b3e
00000230: 4646 ea3e 278c 223f edf0 ff3d 575c 36bc
00000240: ef7e 73bf f6eb f63e 9668 03be 14a2 34be
00000250: 8672 91be cfb8 cd3d 3fe3 403e 3c50 18bd
00000260: 94b9 11bf 13b3 9ebf de40 f73e 21e8 1abf
00000270: 2d0b debe ea74 1dbf 84d0 343f 7e55 c2bd
00000280: 6955 d63e 4948 3abf 690b 3d3e 182a 813f
00000290: de46 d13d 60ab ae3e a5d2 3e3f 48f6 e73d
000002a0: 844d a7be ee7d cc3e c7d7 f2be 5e61 a13c
000002b0: 36c2 ab3f 39f7 0dbf 5149 60bf c968 e13e
000002c0: e7f8 22be fb67 bebe b6c6 61bf f852 903e
000002d0: fc75 3e3f 36b9 753e 7f51 273f 2e35 8cbf
000002e0: 0655 b4be fe86 8cbd 2d85 f83e fc6a 38bf
000002f0: 08f6 b9bc 69f0 cdbc 3b57 02be 7c1d 55be
00000300: 2768 da3e 79a7 993e 156f 723e 7390 39bf
00000310: 7e0e bf3e 4847 993f ac82 61bf 4469 28be
00000320: 712e c2bb 8846 173f 49ab de3e 2b4a a9be
00000330: 32a4 aebe 048a 873f 2c09 c2be 4699 413e
00000340: e277 c83d 2b3d 47be aad5 533d 6199 82be
00000350: ea14 18bf aa0c d4bf 0b27 cfbe 6192 fdbd
00000360: ba39 fe3e 0cdb 26bf 192c a13e 4287 c63f
00000370: 1e41 2d3f eab5 63be 4986 d03e 780c a73e
00000380: 05f2 a53f eefd be3d 22ab 39be 3074 1a3f
00000390: 1d66 833e b0a9 a3be 601d 913e 6904 7b3e
000003a0: db74 3d3f cbdb f83d e6e5 d5be 70bb cc3e
000003b0: 7335 05bc 0c45 22bf d8e2 19bf b56c c6bd
000003c0: a22e 863c 8307 a83e 9f61 88be f3d4 dcbe
000003d0: 1eff 22c0 740e f53e b9ae 36be b90e e9bf
000003e0: ad6e ddbe c839 213d 00e2 a53e 3e39 45be
000003f0: 99ca 303d a34e 9a3e 0052 043f c16b 9fbf

lstm.bias_ih_l0 f4 [528]
-0.4341049 -0.90847844 -1.0992508 -0.12691064 -1.1904883 -0.5422033 -0.95237213 -0.08310881
-1.4159911 -0.5702098 -2.9338353 -0.52687085 -0.5721249 -0.6970486 -0.07603157 -0.29930475
-1.1044967 -1.5031226 -3.058073 0.23963194 -0.5232865 -1.1920453 -0.9251405 -0.98039705
-0.52613586 -0.58463407 -0.11193352 -0.9791404 -2.1563814 -0.32984656 -0.6336631 -2.2770233
0.121932335 -0.9248916 -0.08342796 -0.5065859 0.21921375 -0.30457836 -0.8930525 0.002614644
-0.57393295 -0.85532045 -1.3876156 -1.7662181 -1.3609979 -0.2737246 -0.57894605 -0.5342472
-0.6743237 -1.8440732 -0.2854799 -0.7518768 0.33106226 -0.47558194 -1.1830869 -0.43635887
-0.2638468 -0.88392293 -2.1186352 -0.9070497 -0.9801357 -0.3223939 -2.7787006 -0.73182964
-0.39975965 -1.2675884 -1.1675107 -0.017524226 -2.3883126 -0.11906802 -1.7813953 -0.44952163
-1.6609237 -0.4267923 -0.60791767 -0.61159176 -1.5435672 -1.4141707 -1.2525685 -0.57268745
-1.3951471 -0.7590737 -0.36757153 0.047896385 -0.2937201 -1.0707213 -1.6045719 -0.59919786
-0.32543725 -1.2414782 -2.3117964 -1.1440675 -0.52767235 -0.67130363 -0.22858596 -0.26852435
-0.24731655 -0.21430168 -1.2784717 -1.0718387 -1.4449043 -0.092366725 -0.9535695 -0.28315237
-1.2963208 -0.33747816 -1.0370653 -0.37275693 0.10713929 -0.58297974 -0.79947484 -1.4139154
-0.44341707 -1.3266448 -1.6339674 -0.93110466 -0.08215579 -0.29269814 -2.5357323 -1.220097
-1.3278539 -0.24967217 -1.3365527 -0.38771772 -0.7917705 -0.54287076 -1.3645205 -0.8351584
-0.9679219 -0.92195225 -0.7382355 -1.160436 -2.108588 -1.7570959 -2.020212 -0.9902421
-3.084321 -0.47674233 -2.4790912 -1.3244457 -2.5635135 -0.17638825 -2.225829 -0.86893535
-1.845845 -0.08921767 -1.2886641 -1.8612573 -2.6591194 -2.5733778 -1.6047368 -0.9010298
-1.830249 -0.55305284 -2.4319193 -3.2540722 -1.4443805 -1.3612379 -1.3304862 -1.1060311
-1.568917 -1.4129921 -0.7329408 -2.116025 -1.2342461 -1.5684835 -0.92717195 -0.5162674
-0.2892072 0.8189705 -2.3714263 -0.99425226 -0.9050142 -2.0442228 -1.0186552 -3.0819232
-0.7637673 -1.1078817 0.46360964 -1.791057 -0.37230796 -2.9687762 -1.068608 -0.9849944
-0.8028221 -1.7620157 -1.9196846 -0.94337344 -1.4627106 -0.8435186 -2.1613147 -2.2677996
-0.8690119 -1.2841088 -1.946531 -2.796026 -1.5772058 -1.3512772 -1.8375983 -0.9399067
-2.2739177 -0.6231606 -1.6900711 -1.4647115 -2.331544 -0.51028234 -2.5509324 -1.4839061
-2.3224463 -2.8888083 -3.12677 -2.0869675 -2.227869 -0.7747347 -1.5023143 -1.0039226
-1.8160833 -1.8394979 -2.9301713 0.8430856 -3.340598 -2.560413 -1.7182585 -2.5296557
-0.052657343 -0.37675002 -0.8148868 -0.60038954 -1.3812362 -1.894326 -2.3168638 -2.4074802
-2.2276108 -1.5756836 -2.2166545 -0.61218566 -2.0165815 -0.3144898 -1.5636759 -0.2136147
-0.9144079 -1.909341 -1.9240489 -1.6966795 0.9398283 -2.792904 -2.7411222 -0.035150893
-0.9594168 -0.41425827 -2.2616513 -0.991694 -1.1840346 -1.4146651 -3.2519934 -1.0989296
00000000: ff42 debe 0b92 68bf 40b4 8cbf ddf4 01be
00000010: ec61 98bf d6cd 0abf a9ce 73bf f434 aabd
00000020: 323f b5bf 45f9 11bf f5c3 3bc0 02e1 06bf
00000030: c776 12bf c771 32bf 71b6 9bbd 793e 99be
00000040: 2660 8dbf 5266 c0bf 78b7 43c0 1362 753e
00000050: 1bf6 05bf f194 98bf 02d6 6cbf 4dfb 7abf
00000060: d7b0 06bf 94aa 15bf 673d e5bd f2a8 7abf
00000070: 2702 0ac0 a6e1 a8be bf37 22bf c0ba 11c0
00000080: a9b7 f93d b2c5 6cbf 47dc aabd 9daf 01bf
00000090: 9279 603e b2f1 9bbe 179f 64bf 725a 2b3b
000000a0: 45ed 12bf 48f6 5abf 639d b1bf 6f13 e2bf
000000b0: 2e35 aebf a125 8cbe cf35 14bf 6dc4 08bf
000000c0: 7aa0 2cbf 970a ecbf 6c2a 92be ff7a 40bf
000000d0: fe80 a93e 7a7f f3be 646f 97bf 6e6a dfbe
000000e0: ee16 87be c648 62bf b897 07c0 6934 68bf
000000f0: 2cea 7abf d010 a5be 3bd6 31c0 3059 3bbf
00000100: 4cad ccbe 5640 a2bf fe70 95bf f78e 8fbc
00000110: 1dda 18c0 efd9 f3bd c304 e4bf b327 e6be
00000120: 2699 d4bf 8584 dabe 7ea0 1bbf 4791 1cbf
00000130: 9c93 c5bf 8c03 b5bf 2a54 a0bf a59b 12bf
00000140: 2e94 b2bf a752 42bf 5632 bcbe 002f 443d
00000150: 7b62 96be 650d 89bf 9d62 cdbf 0865 19bf
00000160: b69f a6be c2e8 9ebf 79f4 13c0 ce70 92bf
00000170: 8915 07bf 8eda 2bbf 7012 6abe 067c 89be
00000180: 8d40 7dbe e671 5bbe f6a4 a3bf 0332 89bf
00000190: a0f2 b8bf c42a bdbd 211d 74bf 59f9 90be
000001a0: d7ed a5bf f0c9 acbe 8ebe 84bf ffd9 bebe
000001b0: d86b db3d 293e 15bf 62aa 4cbf 2efb b4bf
000001c0: 9007 e3be 7fcf a9bf d825 d1bf e05c 6ebf
000001d0: 4b41 a8bd 88dc 95be 7049 22c0 232c 9cbf
000001e0: 1ef7 a9bf 10aa 7fbe 2914 abbf f082 c6be
000001f0: 79b1 4abf 94f9 0abf 9ca8 aebf f1cc 55bf
00000200: bbc9 77bf 1005 6cbf 00fd 3cbf 2b89 94bf
00000210: 1bf3 06c0 85e8 e0bf 274b 01c0 8280 7dbf
00000220: 8465 45c0 9217 f4be 6ea9 1ec0 7087 a9bf
00000230: 9b10 24c0 1f9f 34be fb73 0ec0 8c72 5ebf
00000240: a644 ecbf c1b7 b6bd f2f2 a4bf ae3d eebf
00000250: 032f 2ac0 39b2 24c0 0468 cdbf e4a9 66bf
00000260: 9945 eabf df94 0dbf 91a4 1bc0 b842 50c0
00000270: 76e1 b8bf 0b3d aebf 5f4d aabf 6d92 8dbf
00000280: 46d2 c8bf eddc b4bf 02a2 3bbf f46c 07c0
00000290: c7fb 9dbf 11c4 c8bf 245b 6dbf 1a2a 04bf
000002a0: f712 94be 0da8 513f 73c5 17c0 5187 7ebf
000002b0: 03af 67bf 8cd4 02c0 4b63 82bf 3b3e 45c0
000002c0: 4186 43bf 11cf 8dbf 3e5e ed3e 5b41 e5bf
000002d0: 269f bebe 6e00 3ec0 26c8 88bf 9828 7cbf
000002e0: c085 4dbf bb89 e1bf 3ab8 f5bf ec80 71bf
000002f0: 1a3a bbbf d6f0 57bf fb52 0ac0 a123 11c0
00000300: 9077 5ebf ad5d a4bf ee27 f9bf 17f2 32c0
00000310: e1e1 c9bf a7f6 acbf 6c36 ebbf ba9d 70bf
00000320: de87 11c0 7487 1fbf 4054 d8bf ab7b bbbf
00000330: 0438 15c0 dda1 02bf 7a42 23c0 a3f0 bdbf
00000340: f6a2 14c0 3ce2 38c0 001d 48c0 e090 05c0
00000350: 6895 0ec0 0355 46bf d64b c0bf 8980 80bf
00000360: 6b75 e8bf ab74 ebbf ed87 3bc0 75d4 573f
00000370: 5ccc 55c0 cedd 23c0 e5ef dbbf e1e5 21c0
00000380: 3aaf 57bd 61e5 c0be 6c9c 50bf 21b3 19bf
00000390: 59cc b0bf 4679 f2bf 7f47 14c0 2814 1ac0
000003a0: 2d91 0ec0 00b0 c9bf abdd 0dc0 33b8 1cbf
000003b0: ac0f 01c0 cf04 a1be 8826 c8bf d0bd 5abe
000003c0: a316 6abf 4965 f4bf 3c47 f6bf cb2c d9bf
000003d0: 9698 703f f0be 32c0 8c6e 2fc0 62fa 0fbd
000003e0: 579c 75bf a919 d4be e5be 10c0 a8df 7dbf
000003f0: 728e 97bf bf13 b5bf a920 50c0 baa9 8cbf

lstm.bias_hh_l0 f4 [528]
-0.42986944 -0.9549911 -1.1433803 -0.13654436 -1.2362354 -0.57778907 -0.92521745 0.0362676
-1.3761375 -0.44572785 -2.8358634 -0.52456295 -0.6349913 -0.62344277 -0.13685748 -0.29650694
-1.1999379 -1.3574272 -3.045156 0.12713146 -0.5574467 -1.1373723 -0.83555377 -1.082411
-0.41733855 -0.59125173 -0.21444091 -1.0552287 -2.1883056 -0.22430517 -0.70646 -2.141952
0.23951326 -0.89139146 -0.084166 -0.44192427 0.27930936 -0.38198707 -0.77209663 -0.0028411755
-0.5258209 -0.9121661 -1.343437 -1.7831614 -1.3225948 -0.21921691 -0.6001505 -0.37403488
-0.56669444 -1.832314 -0.2914948 -0.7764426 0.3378243 -0.5033734 -1.1445372 -0.48089385
-0.28648618 -0.8475269 -2.1878269 -0.79133934 -1.1338738 -0.20372327 -2.789892 -0.77561885
-0.38632846 -1.2750838 -1.0170671 -0.14341055 -2.4423904 0.0033477745 -1.9437964 -0.42736372
-1.7823985 -0.37479383 -0.6273454 -0.69036955 -1.4374706 -1.4507672 -1.3094959 -0.49486127
-1.3326026 -0.7996474 -0.4756574 -0.02260791 -0.37565532 -0.93230337 -1.558951 -0.68989575
-0.41885954 -1.3199834 -2.352106 -1.1527301 -0.62334156 -0.6689326 -0.11751078 -0.34369814
-0.18905753 -0.20062013 -1.1815487 -1.1655881 -1.524716 -0.10636318 -1.0172237 -0.29866678
-1.224479 -0.31022015 -1.1046 -0.5166854 0.18796067 -0.6689104 -0.89994025 -1.2539967
-0.5891878 -1.3902456 -1.5240192 -0.90620637 -0.038525287 -0.24153389 -2.5688403 -1.0988947
-1.288971 -0.20893233 -1.2298439 -0.31473598 -0.8420925 -0.46667832 -1.3718374 -0.72245157
-0.96619034 -0.9188676 -0.77634776 -1.095491 -2.1023247 -1.6817361 -2.0003738 -1.026864
-3.048143 -0.44745186 -2.4878244 -1.3868963 -2.5087254 -0.30483598 -2.131413 -0.80428296
-1.8193145 -0.09472944 -1.2861996 -1.8589418 -2.7917323 -2.6110294 -1.6780682 -0.882514
-1.9103189 -0.5477122 -2.4613335 -3.2861745 -1.4471861 -1.3940748 -1.3912756 -1.229042
-1.7130238 -1.3010279 -0.8172888 -2.101485 -1.3149598 -1.5999783 -1.0564884 -0.4147024
-0.35850343 0.9426571 -2.2558448 -0.93594474 -0.9350628 -1.9042678 -1.0533015 -3.0256932
-0.6718286 -1.1862918 0.44134337 -1.7594889 -0.2936079 -2.8366919 -1.0735619 -0.9589855
-0.83407634 -1.7628134 -1.8615884 -1.0029205 -1.4867771 -0.85828596 -2.254851 -2.2903893
-0.846088 -1.2301159 -1.8331013 -2.6884763 -1.5504699 -1.3104093 -1.801642 -0.92118853
-2.3088284 -0.57056 -1.5561283 -1.3781284 -2.1879609 -0.42598382 -2.6034122 -1.5994387
-2.302798 -2.8031874 -3.1942225 -2.1449137 -2.206596 -0.75458956 -1.5509595 -0.990109
-1.8737969 -1.8136908 -2.9754663 0.7828259 -3.3338716 -2.4397516 -1.7028259 -2.553207
-0.121017285 -0.2993955 -0.7625905 -0.593577 -1.3589509 -1.8745513 -2.416676 -2.4722407
-2.286605 -1.5918037 -2.1442063 -0.57036513 -1.9962333 -0.28435007 -1.5609211 -0.06041563
-0.79571986 -1.8992049 -1.9780487 -1.7482065 0.89785933 -2.8744845 -2.6777174 -0.09418387
-1.0333301 -0.51495564 -2.2587335 -1.0434389 -1.1610054 -1.416437 -3.2593534 -1.0118632
00000000: d917 dcbe 4c7a 74bf 495a 92bf 49d2 0bbe
00000010: f63c 9ebf fce9 13bf 0ddb 6cbf 568d 143d
00000020: 4625 b0bf 7136 e4be c97e 35c0 c249 06bf
00000030: ca8e 22bf f299 1fbf 5e24 0cbe c2cf 97be
00000040: 9197 99bf 2dc0 adbf d6e3 42c0 c02e 023e
00000050: d4b4 0ebf 6a95 91bf dae6 55bf 728c 8abf
00000060: 66ad d5be 465c 17bf 6696 5bbe bc11 87bf
00000070: 330d 0cc0 41b0 65be 90da 34bf be15 09c0
00000080: f742 753e 3b32 64bf 395f acbd e643 e2be
00000090: a301 8f3e cf93 c3be 20a8 45bf 0433 3abb
000000a0: 339c 06bf b883 69bf bef5 abbf a23e e4bf
000000b0: c94a a9bf 667a 60be 77a3 19bf 8081 bfbe
000000c0: e312 11bf 4489 eabf ce3e 95be f1c4 46bf
000000d0: 4ff7 ac3e 14dd 00bf 3280 92bf b837 f6be
000000e0: 51ae 92be 86f7 58bf 5b05 0cc0 3795 4abf
000000f0: c722 91bf d59c 50be 978d 32c0 f58e 46bf
00000100: d8cc c5be f235 a3bf 412f 82bf 37da 12be
00000110: 2050 1cc0 5666 5b3b 52ce f8bf 6bcf dabe
00000120: a225 e4bf fae4 bfbe b599 20bf 0fbc 30bf
00000130: 09ff b7bf bdb2 b9bf 909d a7bf 755e fdbe
00000140: b992 aabf b1b5 4cbf 5e89 f3be 3934 b9bc
00000150: e555 c0be 6fab 6ebf b58b c7bf 029d 30bf
00000160: c274 d6be 37f5 a8bf e888 16c0 a98c 93bf
00000170: 5093 1fbf 2b3f 2bbf 7ea9 f0bd 34f9 afbe
00000180: 4c98 41be 5d6f 4dbe fd3c 97bf fe31 95bf
00000190: e529 c3bf f0d4 d9bd 6334 82bf daea 98be
000001a0: babb 9cbf 2dd5 9ebe 8863 8dbf 7f45 04bf
000001b0: c378 403e b63d 2bbf 7c62 66bf f782 a0bf
000001c0: 03d5 16bf 91f3 b1bf 1013 c3bf 24fd 67bf
000001d0: b1cc 1dbd a954 77be e167 24c0 95a8 8cbf
000001e0: 00fd a4bf 5bf2 55be 866b 9dbf 1325 a1be
000001f0: 6093 57bf 76f0 eebe 5e98 afbf 96f2 38bf
00000200: 4058 77bf e83a 6bbf babe 46bf 0d39 8cbf
00000210: 7d8c 06c0 2143 d7bf 2006 00c0 4870 83bf
00000220: c614 43c0 6918 e5be 8438 1fc0 d185 b1bf
00000230: f58e 20c0 7613 9cbe 1269 08c0 7de5 4dbf
00000240: 4cdf e8bf 8201 c2bd 30a2 a4bf cef1 edbf
00000250: beab 32c0 1b1b 27c0 f0ca d6bf 70ec 61bf
00000260: 5485 f4bf de36 0cbf 7d86 1dc0 af50 52c0
00000270: 653d b9bf 0b71 b2bf 5215 b2bf 4051 9dbf
00000280: 5d44 dbbf 1588 a6bf d739 51bf bb7e 06c0
00000290: 9a50 a8bf 17cc ccbf 033b 87bf df53 d4be
000002a0: c38d b7be fa51 713f c35f 10c0 139a 6fbf
000002b0: 4760 6fbf 0cbf f3bf 95d2 86bf f5a4 41c0
000002c0: f6fc 2bbf 69d8 97bf c2f7 e13e ef36 e1bf
000002d0: c653 96be 5c8c 35c0 7a6a 89bf 1380 75bf
000002e0: 0786 55bf dfa3 e1bf 8748 eebf b35f 80bf
000002f0: b64e bebf a1b8 5bbf 7b4f 10c0 bd95 12c0
00000300: 3999 58bf 7074 9dbf 10a3 eabf ff0f 2cc0
00000310: cc75 c6bf 7ebb a7bf 349c e6bf 03d3 6bbf
00000320: d8c3 13c0 3810 12bf 362f c7bf 8366 b0bf
00000330: 8d07 0cc0 8d1a dabe 4e9e 26c0 68ba ccbf
00000340: 0b61 13c0 6c67 33c0 246e 4cc0 4446 09c0
00000350: de38 0dc0 c82c 41bf d785 c6bf c977 7dbf
00000360: 94d8 efbf 0527 e8bf 0a6e 3ec0 4767 483f
00000370: 275e 55c0 e424 1cc0 33f6 d9bf be67 23c0
00000380: e9d7 f7bd 5e4a 99be 2239 43bf aaf4 17bf
00000390: 1af2 adbf 4cf1 efbf d2aa 1ac0 3139 1ec0
000003a0: bc57 12c0 39c0 cbbf ad3a 09c0 7303 12bf
000003b0: 9384 ffbf 5596 91be 43cc c7bf 6176 77bd
000003c0: 4cb4 4bbf 2519 f3bf b330 fdbf 3bc5 dfbf
000003d0: 1cda 653f 8ef7 37c0 b95f 2bc0 79e3 c0bd
000003e0: 2944 84bf 22d4 03bf 178f 10c0 688f 85bf
000003f0: d39b 94bf cf4d b5bf 3f99 50c0 bc84 81bf

attention.weight f4 [24, 132]
-0.25961447 -0.033629846 -0.04000136 -0.16505219 -0.19638436 -0.85421807 -0.28842026 0.3764595
-0.6904095 0.0025513829 0.029884394 1.112818 0.9879994 0.29110268 -0.23771441 -0.306841
0.6132953 0.19709353 -0.3835847 0.45688188 0.6831959 -0.58972704 -0.92330146 0.07527382
0.72841483 1.7412863 0.13788505 0.30031687 -0.15503524 1.2680254 -0.5772629 -0.5132236
-0.33236417 0.18170887 -0.25886437 -1.1792365 0.06018486 -1.6190883 -0.66544724 0.7140704
0.3250278 0.17845653 0.0014920672 -0.49718133 0.6528323 -0.17111674 1.1851814 -0.35043088
-0.43806073 0.9060954 -0.45453554 1.2276697 -0.3058354 0.46128598 -0.86398566 0.20530213
-0.47202113 0.9209445 0.86025524 0.85569984 -0.428322 0.47358403 -0.6978509 1.031856
-0.45807707 0.040307797 0.15632352 0.371598 -0.20875822 -0.49082553 -1.1438351 0.0694302
-0.75934476 -0.15663458 0.086517125 -0.1819329 -0.84347874 0.2983771 0.6878867 0.21517463
0.6648167 -0.13395415 0.44909024 0.616861 -0.7380503 0.5382848 0.20797202 0.55238724
-0.45170373 0.6466855 -0.2791083 -0.1348006 0.21301523 -0.03195161 -0.30391955 0.13138473
0.094871454 -0.090012886 -1.0179853 0.00054290204 -0.4862474 0.3006465 0.15352622 -0.6539217
0.43476707 -1.4431129 1.582281 1.3392125 -0.34593678 0.055376545 0.033006698 0.05377422
-0.17975649 -0.56339276 -0.3584991 -0.4232089 -0.8395478 0.403512 -0.7954422 1.1726868
-0.8399922 -0.054669544 -0.3561915 -0.4298905 -1.9473851 1.4298956 -0.24001844 -0.39312324
-0.07481039 -0.07572498 -0.53979397 0.31667718 -0.30466688 -0.39261684 -0.14665319 0.546262
0.7993223 0.08158213 0.64453256 -0.5411343 -0.6977357 -0.93873733 0.005281391 0.3772491
0.6653435 0.2732377 0.572922 0.7972858 -0.058137618 0.05193046 -0.053507105 -0.6060702
0.492515 0.059477232 -0.2953303 0.4121487 0.3719231 0.26786327 -0.86089194 -0.066271774
-0.04031797 -0.46755382 -0.29142413 -0.33767962 0.4133973 -0.43438736 -0.27683887 -0.35238573
0.6750388 -0.32390255 0.089638956 -0.63212764 -0.5549426 0.0861246 0.2321325 0.029592138
0.3846798 0.5522431 0.27857915 -0.3217287 -0.33775482 -0.64498806 -0.2638353 0.40515256
0.5806545 -0.45597553 -0.26140705 0.41150656 0.62350684 0.32570115 0.1241412 0.1142033
0.030134367 -0.79387873 0.06504487 0.5043227 -0.39795363 -0.50273037 0.4298234 -0.45069334
0.17136931 -0.30402973 -0.23533669 0.22553077 0.16083583 -0.07699338 0.2198554 -0.3570034
0.21758601 0.3255903 -0.080099985 0.37998006 -0.21196394 0.25520197 0.30438787 -0.512979
-0.27975303 -0.0012325548 0.105412304 -0.58101624 -0.17114197 0.14925411 -0.24024938 -0.09780346
0.4529247 -0.46861687 0.6664348 -0.3105709 -0.48462737 0.42084628 -0.09390483 -0.2180305
-0.18647149 -0.4336916 0.1691946 -0.45820156 -0.87647635 0.40693033 0.3211346 0.27378422
0.6317678 -0.44961926 0.13097052 0.46504286 0.5082055 -0.103597194 -0.35041702 0.24052297
0.6975245 -0.63796324 -0.2110093 -1.200057 -0.23862202 -0.37234828 -0.30333698 0.4243933
00000000: 30ec 84be 73bf 09bd 77d8 23bd 7103 29be
00000010: fb18 49be 09ae 5abf d2ab 93be 4dbf c03e
00000020: adbe 30bf 1a35 273b 1ed0 f43c d270 8e3f
00000030: 87ed 7c3f 690b 953e 686b 73be 431a 9dbe
00000040: ec00 1d3f e3d2 493e 3765 c4be 6cec e93e
00000050: ede5 2e3f 5af8 16bf 7c5d 6cbf 2929 9a3d
00000060: 6579 3a3f 78e2 de3f bd31 0d3e 22c3 993e
00000070: 8fc1 1ebe a84e a23f 80c7 13bf 9f62 03bf
00000080: a32b aabe e411 3a3e df89 84be 39f1 96bf
00000090: 6684 763d 493e cfbf c05a 2abf 51cd 363f
000000a0: 0b6a a63e 4fbd 363e 7891 c33a 8d8e febe
000000b0: 0520 273f 3a39 2fbe 06b4 973f ad6b b3be
000000c0: 7f49 e0be def5 673f e2b8 e8be 4824 9d3f
000000d0: 7596 9cbe ad2d ec3e 2a2e 5dbf b93a 523e
000000e0: c1ac f1be 05c3 6b3f b039 5c3f 250f 5b3f
000000f0: 054d dbbe 9b79 f23e 5ba6 32bf db13 843f
00000100: 1489 eabe ca19 253d 4613 203e 1842 be3e
00000110: b7c4 55be 7c4d fbbe 3069 92bf 6c31 8e3d
00000120: 6b64 42bf d164 20be e42f b13d 9e4c 3abe
00000130: 39ee 57bf e2c4 983e 5819 303f bd56 5c3e
00000140: 6d31 2a3f 472b 09be 28ef e53e 9aea 1d3f
00000150: ddf0 3cbf 08cd 093f 9ef6 543e 4069 0d3f
00000160: b645 e7be 2e8d 253f 48e7 8ebe 2b09 0abe
00000170: aa20 5a3e b1df 02bd 589b 9bbe b889 063e
00000180: f74b c23d ad58 b8bd 584d 82bf 8a51 0e3a
00000190: 6bf5 f8be 57ee 993e fa35 1d3e 6a67 27bf
000001a0: ca99 de3e ecb7 b8bf 2f88 ca3f 516b ab3f
000001b0: a01e b1be 84d2 623d 0832 073d 5b42 5c3d
000001c0: 1612 38be 823a 10bf 328d b7be d6ae d8be
000001d0: 9bec 56bf 2099 ce3e 1aa2 4bbf 9a1a 963f
000001e0: bb09 57bf 2ced 5fbd bb5e b6be 9c1a dcbe
000001f0: ea43 f9bf d206 b73f 65c7 75be 7347 c9be
00000200: 3136 99bd b315 9bbd f02f 0abf 8323 a23e
00000210: 4cfd 9bbe 1305 c9be 412c 16be d4d7 0b3f
00000220: 63a0 4c3f 8814 a73d 1600 253f c787 0abf
00000230: cf9e 32bf 1751 70bf 850f ad3b cb26 c13e
00000240: f453 2a3f d0e5 8b3e 04ab 123f ec1a 4c3f
00000250: b621 6ebd 09b5 543d 442a 5bbd 6b27 1bbf
00000260: ed2a fc3e 669e 733d 8835 97be 2805 d33e
00000270: b46c be3e 6025 893e 6a63 5cbf 7fb9 87bd
00000280: 7524 25bd 3763 efbe 8b35 95be 58e4 acbe
00000290: d0a8 d33e 0568 debe d3bd 8dbe e76b b4be
000002a0: 58cf 2c3f 8ed6 a5be a194 b73d 1ed3 21bf
000002b0: b810 0ebf 1862 b03d 24b4 6d3e 366b f23c
000002c0: c0f4 c43e ce5f 0d3f eda1 8e3e a0b9 a4be
000002d0: 33ee acbe f01d 25bf 6c15 87be 2870 cf3e
000002e0: c6a5 143f a075 e9be 25d7 85be fdb0 d23e
000002f0: 259e 1f3f 4dc2 a63e be3d fe3d 6be3 e93d
00000300: 59dc f63c a33b 4bbf 3f36 853d 4b1b 013f
00000310: 94c0 cbbe f0b2 00bf d011 dc3e 47c1 e6be
00000320: 707b 2f3e c9a9 9bbe 1afc 70be 8af1 663e
00000330: 26b2 243e b5ae 9dbd c621 613e 26c9 b6be
00000340: dece 5e3e c6b3 a63e 760b a4bd bf8c c23e
00000350: 130d 59be d5a9 823e bad8 9b3e 9752 03bf
00000360: ca3b 8fbe ad8d a1ba 68e2 d73d 7bbd 14bf
00000370: d73f 2fbe 12d6 183e ef03 76be 2e4d c8bd
00000380: bfe5 e73e 8dee efbe 799b 2a3f 2603 9fbe
00000390: 1421 f8be 2a79 d73e 2d51 c0bd 6343 5fbe
000003a0: 62f2 3ebe d30c debe 5941 2d3e 6599 eabe
000003b0: c160 60bf 2c59 d03e c16b a43e 722d 8c3e
000003c0: 89bb 213f 7f34 e6be 231d 063e 191a ee3e
000003d0: c119 023f c42a d4bd dc69 b3be a74b 763e
000003e0: f790 323f 8f51 23bf d212 58be 789b 99bf
000003f0: 5559 74be 6fa4 bebe fc4e 9bbe 144a d93e

attention.bias f4 [24]
0.06802425 -0.013871886 0.08920355 -0.048372854 -0.035319492 0.07943813 -0.12944402 0.15601425
-0.12606326 0.0381324 -0.0071610976 -0.120169625 -0.07571021 -0.0075946217 -0.037262272 0.07078486
-0.3117488 -0.10059746 -0.05606457 -0.1321089 -0.116877295 0.09397636 0.06010753 -0.053510442
00000000: 4c50 8b3d e846 63bc 5ab0 b63d 9d22 46bd
00000010: 2cab 10bd 75b0 a23d f98c 04be 33c2 1f3e
00000020: ba16 01be b830 1c3d a4a7 eabb 7e1b f6bd
00000030: f40d 9bbd 4edc f8bb 53a0 18bd a7f7 903d
00000040: 8a9d 9fbe 0b06 cebd f6a3 65bd 8e47 07be
00000050: 5d5d efbd ae76 c03d 5033 763d c42d 5bbd

dense.weight f4 [1, 3168]
0.044108633 0.14888377 -0.05171144 -0.3696466 -0.08445958 -0.17141894 0.0046885083 0.3381163
-0.16744651 0.11602507 0.049136806 0.030349925 0.05543746 0.09933893 -0.2776545 -0.27224162
0.13308196 -0.110282786 0.04843977 0.40190023 0.08604803 -0.14709873 -0.14916591 -0.17107885
0.0022104238 0.10431031 0.13250883 0.095561884 0.031142846 0.3187771 0.0017879084 0.1192185
-0.1918746 0.270072 0.07940252 -0.09886692 -0.1261255 -0.018640384 -0.21651156 0.30361754
0.19038667 -0.033067334 -0.01396032 -0.013966845 0.025197146 -0.22346649 0.18680552 0.07658968
0.035592545 0.25326854 -0.043648873 -0.1195182 -0.23556918 0.29684642 -0.13654204 -0.08622204
-0.30322102 0.044006463 0.02491709 0.17945114 -0.020708462 0.2550486 -0.08530427 0.15671098
-0.035261095 0.122624084 -0.14537926 0.16609943 0.06413143 0.005264051 0.11327522 -0.1476257
-0.0607807 -0.0013764431 -0.07426221 0.018449733 -0.080550976 0.07375915 0.08240211 -0.15582962
0.07800399 -0.12885475 0.018084342 0.17000456 -0.011841708 -0.10143296 -0.020589873 0.036481943
-0.068389855 0.11028449 -0.0061335354 -0.041377246 -0.07084753 0.028651457 -0.18049248 0.2153055
0.3064638 -0.2963823 -0.15782703 0.13012715 0.1401403 0.31953922 -0.18287706 -0.054774504
0.13935012 -0.26496255 0.117086835 0.13133633 -0.23422155 0.22882447 -0.1695713 -0.05867324
-0.0027450977 -0.052644245 -0.0160748 0.025539625 -0.3176913 0.22182941 -0.097866 0.080943614
-0.02167733 0.24932024 0.021856721 -0.200699 -0.13441767 0.03214835 0.039112866 -0.005215252
-0.19788787 -0.00675456 -0.048570268 0.20880406 0.014458122 0.055674095 -0.004669708 -0.07669876
-0.14270245 -0.043381494 -0.028295849 0.15048754 0.060101878 0.13456506 -0.05251653 -0.08764572
-0.12586156 0.07870783 -0.14566483 -0.023433987 -0.09250079 -0.008704151 0.016102724 0.14374785
-0.07566897 -0.034920286 0.17918837 -0.056910582 -0.06272771 -0.11771287 0.11753556 0.091944896
-0.015608463 0.09240754 0.055333838 0.028938076 -0.03902744 0.05941066 0.044146333 0.012602955
-0.15820816 0.09312331 -0.032926805 0.12210802 0.041507233 -0.023455821 -0.002121012 0.07290851
0.01862827 -0.16305403 -0.04527317 0.041442905 0.09165001 -0.064387195 0.013476948 -0.041622754
-0.11108817 0.120021336 0.15731211 -0.02965879 -0.12231135 -0.004021478 -0.039032277 -0.12315834
-0.048722573 0.1540604 0.023795927 -0.09025793 0.15497671 0.013966544 -0.09531915 0.03960992
-0.11596121 0.026910659 0.14020555 0.039037146 -0.069585614 0.03122286 -0.023996677 -0.02400228
0.10180532 -0.05681658 -0.031584665 -0.017511923 0.041985642 -0.08793291 0.012099522 0.14401965
0.05885978 0.07583926 -0.02441045 -0.045467556 0.088287935 -0.03511476 0.0395305 -0.03414878
-0.06507578 0.07555083 -0.13258977 0.0010947699 0.041635353 -0.016714778 -0.0033984864 -0.036962494
0.03322316 0.09669849 -0.01709584 0.0913527 0.10673911 0.011097167 -0.06796996 -0.018426474
-0.17249669 0.1445533 0.009827921 -0.06842215 0.045663547 0.006874078 0.031657778 -0.042682003
-0.04883188 0.023887094 0.087077364 0.069807924 0.061276246 -0.014234512 0.07676805 -0.04814496
00000000: 41ab 343d fd74 183e 60cf 53bd 5242 bdbe
00000010: 25f9 acbd 7288 2fbe 0fa2 993b 941d ad3e
00000020: 1977 2bbe 8d9e ed3d ad43 493d 68a0 f83c
00000030: 6412 633d 3572 cb3d bb28 8ebe 4163 8bbe
00000040: a346 083e f1db e1bd c868 463d dec5 cd3e
00000050: f339 b03d 0da1 16be f3be 18be 4b2f 2fbe
00000060: c2dc 103b a5a0 d53d 65b0 073e f3b5 c33d
00000070: 481f ff3c c136 a33e 4058 ea3a d428 f43d
00000080: c67a 44be e146 8a3e ca9d a23d bd7a cabd
00000090: 0b27 01be b8b3 98bc 35b5 5dbe c273 9b3e
000000a0: b9f4 423e 9d71 07bd d3b9 64bc 32d5 64bc
000000b0: 3f6a ce3c 66d4 64be f249 3f3e 0ddb 9c3d
000000c0: 7dc9 113d 6aac 813e 29c9 32bd f5c5 f4bd
000000d0: 0c39 71be 41fc 973e add1 0bbe 2e95 b0bd
000000e0: c93f 9bbe 1f40 343d ed1e cc3c 0ac2 373e
000000f0: cba4 a9bc bb95 823e 01b4 aebd d878 203e
00000100: f06d 10bd 5622 fb3d 4dde 14be f815 2a3e
00000110: 5757 833d 0f7e ac3b d7fc e73d 312b 17be
00000120: 2ff5 78bd c469 b4ba c916 98bd e523 973c
00000130: e9f7 a4bd 0a0f 973d 70c2 a83d cd91 1fbe
00000140: 8ec0 9f3d 80f2 03be 9d25 943c ad15 2e3e
00000150: b903 42bc 15bc cfbd 18ac a8bc 176e 153d
00000160: fb0f 8cbd d6dc e13d d3fb c8bb 307b 29bd
00000170: 8318 91bd 76b6 ea3c 05d3 38be 0c79 5c3e
00000180: d3e8 9c3e 6cbf 97be 699d 21be 0d40 053e
00000190: f080 0f3e a59a a33e 2044 3bbe 3b5b 60bd
000001a0: ccb1 0e3e 2ca9 87be 39cb ef3d 087d 063e
000001b0: c6d7 6fbe f650 6a3e 19a4 2dbe 5a53 70bd
000001c0: 19e7 33bb 7ea1 57bd 4daf 83bc 7a38 d13c
000001d0: 6fa8 a2be 4027 633e f86d c8bd c4c5 a53d
000001e0: a894 b1bc ce4d 7f3e de0c b33c 0a84 4dbe
000001f0: c9a4 09be fdad 033d d034 203d b4e4 aabb
00000200: 1ea3 4abe 5b55 ddbb 9ef1 46bd bbd0 553e
00000210: c2e1 6c3c 850a 643d 5a04 99bb 3d14 9dbd
00000220: 9720 12be cbb0 31bd b2cc e7bc 6819 1a3e
00000230: 632d 763d 6ccb 093e 931b 57bd 997f b3bd
00000240: dae1 00be 9231 a13d 2929 15be a2f8 bfbc
00000250: 0e71 bdbd db9b 0ebc dce9 833c a332 133e
00000260: 55f8 9abd 9308 0fbd 287d 373e 121b 69bd
00000270: 6377 80bd 7213 f1bd 7cb6 f03d 9b4d bc3d
00000280: a4ba 7fbc 2a40 bd3d bca5 623d 8b0f ed3c
00000290: 3ddb 1fbd 9858 733d c9d2 343d a07c 4e3c
000002a0: 5201 22be 6fb7 be3d 42de 06bd c513 fa3d
000002b0: 7d03 2a3d 6c26 c0bc ad00 0bbb 0f51 953d
000002c0: 509a 983c a3f7 26be 5c70 39bd 09c0 293d
000002d0: 00b3 bb3d 6fdd 83bd 6bce 5c3c 9f7c 2abd
000002e0: 3282 e3bd bfcd f53d 6d16 213e fef6 f2bc
000002f0: 607e fabd 9ac6 83bb 4fe0 1fbd 713a fcbd
00000300: 5291 47bd 02c2 1d3e adef c23c 26d9 b8bd
00000310: 37b2 1e3e eed3 643c b036 c3bd 033e 223d
00000320: 127d edbd be73 dc3c 0b92 0f3e 6ae5 1f3d
00000330: e782 8ebd 15c7 ff3c ae94 c4bc 6ea0 c4bc
00000340: 4f7f d03d 81b8 68bd ec5e 01bd 2a75 8fbc
00000350: 23f9 2b3d 2b16 b4bd 133d 463c e379 133e
00000360: f416 713d 9d51 9b3d 6df8 c7bc 303c 3abd
00000370: 4ed0 b43d 7fd4 0fbd bcea 213d 97df 0bbd
00000380: 7346 85bd 65ba 9a3d 9dc5 07be 627e 8f3a
00000390: d589 2a3d 6eed 88bc 24b9 5ebb fc65 17bd
000003a0: 0215 083d dc09 c63d 930c 8cbc 2017 bb3d
000003b0: 099a da3d e4d0 353c d633 8bbd 1ef3 96bc
000003c0: f9a2 30be c805 143e 4a05 213c ea20 8cbd
000003d0: b309 3b3d f23f e13b 96ab 013d 53d3 2ebd
000003e0: f003 48bd deae c33c 9e55 b23d 75f7 8e3d
000003f0: cdfc 7a3d df37 69bc 9138 9d3d a633 45bd
