model/weighs_models/part_cnn_model.pth (torch, 284169 bytes, 17 tensors)

conv1.weight f4 [64, 4, 3]
000000 5c b9 7f 3e b3 f9 a7 3e 04 fc 7c 3e 47 17 8e 3e
       0.24973053 0.32807693 0.24705511 0.27752134
000010 8d 78 b6 3e c9 06 85 3e 63 59 10 3f 05 31 f2 3e
       0.35638848 0.2598174 0.56386393 0.47303024
000020 6b e8 ba 3e e8 24 08 bf 22 04 2f bf d5 1d 22 bf
       0.36505446 -0.53181314 -0.6836568 -0.6332677
000030 90 e9 e5 3d ce 2d c9 bc c2 1d c0 bd 75 93 64 3e
       0.11226189 -0.024557974 -0.09380676 0.22321875
000040 d9 49 f1 bd 7a dd 1e 3e be 85 3e 3d 42 3d 57 3e
       -0.117816634 0.15514174 0.046514265 0.21019462
000050 07 93 05 3e 43 9f 7a be c0 44 3d bd 1b cc 74 3e
       0.13044368 -0.24474816 -0.046208143 0.23905985
000060 25 7d e1 bd 0f 7f 48 bd eb 42 35 bf e8 5d c2 3e
       -0.110101976 -0.048949298 -0.70805234 0.3796227
000070 29 bd 8c 3e b5 18 c9 bd 7c 3f 96 3e d9 e2 e9 bd
       0.27488068 -0.098191656 0.2934531 -0.11420221
000080 1b b3 42 be 56 21 76 3d e4 29 1b be d9 5c f9 3e
       -0.19013636 0.060090385 -0.15152699 0.4870365
000090 b5 6a 90 bc 90 2e b8 3d aa dd 86 3d e3 2a 29 3d
       -0.017629007 0.08993256 0.06585248 0.041300666
0000a0 9d 92 4c bd 14 02 02 3f 42 3c 39 3e 17 d6 43 3d
       -0.04994451 0.5078442 0.18089393 0.047811594
0000b0 1f 9d 88 be 2b a1 d7 3e 9a 8b 75 3e fc 23 67 be
       -0.26682374 0.4211515 0.23979035 -0.2257232
0000c0 64 bb 26 3e 98 fa 03 bf 04 d5 4e bf c2 9f 27 be
       0.16282421 -0.5155425 -0.80793786 -0.16369537
0000d0 97 d3 0f 3e 5a f3 4b be 31 ef 45 bd 69 b2 89 3e
       0.14045559 -0.1991705 -0.048323814 0.2689393
0000e0 ad 4c 62 be 3c 10 59 bc 91 52 da 3d 89 c5 dd 3e
       -0.22099562 -0.0132484995 0.106602795 0.4331477
0000f0 e7 e8 8f bd 57 99 84 be 3a a6 da be ec d9 24 be
       -0.070268445 -0.2589824 -0.42704946 -0.16098756
000100 3f d5 bd 3d be f6 54 be c9 b3 9c be 5a fd 87 3e
       0.09269189 -0.2079725 -0.30605915 0.2656048
000110 13 ce 45 bd eb c5 43 be ba 79 96 bf fa 1e 28 3f
       -0.04829223 -0.19118468 -1.1755898 0.65672266
000120 6a d5 0d 3e 0b 40 3e be a1 4d 54 be 26 ad 5a bc
       0.13850942 -0.18579118 -0.20732738 -0.013346946
000130 5f 3d 0a 3e d2 34 7c 3d 1c e0 78 bd 38 29 81 3e
       0.13499974 0.06157381 -0.060760602 0.2522676
000140 86 01 bc 3c 32 54 d9 be a0 81 73 bf fc c7 45 3f
       0.022949945 -0.42447048 -0.9511967 0.77258277
000150 de f2 d4 bc b5 de 27 be cd ed 7a bf e1 65 19 3e
       -0.025994714 -0.1639355 -0.98019105 0.1498027
000160 a8 48 ec bd f2 98 13 bf e1 8e b6 3c 0b b0 58 be
       -0.115372956 -0.5765525 0.022284927 -0.21160905
000170 39 b6 cc bd ab 76 ca 3e 6a 61 cc bf 91 28 51 be
       -0.09995694 0.3954366 -1.5967228 -0.20425631
000180 39 49 b1 be c4 fd 36 be 88 60 7d 3e a7 0a 8e be
       -0.34626177 -0.17870241 0.24743855 -0.27742502
000190 43 83 8a bc 74 95 33 3f 0c e0 46 bd 04 70 27 be
       -0.016908294 0.7014992 -0.04855351 -0.16351324
0001a0 7a 48 a8 3e 62 a0 8c bd e4 25 4d 3f 62 14 d4 be
       0.32867795 -0.06866528 0.8013594 -0.414218
0001b0 29 b2 92 be 9b 71 d1 3d ad f0 b8 be f5 28 1e 3c
       -0.2865155 0.10226747 -0.3612112 0.00965332
0001c0 f8 f9 84 3b 60 ba 2e be 03 25 02 be 20 e0 40 3e
       0.004058119 -0.17063284 -0.12709431 0.18835497
0001d0 4d d5 8b bd 80 cf f0 bc ab 35 a6 3e 26 bf 08 3d
       -0.06827793 -0.029395819 0.3246282 0.03338542
0001e0 d5 a6 8a bd 3e 26 7b bd 24 8d 62 be 89 3a 9c be
       -0.06770102 -0.061315767 -0.22124153 -0.3051341
0001f0 63 53 e4 bc 25 16 03 3e 78 bc 3d bd 16 20 70 be
       -0.027871793 0.12801416 -0.046322316 -0.2344974
000200 af ce 02 3e 74 a8 e7 bd 3d 25 9f bc fa 11 7e 3e
       0.12774156 -0.11311427 -0.019426936 0.24811545
000210 b1 5c 62 bd 51 89 ab 3e 81 d2 3e 3e b6 ed b8 bd
       -0.05526418 0.33503202 0.18634988 -0.09029715
000220 79 ed b8 be f4 07 59 bf 13 0d 06 bf eb 87 21 be
       -0.36118677 -0.8477776 -0.523637 -0.15774505
000230 ec 95 14 bf 43 3e 34 bf f6 00 ea be ac 38 87 3d
       -0.5804126 -0.70407504 -0.45703858 0.06602606
000240 06 16 86 be 19 07 ab bd ca 2a 4d be 8f 8a fc bd
       -0.26188678 -0.08350963 -0.20035854 -0.123311155
000250 1b 63 0d 3e 8a 94 a2 3c 79 41 ab bd 75 c9 b1 bd
       0.13807337 0.01984622 -0.08362097 -0.08681003
000260 dc 0f 11 3e ce 51 b4 3e 20 e2 2b 3f 34 01 c0 bf
       0.14166206 0.35218662 0.67141914 -1.5000367
000270 8c 54 d1 be c7 15 aa 3e 88 3b 76 3e fb d4 73 bd
       -0.40884817 0.3321974 0.24046147 -0.059529286
000280 2b 77 a5 3c 9b ab 66 3e 28 59 41 bf b0 5f b1 3e
       0.020198425 0.225264 -0.75526667 0.34643316
000290 47 26 b5 3c 8f 09 e7 be ab 0f 1d 3f cd e2 9d be
       0.022112979 -0.4512448 0.6135203 -0.30837098
0002a0 d8 c8 18 3e 4f 0b 29 be 5d 2b fc bd c2 c6 d5 bd
       0.14920366 -0.1650822 -0.123129584 -0.10438301
0002b0 72 31 3d 3e da 6d 52 3e 55 15 51 be c3 38 35 3e
       0.18475893 0.20549718 -0.20418294 0.17697434
0002c0 15 11 6c be 37 63 61 bf 25 71 41 3f 69 12 86 bf
       -0.23053391 -0.88042015 0.7556327 -1.0474368
0002d0 b7 84 c2 be b6 46 7e bf 10 f9 b2 bd f0 a8 d5 bd
       -0.37991878 -0.99326646 -0.08738911 -0.10432613
0002e0 e4 6d e1 be c0 1b 6f ba c4 37 04 3f 46 5f 57 3e
       -0.44029152 -0.00091212615 0.5164759 0.21032438
0002f0 92 9c 2f 3f 6e ef 3b c0 d2 5d 9e c0 3f 27 18 3f
       0.6859828 -2.9364886 -4.9489527 0.59434885
000300 f9 76 57 bd bb 0c 07 be c2 7d 43 bd 9e 01 5f be
       -0.052603696 -0.1318845 -0.047727354 -0.2177796
000310 e9 3e da 3d 75 7e af 3d 02 1e 65 bd 5b cf 0d 3e
       0.106565304 0.08569042 -0.05593682 0.13848631
000320 81 53 db 3d c0 fb 57 bd 0d e3 32 3f a6 99 37 be
       0.107092865 -0.052730322 0.698777 -0.17929706
000330 13 f2 7a 3e d2 e8 42 3e 5a 0a 8b be 5f 05 b4 3d
       0.24506406 0.19034126 -0.27156335 0.08790087
000340 bb 91 2f 3c 44 6c 7e bb 5a d4 83 be 24 ab a1 3e
       0.010715897 -0.0038821856 -0.2574795 0.31575882
000350 cb 18 2b bd 05 85 f1 3e cf 40 35 3f fc 8f c8 be
       -0.04177169 0.47171798 0.70802015 -0.3917235
000360 3e 22 18 3e a5 9d 21 3d 4b f6 3e 3d 87 bb f8 bd
       0.14856812 0.039456982 0.046621602 -0.12145143
000370 15 6f 15 be 94 95 d0 bc 19 e8 43 3e 44 5b 0e be
       -0.14593156 -0.02546195 0.19131507 -0.13902003
000380 ce 7e 64 bd 2c a7 95 bd 8b 8e 66 3d 15 61 dc bd
       -0.055784993 -0.07307276 0.056288283 -0.107607044
000390 f0 03 f8 bd a2 39 1f 3d 8e bd 3d be 6e 97 1e 3e
       -0.12110126 0.038873322 -0.1852934 0.15487453
0003a0 ac c8 ac bd 9c 54 47 3e 44 32 d2 bd c0 cf 70 3e
       -0.084367126 0.1946587 -0.10263494 0.2351675
0003b0 b4 53 50 3d 0f a3 8f 3e ca 72 c6 3d c3 95 ad be
       0.050861076 0.2805409 0.09689863 -0.33903322
0003c0 48 19 11 be 54 14 1b bf 8d 86 bf 3e f5 74 00 be
       -0.141698 -0.60577893 0.37407342 -0.12544616
0003d0 81 e5 3e 3d f6 2d 3e be 85 82 d8 be 21 9c 2a be
       0.04660559 -0.1857222 -0.42287078 -0.16661121
0003e0 9f 82 a8 3e 36 ed c9 be 78 b2 a6 c0 df 45 81 be
       0.32912156 -0.3943879 -5.2092857 -0.2524862
0003f0 ed 91 54 3e df 81 d9 3d 7a 13 f6 be b5 c2 01 3e
       0.20758791 0.10620474 -0.48061734 0.12671931

conv1.bias f4 [64]
000000 e6 72 27 be bf 8d 9b be 66 cc 00 be 64 d4 fc be
       -0.16352424 -0.3038158 -0.12577972 -0.4938079
000010 60 f5 c4 bd ce b9 f7 3e 53 bd c7 3d 28 cd a5 3e
       -0.09617114 0.48383945 0.097529076 0.32383084
000020 8a f8 80 bd d4 c5 b6 be a7 5f aa be 5a dc 20 be
       -0.06297405 -0.35697806 -0.33276102 -0.15709057
000030 da 7b 2c be d2 fb 97 bd e8 9d 99 3b 24 14 dc be
       -0.1684412 -0.07421078 0.0046880133 -0.42984116
000040 c8 32 2c be 31 da e3 be e4 56 b4 be 5e fe bc be
       -0.16816247 -0.44502404 -0.35222542 -0.36912817
000050 20 2b 44 be 14 7b b1 3e 96 1e 17 be 9e 4e 77 be
       -0.19157076 0.34664214 -0.14757761 -0.24151084
000060 aa a8 cb be b1 56 94 be e8 bd 65 be d1 72 cb be
       -0.39777118 -0.2897239 -0.22435725 -0.39736035
000070 6b 73 58 be b3 e5 27 3e 83 f1 f0 3e 73 e8 a0 3d
       -0.21137778 0.16396217 0.4705926 0.07856836
000080 51 d1 80 be 29 31 99 3e 66 a2 c2 3e 69 04 c9 3e
       -0.25159696 0.2992032 0.38014525 0.39261177
000090 e2 93 1c 3e 4d 07 1d be cc 4a 09 be e6 2f 08 3f
       0.15290788 -0.15334816 -0.13407439 0.5319809
0000a0 0a 1d 4c be 0d 9d b8 bd 34 38 8f 3e fc 4e b2 be
       -0.19932953 -0.0901433 0.27972567 -0.34825885
0000b0 d6 71 a5 be 42 69 0f 3f 46 c5 91 3e a2 23 6c 3e
       -0.32313412 0.56019986 0.2847082 0.23060468
0000c0 54 bc bf be 53 f5 8c 3e 49 16 fb be 14 1c e9 3e
       -0.3744837 0.27530918 -0.4904044 0.45529234
0000d0 5e 09 65 be a9 9f 7e 3e b7 09 59 be e2 dc 45 be
       -0.22366855 0.24865593 -0.21195112 -0.19322541
0000e0 25 b9 f6 3d 98 78 64 3e 8f 11 69 be 5a 9b b9 bd
       0.12047032 0.22311628 -0.22760604 -0.09062834
0000f0 04 31 2c be 3c 67 f8 3e ee 27 48 3e b0 c3 5f 3d
       -0.16815573 0.48516262 0.19546482 0.05462998

attention.W_q.weight f4 [64, 64]
000000 f9 83 a0 bf 3a ea 52 bc 15 d7 49 bf d6 6f 66 be
       -1.2540275 -0.012873227 -0.78843814 -0.225036
000010 3a 30 43 bf a0 2f 22 bf c9 57 79 bf f1 e4 18 bf
       -0.7624546 -0.6335392 -0.97399575 -0.59724337
000020 55 a1 27 be ae bf ae be b2 9b be bd c9 c3 fd 3e
       -0.16370137 -0.34130615 -0.0930704 0.49563435
000030 96 74 38 be 7b 62 1e 3f 2e ff a0 3e 96 ae ef be
       -0.18013224 0.6186902 0.31444687 -0.46812886
000040 36 dc f6 be 12 22 d0 3d b2 82 34 bc f8 4a 88 be
       -0.48214883 0.101627484 -0.011017488 -0.26619697
000050 f7 e1 39 bf fa 0a 73 3e a2 5e 8a bc 80 4b da bd
       -0.7261042 0.23734656 -0.016890828 -0.10658932
000060 18 98 99 bd be 10 56 bd d4 dc 32 bf 15 56 77 3f
       -0.07499713 -0.05226206 -0.69868207 0.96615726
000070 cb c5 67 3e 9d 4c 7f bf 5e 53 e4 be e5 68 44 bf
       0.22634046 -0.9972628 -0.44594854 -0.76722556
000080 ee 76 9c 3d 4c 08 70 bf 56 ff 2b bf c9 cb 5e 3e
       0.076398715 -0.9376266 -0.67186487 0.21757425
000090 ca d1 bd be c7 94 d2 be 6f d9 8d bd 93 22 67 bf
       -0.3707412 -0.41129133 -0.06926238 -0.9028713
0000a0 76 98 f6 bc a3 d7 b1 3d fb fe f0 be 0c ee 98 3f
       -0.030101996 0.086837076 -0.47069535 1.1947646
0000b0 34 44 ce 3d ec 65 22 bf 7d 0f fc be 06 47 32 bf
       0.100716025 -0.6343677 -0.49230567 -0.69639623
0000c0 57 3f d1 3e af 50 9f bf df 2a 53 bf cc 2e 45 bf
       0.40868637 -1.2446498 -0.8248729 -0.7702453
0000d0 dc c6 c0 be ad 4a 39 bf 2d d6 35 be 44 e3 9f 3e
       -0.37651718 -0.7237957 -0.17757483 0.31228077
0000e0 ed 87 53 3f 5d 1b 15 bf 50 07 97 3e 7c a3 fe 3e
       0.8262928 -0.5824488 0.29497766 0.49734104
0000f0 ff b0 da be f6 10 db be 68 8c 3e be ee e8 fa be
       -0.42713162 -0.42786378 -0.18608248 -0.49005836
000100 86 c4 67 3f cf 80 dc bc a5 7b 0c 3f 7c cc 4e 3f
       0.90534246 -0.02691689 0.54876167 0.8078077
000110 2a be 87 3d de 78 5f 3f 68 77 9d 3f ff c4 ad 3f
       0.06628068 0.87293804 1.2302065 1.3575743
000120 fe 4c e9 3e 3a 56 25 3e 8d 82 94 3c 6a 77 f1 bf
       0.45566553 0.16146174 0.018128658 -1.8864567
000130 32 99 73 3f a2 7b c8 bf 78 d8 5b 3f db 59 9b 3f
       0.9515563 -1.566273 0.8587718 1.2136797
000140 49 b0 c1 bc 8e eb 60 3f 14 1e 8c bc bb a5 3f be
       -0.02364363 0.8785943 -0.017104186 -0.18715565
000150 47 68 a1 3f df ed 3d 3f 1c 72 2d 3f f9 0a ba 3e
       1.2609948 0.7419109 0.6775224 0.36336496
000160 21 20 e3 bc ee be 57 3d c8 e5 b4 3f d7 17 16 bf
       -0.027725281 0.05267232 1.4132624 -0.58630127
000170 0a cf 03 bf 2e 18 46 bf d9 08 99 3f 73 7d b2 3f
       -0.5148779 -0.77380645 1.1955825 1.3944534
000180 80 40 e4 3c 7e d7 ed 3f 81 d6 89 be 55 3d 6a be
       0.027862787 1.8581388 -0.26921466 -0.22874959
000190 a0 1e 02 3e 54 ae 16 be c7 50 49 3f 8a c7 93 bf
       0.12706995 -0.14714938 0.7863888 -1.154527
0001a0 ef f0 21 3d ab e5 16 3d 63 be 28 be e8 78 80 3f
       0.039536413 0.036840122 -0.16478877 1.0036898
0001b0 21 58 a8 3e f6 cf b9 3f 16 a6 16 bf 17 1d cb 3f
       0.32879737 1.451659 -0.5884718 1.5868253
0001c0 2b 60 78 bf b9 f6 d5 3f 1f 5e 0e 3f 07 a1 08 40
       -0.9702174 1.6715919 0.5561237 2.1348283
0001d0 2e ca cd bd a3 ac 12 40 53 24 02 3e ad a6 89 bd
       -0.10048328 2.291787 0.12709169 -0.06721244
0001e0 c9 7c 47 bf 2d 58 e1 3e 4f 93 33 3f 6d a7 ae be
       -0.7792478 0.44012585 0.7014665 -0.3411211
0001f0 a5 2f a1 3f 27 76 88 be ca 7f 83 3f ca f1 91 3f
       1.2592665 -0.26652643 1.0273373 1.1401913
000200 83 fc 85 bf 77 36 9b 3d a5 38 11 bf 4d 8f bf be
       -1.0467685 0.07578748 -0.5672706 -0.37414017
000210 8c ba 04 bf 4a 34 08 bf a1 37 28 bf a0 91 11 bf
       -0.5184715 -0.53204787 -0.6570988 -0.5686283
000220 44 6c 45 bf 3a 1b 76 bf 22 e1 9e bd 0b e8 f6 3f
       -0.77118325 -0.96135294 -0.077577844 1.9289564
000230 c6 cd fd be 59 5f ed 3f 39 e9 44 be e0 32 64 bd
       -0.49571055 1.8544723 -0.19229592 -0.05571258
000240 3f b4 ff be e0 3e a7 bd 26 8e 54 bd 5e d7 10 be
       -0.49942204 -0.08166289 -0.051893376 -0.14144656
000250 22 21 bc 3e 7f a5 20 be 27 e1 9c be ca cf 54 bd
       0.36744028 -0.15688132 -0.30640528 -0.051955976
000260 88 23 00 bf a2 b3 a4 3d 6a 81 c7 be 16 f0 46 3f
       -0.50054216 0.08042075 -0.38965923 0.7771009
000270 ad 25 02 3f 5e 90 93 be 07 5b 23 bf a6 08 15 bf
       0.5083874 -0.2882108 -0.6381077 -0.5821632
000280 c8 cc fa bd 6f ce 46 be 6b de 47 be 32 73 c2 3e
       -0.1224609 -0.19414686 -0.1951844 0.37978512
000290 47 ca 25 bf 82 eb c6 bd 6b f9 a7 bc 0d 1d 29 3e
       -0.64761776 -0.09712888 -0.020504674 0.16514988
0002a0 e0 57 ab 3d ca b1 f2 3d 5a b8 2d bf ae 43 27 bd
       0.0836637 0.11850317 -0.67859423 -0.04083603
0002b0 63 7e 58 3e 9d fb 27 bf a6 96 dc bd a6 f6 e6 be
       0.21141963 -0.65618306 -0.107709214 -0.45110053
0002c0 64 80 de 3f 7e 2c 4d 3e 75 28 99 bf b4 ad 2a bf
       1.7382932 0.20036504 -1.1965472 -0.666713
0002d0 e5 be 88 bd 72 17 33 bf 9d c3 6e be 08 73 00 3f
       -0.06677035 -0.6995765 -0.23316808 0.50175524
0002e0 99 c9 26 3f 0f 77 fd 3d bc dd 16 bf 33 43 c4 3e
       0.65151364 0.12376224 -0.5893209 0.3833252
0002f0 c4 cf ab bd a0 f0 ce be fb 75 ba 3e 4b ca b2 3e
       -0.083892375 -0.40417957 0.36418137 0.34919962
000300 8a 34 b9 3f 29 08 eb bd 25 0b 96 3f 83 22 11 3f
       1.4469159 -0.11476166 1.1722151 0.56693286
000310 31 77 86 3f ac c9 42 3f 6b 5a 65 3f 2d d3 2f 3f
       1.0505124 0.76088977 0.8959109 0.68681604
000320 74 a6 34 3f a7 3e 75 3f 8c de 8d 3c 82 6a d6 bf
       0.7056649 0.95798725 0.017318033 -1.6751254
000330 7f ce 05 3e 66 7a a3 bf d1 9d 91 bd f3 fd b9 be
       0.13067053 -1.2771728 -0.07110179 -0.3632656
000340 b2 02 27 3f 57 c1 72 bc a9 a7 1e bd e1 36 96 3e
       0.6523849 -0.014816604 -0.038734112 0.29338744
000350 5a 04 1f bf 08 98 a3 3d 1f a0 d0 3e b5 7f 4c 3d
       -0.62116015 0.07987982 0.40747163 0.04992648
000360 90 22 03 3f a0 b5 b2 bc e8 a7 82 3e 77 27 61 bf
       0.51224613 -0.021815121 0.25518727 -0.87950844
000370 58 22 8d be 67 2b 43 3f 1a 95 20 3f 10 9e 4f 3f
       -0.27565265 0.762381 0.6272751 0.8110056
000380 98 e4 cd bd 20 44 e4 3e ac 18 40 3f 46 af 37 be
       -0.100533664 0.44583225 0.75037646 -0.17937955
000390 c7 02 12 3f 6e 81 aa 3e 82 f9 b0 bb c0 d6 aa 3e
       0.5703549 0.33301872 -0.0054008374 0.33366966
0003a0 b3 20 b1 bd e0 9b 74 3e 7d fa 8c 3f 68 f6 19 bf
       -0.08648815 0.23887587 1.1013943 -0.6014161
0003b0 39 09 e7 3a e7 56 4c 3f f9 92 f7 3e bb 61 c7 3e
       0.001762665 0.798201 0.4835432 0.3894175
0003c0 20 b0 8b bf 70 76 cd bb 5d 3d 86 3f ed 87 4a 3f
       -1.0913124 -0.0062702224 1.0487477 0.79113656
0003d0 2e 61 03 3f ed 24 14 3f 07 29 46 3e 61 6e b9 be
       0.5132016 0.57868844 0.19351588 -0.36217025
0003e0 7b 47 47 bf a2 d2 8c 3e d4 4e b6 3e be 33 8b be
       -0.77843446 0.2750445 0.35607016 -0.27187914
0003f0 f0 b4 8b be 75 cf ef 3e c9 59 19 bf 43 bd 20 bf
       -0.27286482 0.46837965 -0.59902626 -0.6278879

attention.W_q.bias f4 [64]
000000 5c 80 25 bf 18 21 66 be 63 74 09 bf a2 d6 68 3f
       -0.64648986 -0.22473562 -0.5369322 0.90952504
000010 c6 ce 4f 3f 69 fa 65 3f cf 9c 3e 3f 08 28 30 bf
       0.81174886 0.8983522 0.7445802 -0.6881108
000020 e4 3a 76 bf 9f 10 62 bf 6d d4 6d bf f1 c9 4e bf
       -0.9618361 -0.8830661 -0.9290226 -0.8077689
000030 b1 d5 0b bf 14 9d 83 3f 63 87 89 bf 0c 00 69 bf
       -0.5462294 1.0282311 -1.0744442 -0.91015697
000040 2d 7c 7f bf c1 5b 51 bf 66 00 84 bf 20 b0 7d bf
       -0.9979885 -0.8178063 -1.0312622 -0.9909687
000050 a4 ce 8c 3f 57 09 63 bf c4 a6 25 bf f2 b3 97 bf
       1.1000562 -0.88686126 -0.6470759 -1.185179
000060 c6 07 63 3f 55 c9 84 3f 1c 02 9c 3e 34 50 55 3f
       0.88683736 1.0373942 0.3047036 0.83325505
000070 5f ef 7a bf 7e d1 72 3f 42 d1 8a bf bc ab f8 3e
       -0.980215 0.9485091 -1.084511 0.48568523
000080 67 2d a3 bf 6a 61 96 3f bf 25 cf 3f 16 af d0 3f
       -1.2748231 1.1748478 1.6183394 1.6303432
000090 d7 52 b1 3f 92 b0 60 bf df aa bf 3f 91 12 18 bf
       1.3853406 -0.87769425 1.4974021 -0.5940333
0000a0 e1 b1 69 3f 1e 51 67 3f 18 68 c9 3f 18 24 ab 3f
       0.91287047 0.9035815 1.5734892 1.337039
0000b0 2d bc c6 3f c6 e8 b3 3f 6a 9c b2 bf a8 9c 26 3f
       1.5526177 1.4055412 -1.3953984 0.6508279
0000c0 3b 5d eb bc 7e 74 83 3f 32 ea 9c bf 73 e4 90 3f
       -0.02873098 1.0269926 -1.2258971 1.1319717
0000d0 9d 8e af 3f 64 55 9b bf c4 cb 7d 3f 9f 98 7d 3f
       1.3715397 -1.2135434 0.99139047 0.99061006
0000e0 ea 33 88 bf 31 21 88 bf cc 44 9d 3f 62 be 91 3f
       -1.0640843 -1.0635129 1.228662 1.1386225
0000f0 42 c0 05 3e cb c7 aa 3f b6 0c e5 be ea 23 58 3f
       0.13061622 1.3342222 -0.4473626 0.844298

attention.W_k.weight f4 [64, 64]
000000 dc e1 a1 3f a9 e7 e6 bc a4 ec 23 3d af 22 c3 3e
       1.2647052 -0.028186636 0.0400206 0.381124
000010 c4 68 b5 3e a7 78 7d be b7 b9 6a 3e ca 2c a8 be
       0.35431492 -0.24753056 0.22922407 -0.3284667
000020 0f 30 57 be 2e 37 4d bd 3f 38 20 3e 43 24 92 3e
       -0.21014427 -0.05010145 0.15646456 0.2854329
000030 0c 61 91 3f a3 61 34 bd 3d a6 35 3f a1 e2 6c 3e
       1.1357741 -0.044038426 0.70956784 0.23133327
000040 7c a1 90 3d 3c 71 f3 3e 80 f0 16 3e 87 41 84 3d
       0.07062051 0.47547328 0.14740181 0.06457811
000050 44 74 de 3e c1 de 6e be ac 38 91 3f 84 c2 05 3f
       0.4344808 -0.23327161 1.134542 0.5224993
000060 85 49 33 bf 38 6d 51 bd 7f 15 07 bf 80 e2 7f 3d
       -0.70034057 -0.05112955 -0.52767175 0.062471867
000070 cc 88 f1 bd 65 8a 02 3f c7 63 c4 bd ad 26 fa 3e
       -0.1179367 0.50992423 -0.095893435 0.48857632
000080 b4 07 d5 3d 45 92 50 bd 53 fb 49 bf a8 18 a9 3e
       0.1040186 -0.050920743 -0.78899115 0.33026624
000090 8b c0 ac be 86 0e ed 3d ff 0f fa 3e c0 5e 2c 3f
       -0.3374065 0.11575036 0.4884033 0.6733208
0000a0 94 8a e4 bd 5e 7f 77 3f 6e c2 fd be 6d 51 d2 3e
       -0.11159244 0.9667872 -0.495624 0.41077748
0000b0 e1 ee 9f 3d 62 86 f6 bd 94 c0 b2 3e 9c be ac 3e
       0.078092344 -0.1203735 0.3491255 0.33739173
0000c0 78 5f 48 3f e0 08 93 3f c0 f5 95 bf dd 6c 5f 3e
       0.78270674 1.1487083 -1.1715622 0.21818872
0000d0 a9 12 47 3f 90 68 ba bd f8 44 7b bc a7 c6 51 3e
       0.7776285 -0.09101975 -0.015336268 0.20485936
0000e0 d5 c6 54 be 60 c7 24 3f 25 0b f2 3e 05 bd 32 be
       -0.20778973 0.6436672 0.47274128 -0.17454918
0000f0 af 03 46 bf 58 da e2 3d 66 58 19 be b1 8d 80 bf
       -0.7734937 0.11076802 -0.14975128 -1.0043241
000100 c6 3c 15 bf 0e 5f 40 3d 8b d7 ad be ca e8 af be
       -0.5829586 0.04696565 -0.3395351 -0.3435729
000110 d2 e8 2d 3e 8e 8c 34 be 8f 2e e6 be da cc e4 be
       0.16983345 -0.17631742 -0.44957396 -0.4468754
000120 8d 4b 97 bf 88 e1 83 3e 1c 54 c9 bd 50 5e b7 be
       -1.1819931 0.25758004 -0.09830496 -0.35814142
000130 0a 43 ef bf 10 98 93 bd 03 b3 ab bf 7d 9f 17 be
       -1.8692334 -0.07206738 -1.3414005 -0.14806934
000140 54 87 bc be 44 60 28 bf 43 85 08 bc ae 19 a0 3e
       -0.36821997 -0.6577189 -0.008332553 0.31269592
000150 51 c4 d5 be bd 75 f3 3e 63 c0 5b bf cd 6c 1b 3e
       -0.4175134 0.47550765 -0.85840434 0.15178223
000160 ae 73 86 be 44 83 13 bc e2 75 83 be 4b a6 2f be
       -0.26260132 -0.009003464 -0.25675875 -0.1715328
000170 d6 a3 c3 be ed 05 68 bd 52 e8 4e bd a0 da 41 bf
       -0.38210934 -0.056646276 -0.050514527 -0.7572422
000180 cc 21 ef 3d d3 67 8c bf be ba f0 3b df 2c 10 be
       0.11676368 -1.0969185 0.00734648 -0.14079617
000190 84 a9 7a 3e 1c bf d6 bc b4 22 71 bf 9c e6 7a 3d
       0.24478728 -0.026214175 -0.9419358 0.061255082
0001a0 53 c0 2f 3d af ae c5 be 9e 5c 2e bf 04 a9 67 bf
       0.042908024 -0.38609836 -0.6811007 -0.9049227
0001b0 5d 56 12 3e a8 52 ae be 03 01 8a 3e 1a 79 c3 be
       0.14290757 -0.34047437 0.26953897 -0.3817833
0001c0 a4 9a 80 3d a0 d9 e3 bf dd 4a cd 3d 9f c4 73 bf
       0.06279495 -1.7800789 0.10024045 -0.95221895
0001d0 33 0b 30 bf a9 e3 6b be de 46 f0 3a 11 67 dd be
       -0.6876709 -0.23036064 0.0018331667 -0.43242696
0001e0 d9 fa bc bf 38 e0 01 c0 cb a7 dd be f0 6e 00 bf
       -1.4764053 -2.0293102 -0.43292078 -0.5016928
0001f0 f2 ba 0c 3f 9f 0e 88 be 1e 79 05 bf 15 d7 32 3f
       0.54972756 -0.26573655 -0.52137935 0.6985944
000200 48 67 83 3f 7c f0 ad 3c ee a1 2a 3c 9d 17 31 3f
       1.0265894 0.021232836 0.010414584 0.69176656
000210 a1 cd e3 3d e7 e4 26 3e 38 7d ae 3d a5 ff 48 3e
       0.11123205 0.16298257 0.08519977 0.1962877
000220 80 53 bd 3e 46 e3 0f bf fe 7e 14 3e 3c 8d 01 3f
       0.36977768 -0.56206167 0.14501569 0.5060613
000230 7d cb b2 3f 0a 61 8e bd c7 54 a6 3f fa 89 b9 3d
       1.396835 -0.069521025 1.2994622 0.0905952
000240 74 3a 70 3d ac bc 4b 3f a6 cb be 3c c4 97 62 be
       0.058649495 0.79584765 0.023290467 -0.22128206
000250 41 df a0 3e 35 03 05 bd 60 18 76 3f 82 6d 88 3e
       0.3142033 -0.03247376 0.96130943 0.26646048
000260 27 ec 12 bf f6 45 03 be 8b 45 fe bd 1e 69 ea 3e
       -0.5739159 -0.12819657 -0.12415608 0.45783323
000270 d6 f3 8f 3e a1 89 40 3e 28 08 d2 3d 29 60 21 3f
       0.2811572 0.18802501 0.10255462 0.63037354
000280 08 8f ac bc 93 bd 22 3f 93 ce 57 bf 0a d9 a4 3e
       -0.021064296 0.6357052 -0.8429958 0.32196838
000290 56 3c ba be 4c b2 dd 3c 3a 54 00 3f 0e 76 89 3f
       -0.36374158 0.027062558 0.5012852 1.0739152
0002a0 92 c1 a9 bc 9b ac 65 3f 98 71 48 be 7c aa cd 3f
       -0.020722184 0.897165 -0.19574583 1.6067653
0002b0 ea eb ae bd 3a 35 79 3e b6 a4 3b 3f 24 eb 8f 3e
       -0.08541091 0.2433671 0.73298204 0.28109086
0002c0 c1 31 4d 3f b1 eb d4 3f 2e 3a 79 bf 30 dd 3c 3f
       0.80154043 1.6634427 -0.973544 0.73775005
0002d0 12 60 48 3f f3 ff 9c 3d 35 d7 55 bd 65 be 8f 3e
       0.7827159 0.07666006 -0.05220719 0.28074947
0002e0 26 e8 29 3f 3d 90 2a 3f 7b b4 0b 3f 95 19 b4 bd
       0.66369855 0.6662634 0.54572266 -0.08793942
0002f0 f2 00 2e bf 4f e8 37 3f e2 3b 73 3e 8c 93 94 bf
       -0.6797019 0.7183885 0.23753312 -1.1607528
000300 5a c2 95 bf 86 52 f1 bd 04 a6 03 3d 65 3f 03 bf
       -1.1699936 -0.11783318 0.032140747 -0.5126861
000310 07 4d c0 be 42 79 0f 3e c6 67 ba bd ab 44 84 bd
       -0.37558767 0.140111 -0.091018245 -0.0645841
000320 ab cb 15 3e b3 1f a3 3e 0b 52 e9 bd 03 81 b7 be
       0.14628474 0.31860122 -0.113926016 -0.35840616
000330 9b 20 82 bf 65 e2 c6 bd a0 c3 8d bf bb 75 1c bd
       -1.01662 -0.0971115 -1.1075325 -0.038198214
000340 a8 cd f8 bd 2e 7e 1d bf 7f b4 6b bd 3d e7 2b bd
       -0.12148601 -0.6152066 -0.05754518 -0.041968573
000350 92 43 92 be 9e 0e 60 3b 88 8e 65 bf 09 0b db be
       -0.28567177 0.00341884 -0.8967061 -0.42781857
000360 ea e9 19 3f 44 6e ea bc b2 0b 19 3f 88 ff 31 be
       0.6012255 -0.028617032 0.5978347 -0.17382634
000370 07 78 1d 3d af f1 bd be 05 96 9c 3d 2b 20 cc be
       0.038444545 -0.37098452 0.076458015 -0.39868292
000380 80 c6 89 bc c9 52 db bd 7a 14 2a 3f 31 23 a2 be
       -0.016818285 -0.107091494 0.66437495 -0.31667474
000390 a9 24 b9 3e 09 75 bb bd 25 d0 04 bf 79 65 82 bf
       0.36160782 -0.09153182 -0.51880103 -1.0187217
0003a0 b4 82 96 bd 66 be 58 bf 0e df f6 3e 28 4e 48 bf
       -0.073491484 -0.84665525 0.48217052 -0.78244257
0003b0 6a 3b 27 be e7 43 1c bd 13 1c 0e bf af f0 af be
       -0.16331258 -0.038150694 -0.5551159 -0.34363315
0003c0 ba f5 37 bf a8 81 ab bf 29 6d 8c 3f f0 dd ce be
       -0.71859324 -1.3398943 1.0970813 -0.404037
0003d0 59 7f 1c bf c8 75 42 bd 32 cb e8 3d 79 ba 78 be
       -0.6113182 -0.047475606 0.113668814 -0.24289884
0003e0 04 74 55 3e c9 8a 65 be de 2e ec be 28 77 67 3e
       0.20845038 -0.22416224 -0.46129507 0.22604048
0003f0 a5 fd 37 3f 76 d8 c0 be 57 dd 3e 3e fc c2 75 3f
       0.71871406 -0.37665147 0.18639122 0.9600065

attention.W_k.bias f4 [64]
000000 e3 41 d1 bd e7 18 e0 bc 2d 7b 95 3d 22 d5 a1 3d
       -0.10217645 -0.027355624 0.072988845 0.0790198
000010 9c b2 89 3b 8b 49 f2 bd ad 76 ae 3d 77 a9 a6 3c
       0.0042022 -0.118304335 0.08518729 0.020344479
000020 fa c6 7f 3c f8 4d e6 3d 73 95 91 bd f9 3c 6a 3d
       0.015611405 0.1124534 -0.07108583 0.057187054
000030 f5 5d 76 bd 9a e2 fe bd 78 e2 84 bd f0 8b 00 bd
       -0.0601482 -0.124455646 -0.06488508 -0.031383455
000040 ed f6 6f bc d8 f4 93 3d 29 5b a3 bd 53 04 8e bc
       -0.014646274 0.072244346 -0.07976372 -0.017336046
000050 83 45 18 3d cd 3d 6a 3d 4d cc ea 3c a1 4a cc 3d
       0.037175667 0.057187844 0.028661871 0.09975172
000060 54 a7 d9 3d 89 77 0c 3d 2f e0 e1 3d b1 ca 2a 3d
       0.106276184 0.034293685 0.11029088 0.041697208
000070 b5 f8 0e bd da 4b 6b bd 50 c3 fa 3d 35 fa a6 bd
       -0.034905154 -0.057445385 0.12244284 -0.08153192
000080 b3 8d 18 bd e9 64 a4 3d 91 2a 5d 3c 1f f7 28 3e
       -0.03724451 0.080270596 0.013498918 0.16500519
000090 9b 84 5d 3d 2e 0f 16 3c 85 43 eb 3c 33 5d 00 3c
       0.05408154 0.009158893 0.02871872 0.00783472
0000a0 23 f2 a3 3d 6e e4 61 bc 4b 33 2a 3e cd 7b 44 bd
       0.08005168 -0.013787372 0.16621129 -0.047969628
0000b0 19 2e 86 3d bf 5a 35 3d ce 2f ea bd e1 b0 16 3e
       0.06551761 0.044275995 -0.11434899 0.14715911
0000c0 6f 79 cc bd 85 a9 82 3d 03 1d 40 3d 57 f4 0e bc
       -0.09984099 0.063799895 0.046902668 -0.008725247
0000d0 a4 c1 df bd 92 c5 13 bd d2 89 b9 3d 94 46 a7 3d
       -0.10925606 -0.03607709 0.0905949 0.081677586
0000e0 48 7b a0 bd 2e 20 9a 3b 3b 45 77 3d de 35 ed bd
       -0.07836014 0.004703543 0.060368758 -0.1158254
0000f0 90 f6 db bd 12 7a 5a 3d 6a 26 45 3d ba 6e 3b bd
       -0.107403874 0.05333907 0.048132338 -0.045759894

attention.W_v.weight f4 [64, 64]
000000 bc 24 4e be 5e 5f c8 bd a3 50 4c bd 43 53 5b 3a
       -0.201312 -0.09783815 -0.04988159 0.0008366594
000010 4c 18 9a 3b 8a 62 d1 3b 7d 16 bf 3c 05 51 1f be
       0.0047026034 0.0063899206 0.023326153 -0.1555825
000020 a2 0a 61 3d 95 4d 05 be 44 2d 39 bd 29 f8 51 3d
       0.05494178 -0.13017876 -0.045209184 0.051262055
000030 e1 95 0e be 13 67 b1 3d 9c 4c 85 be 94 52 ea 3e
       -0.13924362 0.08662238 -0.2603501 0.45766127
000040 04 bc 96 bd 26 2a 08 bc 11 ce a0 bd ad 30 5d 3e
       -0.0736008 -0.00831083 -0.07851804 0.216006
000050 a7 0a c2 be 9d ca b1 3d 0c 2b 72 bd 7d 9a cf bb
       -0.37898752 0.086812235 -0.059123084 -0.006335555
000060 07 7e 59 3d 08 18 d8 bd e3 eb 9e bd 32 76 0c 3e
       0.053098705 -0.105514586 -0.077598356 0.13716963
000070 17 82 58 be 03 eb 9d bc 28 a6 d1 3d 3a 78 fb bd
       -0.21143375 -0.019277101 0.1023677 -0.12278791
000080 c2 e5 f5 3d dc 12 c7 3c 6e b8 0e be cf a7 06 3d
       0.120067134 0.024300985 -0.13937542 0.03287488
000090 e0 3a 6e 3d 21 ee 82 bc a8 82 85 3e e3 a5 ab bc
       0.058161616 -0.01598269 0.26076245 -0.020953124
0000a0 82 3b 4c 3d ee e5 49 bd d7 77 ce 3c e4 75 42 bf
       0.04986144 -0.049291544 0.025203628 -0.75961137
0000b0 ac 03 3b be d6 9b 50 bb 81 37 15 3d e4 54 01 be
       -0.1826312 -0.0031831167 0.036429886 -0.1263004
0000c0 7a c4 80 bc bf 4c 72 be 80 08 f0 bc d7 a8 11 3e
       -0.015718687 -0.23662089 -0.029300928 0.14224564
0000d0 e2 a2 cb 3c 5a 80 cb 3d da 27 5b bd b7 b7 e2 bd
       0.024857942 0.099365905 -0.053504802 -0.11070197
0000e0 ae 63 9e bd 61 25 0f bd fd bc 68 3e f7 98 8f bd
       -0.07733856 -0.034947757 0.22728343 -0.070115976
0000f0 13 c8 fc bd a3 cb 34 bd 8c fb 0f 3e 20 aa a9 be
       -0.12342849 -0.044139516 0.14060801 -0.33137608
000100 33 54 63 3e 59 1a 05 be b1 02 42 3d cd 11 6e 3d
       0.22200088 -0.12998332 0.047365848 0.058122445
000110 b5 ef 24 bd 60 72 11 3a f0 77 21 3e aa bd e5 3d
       -0.040267665 0.0005548354 0.15768409 0.11217816
000120 3e f6 68 3d 97 f2 5d 3c 85 33 6f bd 17 77 10 3d
       0.05687546 0.013546607 -0.058398742 0.035269823
000130 7d 9c cd 3d fd 80 0e bd 11 9c 32 be 79 4c 0c 3e
       0.100396134 -0.03479098 -0.17442347 0.13701047
000140 89 12 58 3c 6e 46 e0 bc 96 90 b8 bd c6 dd 7d 3e
       0.013188013 -0.027377333 -0.090119526 0.24791631
000150 b0 32 54 be 55 14 d0 3d 2a ca 02 bf 51 fd 54 bc
       -0.20722461 0.10160128 -0.5108973 -0.012999848
000160 ed b7 83 bd f5 07 0f 3e 5c 00 11 3e ce 5f 81 be
       -0.064315654 0.13967879 0.14160293 -0.25268406
000170 5d e3 94 bd dc 78 df bc aa cb 6c 3d d6 be fd bd
       -0.072699286 -0.02727931 0.057811417 -0.12389915
000180 80 80 a2 bd fb e4 46 be 1a 1e 73 bc 40 15 ab 3e
       -0.07934666 -0.19423287 -0.01483872 0.3341465
000190 e5 aa b3 3c 95 dd ea 3c 37 a1 85 be 05 b8 84 bd
       0.021932075 0.028670112 -0.2609956 -0.064804114
0001a0 66 ef 60 bd 38 64 0d 3e df 6b 87 bd e4 20 e8 be
       -0.05491581 0.13807762 -0.06612372 -0.45337594
0001b0 ff a2 3e 3d ce f4 38 3c 54 bf 54 3c fc 09 df 3d
       0.046542164 0.011288835 0.012985069 0.10890576
0001c0 2c 13 ff bd 1c 2b a9 be f7 5f 6d bc 62 3c 55 bd
       -0.124548286 -0.33040702 -0.014488212 -0.05205954
0001d0 a7 65 15 3d 6b 7c 5f bc 50 bd 5f 3c 97 4c ef 3b
       0.036473896 -0.013640503 0.013655975 0.0073028314
0001e0 de ce 61 3d f9 bf 41 3e 1e bd ee be 92 13 91 3c
       0.055128925 0.18920888 -0.4662866 0.017709527
0001f0 15 4a 14 3f a5 d8 56 bd ea 8f 84 3c de 7d bb 3e
       0.5792554 -0.052452702 0.016181905 0.36619467
000200 07 e1 d5 3e 9e e6 b8 bd 6a 53 98 3d df 56 86 3d
       0.41773245 -0.09028362 0.07437785 0.06559538
000210 27 cb 2e ba 42 ca ea 3c 17 d3 80 3e 27 5f 66 3e
       -0.00066678453 0.028660897 0.2516105 0.22497235
000220 c1 a8 02 bd b0 f4 ac bc 46 60 88 3d f0 f4 82 bd
       -0.031899218 -0.02111277 0.06658988 -0.06394374
000230 53 47 63 3d fc 07 86 bd 65 f4 4d be 81 45 51 be
       0.055487942 -0.06544492 -0.2011276 -0.2043667
000240 31 16 a2 3d 11 8d df 3c 85 7d 19 3d 81 75 5b be
       0.07914389 0.027288945 0.03747322 -0.21431543
000250 7d f2 97 3e 37 e4 e5 3d b8 87 15 bf 48 8b 4f bd
       0.2967719 0.11225169 -0.58410215 -0.05066994
000260 1f 88 3d 3b 61 1d 0e 3d 0f 07 9e be 34 cf 35 be
       0.0028920246 0.034695987 -0.3086476 -0.17754823
000270 66 c1 3c 3e 16 9d 6d bd 2a 04 80 3c ad cd 9c bd
       0.1843315 -0.058011137 0.015626986 -0.07656417
000280 d0 cd 01 bc a8 9f 30 be 02 be 88 3d 72 0b 43 3e
       -0.007922605 -0.17248404 0.06676866 0.19047335
000290 98 d7 f0 3c fa 41 db 3c 28 3b 93 be b7 1a d5 bd
       0.029399678 0.026764859 -0.2875607 -0.10405486
0002a0 f2 98 c4 3d 92 ad 44 3e 7f 92 30 bd 78 24 34 be
       0.095994845 0.19206837 -0.04310846 -0.17592037
0002b0 05 68 ae 3d 9e 6a 08 3e 22 55 f9 3d e1 2e 82 3e
       0.08515934 0.13321921 0.12174441 0.2542639
0002c0 4d 2d 92 be df 19 b4 be 29 78 98 bc ee fe e1 bd
       -0.28550187 -0.35175988 -0.018611984 -0.11034952
0002d0 64 ee 08 3e b8 b9 1a be 95 71 da bd 7d 62 28 3d
       0.13372189 -0.15109909 -0.10666195 0.04110955
0002e0 2f 09 d9 3c c6 38 e9 3e 26 09 09 bf 36 61 5c 3d
       0.026493637 0.45551127 -0.53529584 0.053803645
0002f0 7b ff 13 3f eb 05 c1 bd e4 11 36 3e 01 38 9a 3f
       0.5781171 -0.09424957 0.17780262 1.2048341
000300 8b 4d 83 3e 90 a1 21 bd c2 7f 37 3c cd cf 32 be
       0.25645098 -0.03946072 0.011199893 -0.17462082
000310 f1 28 33 bd bd fa b4 3d c5 84 eb 3c 8f ef 2f 3e
       -0.043740217 0.08836887 0.028749833 0.17181228
000320 7b 5f b8 3d 4b c6 dc 3d c3 67 fb bd 9b 31 23 bd
       0.090025865 0.10780009 -0.1227565 -0.03984223
000330 e6 2d db bd 50 26 f4 bc d5 74 35 bc 53 29 80 3e
       -0.10702114 -0.029803425 -0.011075218 0.25031528
000340 11 af 14 3b f1 e6 03 bd 7e 42 b9 3c 63 50 91 bd
       0.0022687356 -0.032202665 0.022614714 -0.07095411
000350 cf ab 7b be f0 f4 7f bd 44 11 bd 3d a7 c8 09 3e
       -0.24577259 -0.06248945 0.09231809 0.13455449
000360 5f a3 85 bd b5 e5 f0 3d c5 8e da 3e 88 0b 04 3e
       -0.06525301 0.11762563 0.4268705 0.12895024
000370 6b 3f 82 3e 33 6e ac 3d bd 58 e7 bd 61 4c 88 3e
       0.2543901 0.08419456 -0.11296222 0.26620772
000380 ac 92 f0 bd 09 1a 70 3e 27 ea a0 bb 0a aa 04 bd
       -0.117467254 0.23447432 -0.0049107256 -0.032388724
000390 1e 8e 16 bd f5 f3 d9 bd 81 56 7a bd 83 fd a9 bc
       -0.036756627 -0.10642234 -0.061117653 -0.020750767
0003a0 3f 7a 02 3c f5 6a 2b 3c bc 88 23 bd ea 3a 5c 3f
       0.007963716 0.010462512 -0.039925322 0.86027396
0003b0 a8 4c cb bc 52 25 d8 bd 4c ea 24 3c 58 c3 c9 3d
       -0.024816826 -0.10553993 0.010065626 0.09851712
0003c0 e0 50 2a 3e 9d 06 ec 3c ca 64 9f bc 4a 84 f9 bd
       0.16632414 0.028811747 -0.01945724 -0.12183435
0003d0 35 a9 2a 3d 17 b9 80 3e 17 c8 0c 3d b8 b2 2e bc
       0.041665275 0.25141212 0.034370508 -0.010662727
0003e0 e6 cf 9e 3d 5b 71 f3 be cc 68 e1 be 14 a6 2c bd
       0.07754497 -0.4754742 -0.44025266 -0.042150572
0003f0 9b b5 f1 bd 5b e0 51 bd 5d 81 3c bc c3 b2 a2 be
       -0.118022166 -0.051239353 -0.011505452 -0.3177701

attention.W_v.bias f4 [64]
000000 25 c2 62 3d e5 2f af 3c 7c 35 eb bc e8 9a 23 3c
       0.055360932 0.021385143 -0.028712027 0.009985663
000010 fd d9 ce bc b0 51 28 3c 0a e7 4e bd c9 71 f5 3b
       -0.02525043 0.010273382 -0.050513305 0.007490371
000020 35 09 d9 3c 3e 25 77 bc f4 a8 10 3d 63 80 d7 3b
       0.026493648 -0.015084563 0.035317376 0.006576584
000030 5e b1 f5 bc 46 cc 10 3d a9 dc dd bc a4 58 51 3d
       -0.029991802 0.03535106 -0.027082758 0.051109925
000040 60 33 1a 3d 14 5b 52 3d 59 ab 3d bd 0b 42 49 bc
       0.03764665 0.05135639 -0.046305988 -0.012283812
000050 be bd bd 3c 08 d2 54 39 70 d3 b3 ba d3 65 ac bc
       0.023161765 0.00020296138 -0.001371963 -0.021044647
000060 a3 93 f5 3c b2 fb 15 3c 14 b8 6a bc eb 91 2d bd
       0.029977625 0.009154247 -0.014326114 -0.042375486
000070 5c 4f 19 bd 08 20 e9 3c a6 cc 41 3d 7d 19 14 3c
       -0.0374292 0.028457657 0.04731431 0.00903928
000080 cb c4 7e be 5f 82 8a 3e 70 dd 92 be 35 6f f9 3d
       -0.24879758 0.2705259 -0.28684568 0.12179414
000090 bb c7 f2 3d 24 6f c3 3d 4a f2 52 bd 69 0c 28 3e
       0.11854502 0.09542683 -0.051500596 0.16410984
0000a0 0b 24 0a 3c 46 e4 8f bd 38 55 ac 3d 2a d0 26 bd
       0.008431445 -0.070259616 0.08414692 -0.040725864
0000b0 97 d6 46 3d 9e 1f 90 bc a8 68 8f 3e 03 a7 66 3c
       0.048544493 -0.017593201 0.28009534 0.014077905
0000c0 ff cf f7 bb 80 9b a1 bd bf 90 8b bd 8f 52 bd 3a
       -0.007562637 -0.078909874 -0.068147175 0.001444416
0000d0 fe c4 07 bb 5d cc 82 bd 66 5d 6e bd 20 d6 d0 3c
       -0.0020716782 -0.063866355 -0.05819454 0.025492728
0000e0 92 da 11 bd 5d 67 94 bd 7e 81 e2 bc 68 48 36 bb
       -0.035608836 -0.072462775 -0.027649637 -0.0027814154
0000f0 40 60 f9 bc 6d ff 8c 3c 9f 75 40 bd 3c d8 61 bd
       -0.030441403 0.01721164 -0.046987172 -0.055137858

attention.W_o.weight f4 [64, 64]
000000 a3 e2 ab 3d 1e 0e 9d bd b9 68 ea bd 40 54 c6 bc
       0.08392837 -0.07668708 -0.114457555 -0.024210095
000010 9d 5a 1c bc 98 db 1d be e3 84 3e 3d 6d 41 90 3c
       -0.009543088 -0.154158 0.04651345 0.017609322
000020 43 27 99 bd b7 33 00 3e 3b 4e db bc 61 01 d8 3b
       -0.07478192 0.12519728 -0.026770702 0.0065919613
000030 5c f6 33 be c3 16 2f 3d 06 28 2f bd a8 53 6b 3d
       -0.17574447 0.042746317 -0.04276278 0.057452828
000040 d1 8c 08 bc bc 12 e1 3d 7e 1e f5 3d e5 ce 88 3d
       -0.0083343545 0.109899014 0.119687065 0.06680087
000050 70 d5 f2 bd 6f 9d 89 3d 77 33 a1 3d e1 e3 3e bd
       -0.11857116 0.06719481 0.07871144 -0.04660404
000060 5d 77 1d 3c 5f 11 d9 bc b7 c9 6c be 2c a9 2c 3c
       0.009610978 -0.026497541 -0.23123823 0.010538381
000070 50 55 53 3e 2d 0d 0f be 2a c2 21 be 69 21 02 be
       0.20638013 -0.1396987 -0.15796724 -0.12708057
000080 e2 82 22 bd a6 ec a8 bd 6d b1 00 3e eb 86 4b 39
       -0.0396756 -0.08248262 0.12567683 0.0001940985
000090 36 bb 15 bc 6f 0c 9a bc b1 36 4a bd 10 4c 06 bb
       -0.009138873 -0.018804757 -0.049368564 -0.0020492114
0000a0 23 34 14 3d 0c e7 25 3e 2f e3 da 3d de e2 2c 3d
       0.036182534 0.16201419 0.10687863 0.042208545
0000b0 13 07 c6 3c de d2 d8 bd 37 c5 28 3e 85 5d 9d 3d
       0.024173295 -0.10587095 0.16481481 0.07683853
0000c0 72 c5 a6 bd 31 bd 27 bc 0d f3 f5 3d 0b f5 8d bd
       -0.081431285 -0.010237978 0.12009249 -0.06931504
0000d0 a1 11 36 be de 10 cd 3d aa e0 88 3d f4 7f 3f 3d
       -0.17780162 0.10012983 0.06683476 0.046752885
0000e0 03 a5 34 3d 21 71 af be d0 43 80 3d f4 88 8d bd
       0.04410268 -0.34265998 0.06262934 -0.06910887
0000f0 cf 83 a6 bc 20 15 f4 bd 72 1f 90 3d b3 cb 6f 3d
       -0.020326523 -0.11918092 0.07037248 0.058543872
000100 13 d1 ac 3d cb b1 64 3d fa ca 87 bd 83 cd 31 3c
       0.08438315 0.05583362 -0.066305116 0.0108522205
000110 e7 4c 7b bd 10 12 9a bd 68 23 1c bd c4 15 c5 bd
       -0.061352637 -0.075229764 -0.038119704 -0.09623292
000120 9e fd 32 bd 3f 02 71 bc 0e 0b a3 3d 8e f6 11 bd
       -0.0436989 -0.014710008 0.07961093 -0.035635523
000130 40 a4 17 3d 0c c7 d2 bb 7d 8c ab bc 21 c8 cb bd
       0.037021875 -0.0064324196 -0.020941013 -0.09950281
000140 c9 a6 bb bd 12 a6 47 bd 8a 6c 95 3c ff 37 6d 3d
       -0.09162671 -0.04874236 0.018240232 0.05791473
000150 64 c0 3c 3d b8 f5 9c 3d d8 f2 35 bd 70 69 6f 3d
       0.046081915 0.07664055 -0.044421047 0.058450162
000160 1b ab e3 3c da 97 ac 3c 3c 93 6b be 96 a7 00 3d
       0.02779155 0.021068502 -0.23005384 0.031409822
000170 41 b8 94 bd ac 9f 75 3b d3 75 60 3d 7c 89 fb 3d
       -0.07261706 0.0037479205 0.054799866 0.122820824
000180 9d 43 5f 3d 8a 26 94 3d 9d c6 23 3d e3 9e 08 bd
       0.05450784 0.07233913 0.039984334 -0.03335465
000190 89 f5 ca 3d aa 91 64 3d 71 13 10 be 11 62 a1 bd
       0.09910113 0.05580298 -0.14069916 -0.07880033
0001a0 04 65 71 bd 95 3e 83 bc ee 07 2c 3e 9b e0 86 bc
       -0.058934227 -0.016021052 0.167999 -0.016464522
0001b0 06 25 9a bd aa 7f 4a bc e7 73 23 bd e4 eb 61 bd
       -0.07526593 -0.012359539 -0.039905455 -0.055156603
0001c0 b4 e1 cb 3d 34 e3 1e 3e f0 d4 8e bd d2 c5 a5 3d
       0.09955159 0.15516359 -0.06974208 0.08094372
0001d0 a5 5c 08 3d df 08 2f 3d 36 d6 7b ba 5d 4a b6 b9
       0.033291478 0.04273307 -0.000960681 -0.0003476915
0001e0 91 20 f2 bc c4 61 10 be 92 91 98 3a d8 b2 5b bb
       -0.029556544 -0.14099795 0.0011640063 -0.0033523347
0001f0 da 87 b7 bc 02 0a 2c bd bc 40 d0 bc 9f 2e 95 3d
       -0.022403646 -0.04200173 -0.025421493 0.07284283
000200 26 a8 8a 3c ea 81 76 bc d5 a6 bd bc 60 33 91 bd
       0.016925883 -0.015045622 -0.02315084 -0.07089877
000210 e7 25 d9 bc 02 0c d8 bc 6f bf 23 3d 34 51 45 3b
       -0.026507331 -0.026372913 0.039977487 0.0030108215
000220 b7 64 24 bb c9 f9 07 3b f5 3f a8 bc 00 d5 a0 3d
       -0.0025084445 0.0020748249 -0.02053831 0.078531265
000230 8b 93 3c bc cd 65 5a 3d 05 3e 53 3d 5f 64 5d ba
       -0.011509786 0.05331974 0.05157282 -0.00084454374
000240 45 d0 40 bd 8a 0b 00 be 15 23 ba 3b f7 49 e5 bc
       -0.04707362 -0.12504402 0.0056804516 -0.02798937
000250 e8 d4 9d 3c f9 fb 77 bd 1f cc 00 3d 04 ef 33 3d
       0.01926656 -0.060543034 0.031444665 0.043929115
000260 a1 0c 68 3d af 2f 16 bd d7 c8 cc bc 26 07 77 3c
       0.05665267 -0.03666657 -0.024998112 0.015077388
000270 e8 0c 8c 3d b8 f5 aa 3b e0 55 09 3d 17 9b 4e bc
       0.06838399 0.0052172802 0.033529162 -0.0126102185
000280 cc 64 c2 3b 53 fb 9a 3d 54 03 30 3d 96 fd 6f bd
       0.005932426 0.075674675 0.042971924 -0.058591448
000290 6d a1 26 bc eb 09 d2 3c 2c 0d 02 3d d7 03 88 bc
       -0.010170323 0.025639495 0.031750843 -0.016603393
0002a0 74 d7 c9 3d bb fe 09 3d e7 29 1d bb fe 86 99 3c
       0.098555475 0.033690196 -0.0023981275 0.018741127
0002b0 c7 f8 01 3e 6c 7e 1e bc 90 41 52 3b f6 30 1e 3d
       0.12692557 -0.009673696 0.0032082535 0.03862091
0002c0 60 b2 49 3d 0e ba 38 bd 17 36 39 3d da 9e 9e bd
       0.049242377 -0.04509931 0.0452176 -0.07745142
0002d0 10 18 0a 3e 63 07 e4 bc 40 86 92 bd 5a 64 e7 3c
       0.13485742 -0.027835554 -0.071545124 0.028246094
0002e0 a2 e9 ea bc 12 b4 d5 bc d7 88 5f bd f7 b5 ea 3d
       -0.028675858 -0.02608684 -0.05457386 0.11460488
0002f0 c4 50 6e bc 39 22 8d bc 78 5f a1 3d e6 b0 0d 3d
       -0.014545623 -0.017228233 0.07879537 0.03459253
000300 9c bb 78 bd a3 8a fb bd 5d 53 2a 3d e3 57 e4 3c
       -0.060725793 -0.12282302 0.041583408 0.027873939
000310 f6 c6 99 3d 70 3a e5 3c 3a 5f e8 bd b5 71 09 be
       0.07508652 0.027981967 -0.11346288 -0.13422282
000320 b2 74 bd 3c 9b 63 d3 3b 39 c7 a2 3d 8a 61 0b 3c
       0.023126934 0.006451083 0.07948155 0.008507142
000330 8a bb 91 bc 9f ee a7 3b 4f e2 7e bd 79 79 9a bc
       -0.01778962 0.0051248814 -0.062227543 -0.01885675
000340 80 30 00 be cd f0 df 3d dc 64 19 3d 12 d5 c6 3c
       -0.12518501 0.10934601 0.037449703 0.024271522
000350 ac da 9f 3d 92 9d 43 3d c8 ed 85 3d 10 1c a3 3d
       0.0780538 0.047757693 0.06539494 0.07964337
000360 0f 40 e3 bc a4 5a 0b bd fd 50 d4 bc bf 82 ee bc
       -0.027740506 -0.03402199 -0.025917524 -0.029115079
000370 15 29 f4 bd d4 ad 75 3d 8d 76 70 3d 0b 19 19 bd
       -0.11921898 0.05998023 0.05870681 -0.0373774
000380 92 69 f7 bc b4 0d 66 bd 58 18 93 bd fc 66 af bd
       -0.030201707 -0.056165412 -0.071823776 -0.085645646
000390 c5 d5 46 bb 08 b5 da 3c ad 0a 52 3c 80 53 46 bc
       -0.003033982 0.02669765 0.012819928 -0.012104869
0003a0 e3 67 23 bc 96 b8 b8 3d 82 b7 bb 3d 20 14 81 bc
       -0.009973499 0.09019582 0.09165861 -0.015756667
0003b0 3f 5b 1e 3d a7 30 0b 3d d4 7a 8c bd 65 4e 26 3d
       0.038661238 0.033981945 -0.06859365 0.040602107
0003c0 96 93 80 bc 3a 17 c5 3d 53 2e c7 bd 5a 51 4e 3d
       -0.015695374 0.09623571 -0.097256325 0.05037055
0003d0 68 bf b3 bd 5e 86 b0 bc 38 79 6a 3c 1a 64 fe 3c
       -0.08776742 -0.021548446 0.014311127 0.031053592
0003e0 1c d0 0d be fa c0 78 bd 94 90 9b bd dd 72 e2 3c
       -0.13848919 -0.06073091 -0.075959355 0.027642662
0003f0 da 31 84 3d d2 2f 2a bd 80 c9 24 bc 5c 7a 5f 3d
       0.06454821 -0.04154951 -0.010057807 0.05456005

attention.W_o.bias f4 [64]
000000 bf d9 ff bc b1 2f ba bb ad d3 07 bb 16 f1 f5 3a
       -0.03123176 -0.005681955 -0.0020725534 0.0018763866
000010 d1 14 f0 3d f5 72 4b bb 60 2a 1b bc 25 2f 15 bb
       0.117227204 -0.0031043862 -0.009470552 -0.0022763696
000020 b1 24 38 bb 7c c0 46 3d f4 b0 9a b9 d6 0c d2 b9
       -0.0028098042 0.04852341 -0.0002950501 -0.00040063885
000030 59 e1 88 be 58 ac 46 bc 04 8d ec bb d9 00 d0 3b
       -0.26734427 -0.012126051 -0.007218959 0.0063477573
000040 71 21 5e ba fb 55 06 bd c6 16 dd 3e 72 5a 3e 3b
       -0.0008473611 -0.03279684 0.43181437 0.0029045609
000050 5c 94 b7 ba 93 d6 48 bb 7b 46 0e 39 e2 fb 48 bd
       -0.0014006007 -0.0030645474 0.00013568431 -0.04906834
000060 43 37 df bc fe 30 84 bb 2e fd 1c bb be ae 34 bb
       -0.02724803 -0.0040341606 -0.0023954618 -0.0027569975
000070 8f 23 d2 bc 1e 50 e9 3a d4 d3 fe bb a3 05 d4 3a
       -0.025651721 0.0017800366 -0.0077767167 0.0016175996
000080 0f 51 bb 3c 04 19 2b bb f5 20 f7 3a 2f c2 1a 3b
       0.0228658 -0.002610744 0.0018854426 0.0023614278
000090 97 08 1e bb b5 95 89 3a 0e ef 12 bb b8 98 db ba
       -0.0024114007 0.0010496887 -0.002242032 -0.0016753888
0000a0 6b 15 65 3b 27 3e 5e bb c6 68 d1 b7 5a 3a 5b bb
       0.0034955393 -0.0033911557 -2.496353e-05 -0.0033451528
0000b0 a1 b3 1f 3b 27 5f 85 bb b7 41 0d ba 1c fb 7c 3b
       0.0024368542 -0.004070181 -0.00053885154 0.0038601821
0000c0 65 46 c6 3b ea e6 db bb d8 6f fc 3a 32 0e 67 bc
       0.006050872 -0.0067108767 0.0019259406 -0.0141025055
0000d0 52 34 e1 ba 7f 2e fb 3c 6b 6e 02 ba d3 de 86 3c
       -0.001718173 0.03066182 -0.000497556 0.016463673
0000e0 e8 51 9f 3a 29 89 30 3b d1 67 9a 3a b9 57 62 3a
       0.0012155147 0.0026937223 0.0011780207 0.00086342875
0000f0 63 88 b1 b9 24 a8 3a 3b 4f e7 af ba 87 9a 81 3a
       -0.00033861687 0.0028481567 -0.0013420376 0.0009887972
