model/weighs_models/StackLSTM_model.pth (torch, 7281 bytes, 7 tensors)

lstm.weight_ih_l0 f4 [32, 2]
0	0x3dbbcdd3	0.09170117
1	0xbcc0b3a0	-0.023523152
2	0x3d76dc47	0.060268667
3	0xbed8a729	-0.42315033
4	0x3f031a42	0.5121194
5	0x3f23085c	0.6368463
6	0xbd7167b1	-0.05893678
7	0x3edf849f	0.4365587
8	0xbf9091cf	-1.1294497
9	0xbf4bf861	-0.7967587
10	0x3bf43d19	0.0074535725
11	0x3e3de101	0.18542863
12	0x3edbb04b	0.42907938
13	0x3ef54762	0.47906023
14	0xbf69d66b	-0.913428
15	0xbf829417	-1.0201443
16	0x3c80b267	0.015710069
17	0xbdcab275	-0.09897319
18	0x3d98c1ae	0.074588165
19	0x3e9448c2	0.2896176
20	0x3ea16228	0.315202
21	0xbe130a77	-0.14359461
22	0x3e2fbb81	0.17161371
23	0xbe78bbf0	-0.24290442
24	0xbe84daf5	-0.259483
25	0x3e112dc1	0.1417761
26	0xbe893fa1	-0.26806358
27	0xbd8520e9	-0.06500418
28	0xbe8d72a1	-0.27626517
29	0xbead2016	-0.33813542
30	0xbea0c1aa	-0.31397754
31	0xbe3c5115	-0.18390305
32	0x3e586965	0.21133955
33	0x3f2aead0	0.66764545
34	0xbe92f54c	-0.28702772
35	0xbf4aea83	-0.79264086
36	0x3f0faaa7	0.5611977
37	0x3ee5bff2	0.44873005
38	0xbeb92393	-0.36159953
39	0xbed6965f	-0.419116
40	0xbec4b68c	-0.38420522
41	0x3ef60edb	0.4805821
42	0x3eee0939	0.4649141
43	0x3ee654b5	0.449865
44	0x3ea68caa	0.32529193
45	0x3f522917	0.8209395
46	0xbdd8fc03	-0.105949424
47	0x3ddad2c0	0.106847286
48	0xbdff2e84	-0.12460044
49	0x3ecee3cc	0.4040817
50	0xbda275ec	-0.07932648
51	0xbf034aad	-0.5128582
52	0x3d345133	0.04402275
53	0x3f1fd717	0.62437576
54	0x3f042f1d	0.5163439
55	0xbdcf2458	-0.10114354
56	0xbf86e1c2	-1.0537646
57	0xbf2a0bd6	-0.6642431
58	0x3e831d3b	0.2560824
59	0x3d3e699f	0.046487447
60	0x3f11143b	0.56671494
61	0x3ef7d3fe	0.48403925
62	0xbf590106	-0.84767187
63	0xbf1da36d	-0.6157749

lstm.weight_hh_l0 f4 [32, 8]
0	0x3eadcaa2	0.3394366
1	0x3c83b6a7	0.016078306
2	0xbe87b0ea	-0.26502162
3	0xbe0d5882	-0.13803294
4	0x3e831054	0.25598395
5	0xbe798c15	-0.24369843
6	0xbeabea22	-0.33577067
7	0x3eb299e8	0.34883046
8	0xbe90101c	-0.2813729
9	0xbd99bc6a	-0.0750664
10	0x3c83c94d	0.016087199
11	0x3c9dbc4e	0.01925483
12	0xbd3b7a36	-0.045770846
13	0xbd6f7e7d	-0.058470238
14	0xbe88cb01	-0.2671738
15	0xbea69ee1	-0.3254309
16	0x3d29ba35	0.041437346
17	0xbcfd25a1	-0.030901732
18	0x3e6dd5c0	0.2322607
19	0xbdd0d6e2	-0.10197236
20	0x3d38537d	0.045001496
21	0xbd6b6080	-0.057465076
22	0x3e5b6411	0.21424891
23	0xbe92e702	-0.2869187
24	0x3c3b3d2d	0.01142816
25	0xbe7b2ea2	-0.24529508
26	0x3dc3d5a0	0.0956223
27	0xbea78d19	-0.32724836
28	0xbeb1d65b	-0.34733853
29	0xbea7dbe4	-0.3278495
30	0x3e29301a	0.16522256
31	0x3cb8d14f	0.022560744
32	0x3dfc00d2	0.12304844
33	0x3eb0a52b	0.34501013
34	0x3e95fa04	0.2929231
35	0x3e8f58d9	0.27997473
36	0xbbe7b620	-0.0070712715
37	0xbdc68122	-0.09692599
38	0xbd6bdb19	-0.057581995
39	0xbdc0ef6e	-0.094206676
40	0x3d594921	0.053048257
41	0x3e73c83d	0.23806854
42	0xbea931e1	-0.33045867
43	0xbe8e17b6	-0.27752465
44	0x3d65f4a1	0.0561415
45	0xbe0d1501	-0.13777544
46	0x3eb48225	0.35255542
47	0xbe127c6f	-0.1430528
48	0xbe2bbc96	-0.16771159
49	0x3bf2176f	0.0073880474
50	0x3df14fcf	0.117828004
51	0xbdea6bcc	-0.11446342
52	0x3eae85b4	0.34086382
53	0xbeb4e7d0	-0.3533311
54	0xbe5d3f8d	-0.21606274
55	0xbdb18d6b	-0.086695515
56	0x3e5a3b56	0.21311697
57	0xbd566716	-0.052344404
58	0xbdcec8d2	-0.10096897
59	0xbea1a2c6	-0.315695
60	0x3eb45ef6	0.352287
61	0xbd88094c	-0.06642398
62	0x3e27b99a	0.16379395
63	0xbe94a007	-0.2902834
64	0x3e592177	0.21204172
65	0xbe92792e	-0.28608078
66	0x3d9e48c7	0.07728725
67	0xbe2836bc	-0.1642713
68	0xbe032829	-0.12808289
69	0xbd71bfc1	-0.05902076
70	0x3eab661a	0.33476335
71	0x3e64bcc0	0.22337627
72	0x3e3a6821	0.18203785
73	0x3d98d492	0.074624196
74	0xbe719a52	-0.23594025
75	0xbda0ac06	-0.07845311
76	0x3eb14a40	0.3462696
77	0x3e5534cf	0.20820926
78	0xbe0166df	-0.12636898
79	0x3dc2a1ed	0.09503541
80	0xbea84997	-0.32868645
81	0x3e25655b	0.16151945
82	0x3be5ed56	0.007016818
83	0xbe99afda	-0.30016977
84	0x3dcf86e0	0.10133147
85	0x3e942079	0.28931025
86	0xbe7bdf7d	-0.24596973
87	0xbd5b2d47	-0.053509977
88	0xbe1cebff	-0.153244
89	0x3e4e8bb8	0.20170486
90	0xbd12010c	-0.03564553
91	0xbe0851ee	-0.13312504
92	0x3d55dba7	0.05221143
93	0xbdc52db9	-0.096278615
94	0xbe86e97a	-0.26350003
95	0x3d573b5a	0.052546836
96	0xbdc2aa14	-0.09505096
97	0x3e9da45a	0.30789453
98	0x3ba30845	0.004975351
99	0xbe48b96d	-0.19601984
100	0xbd280fe9	-0.041030798
101	0xbe4e9174	-0.20172673
102	0x3d149cb0	0.03628224
103	0xbe9b9ac0	-0.30391502
104	0x3dbb91c9	0.09158666
105	0xbe092c9a	-0.1339592
106	0x3e544407	0.20729075
107	0x3e0d86c5	0.13820942
108	0x3e299f46	0.16564664
109	0xbe81a384	-0.25320065
110	0x3e0eedf2	0.13957956
111	0xbda592be	-0.080846295
112	0xbe6b5bf9	-0.22984304
113	0x3e8897f9	0.26678446
114	0x3e80b7c7	0.2514021
115	0x3e814849	0.25250462
116	0xbea8096e	-0.32819694
117	0x3e3b2b36	0.18278202
118	0x3e9665b8	0.2937448
119	0x3df3d916	0.1190664
120	0x3e16b97b	0.14719193
121	0xbc39663e	-0.01131588
122	0x3df4ee51	0.11959518
123	0xbe95744c	-0.2919029
124	0xbeb10fe4	-0.34582436
125	0xbe3a902e	-0.18219063
126	0x3d96e2f7	0.07367509
127	0x3cbd6b16	0.023122352
128	0xbd516e9a	-0.05113087
129	0xbe940476	-0.28909653
130	0x3dd3f6c7	0.103498034
131	0x3ea1be4b	0.31590495
132	0x3e897e25	0.26854053
133	0x3e93fd5c	0.28904235
134	0xbd25b3a5	-0.040454526
135	0x3d5ef148	0.054429322
136	0xbd55834f	-0.05212718
137	0x3e93cb22	0.28865916
138	0xbe1bbaec	-0.15208024
139	0x3d38eadb	0.04514585
140	0xbcee0c95	-0.029058734
141	0xbe1e5cd7	-0.15465103
142	0x3b097969	0.0020976907
143	0x3ea0c0f6	0.31397218
144	0x3d7b5e2a	0.0613691
145	0x3e0cd4ab	0.13753001
146	0xbdc523a5	-0.09625939
147	0x3e0abf0e	0.13549444
148	0xbe36de2b	-0.17858188
149	0x3e7ce1a6	0.24695453
150	0xbe9f4445	-0.31106773
151	0xbe8079c2	-0.25092894
152	0xbe5b627f	-0.21424292
153	0x3e5b08af	0.21390031
154	0x3e204dfe	0.15654752
155	0x3e3feaac	0.18741864
156	0x3e3e01be	0.18555352
157	0x3e69193a	0.2276353
158	0xbe5be6ac	-0.21474713
159	0x3c5966c8	0.013269134
160	0xbd089794	-0.03334768
161	0xbd8a56a6	-0.06754808
162	0xbe69f28a	-0.22846428
163	0x3da57a4d	0.08079968
164	0x3e0add87	0.13561068
165	0x3e9d034f	0.30666587
166	0xbe6a766d	-0.22896738
167	0xbdea05e3	-0.11426904
168	0x3e9acb56	0.30233258
169	0xbe253e90	-0.16137147
170	0x3e28fe2a	0.16503206
171	0xbe2527ed	-0.16128512
172	0xbea5b995	-0.3236815
173	0xbeab3319	-0.33437422
174	0xbe68ac03	-0.22721867
175	0x3ea880d4	0.32910788
176	0x3d5ee3a1	0.054416303
177	0xbe956bda	-0.29183847
178	0x3e7fa61a	0.24965706
179	0xbeaa8d43	-0.333109
180	0x3e7d686b	0.24746864
181	0x3e5943f0	0.21217322
182	0x3e716d82	0.2357693
183	0x3d0f887e	0.03504228
184	0x3e1e7b83	0.15476803
185	0x3e6ad61e	0.22933242
186	0x3dd8b57a	0.10581489
187	0x3e4f4eed	0.20244952
188	0x3e586020	0.21130419
189	0xbe9b4017	-0.30322334
190	0xbead0b1b	-0.33797535
191	0x3dad7eae	0.08471428
192	0x3d95e9ab	0.07319959
193	0x3e371810	0.17880273
194	0xbc605928	-0.0136931315
195	0xbe92dba8	-0.2868321
196	0xbe62e0f2	-0.22156122
197	0x3db82ae0	0.08992553
198	0x3ea7f59c	0.32804573
199	0x3e827f55	0.25487772
200	0xbe35b94b	-0.17746465
201	0xbeab5644	-0.33464253
202	0xbe58d472	-0.21174791
203	0xbe323acb	-0.1740524
204	0xbe9e9ea4	-0.30980408
205	0xbe07fb35	-0.13279422
206	0xbe68a1f8	-0.22718036
207	0xbe3d58b3	-0.18490867
208	0x3d8bf421	0.06833673
209	0xbb7d27c0	-0.003862843
210	0xbe12621e	-0.14295241
211	0x3e1ba50f	0.15199684
212	0x3e6287a6	0.22122058
213	0x3db40f2f	0.087919585
214	0xbe4e51a9	-0.20148338
215	0x3e4895c6	0.19588384
216	0x3e714cf0	0.23564506
217	0xbea56715	-0.32305208
218	0xbe99e992	-0.30061013
219	0xbd83c28a	-0.0643359
220	0xbe28f1b3	-0.16498451
221	0x3e5f6a85	0.21817978
222	0x3eb1422a	0.34620792
223	0x3e597109	0.21234526
224	0xbd98dc54	-0.07463899
225	0xbdfe9a35	-0.124317564
226	0xbe8cef76	-0.27526444
227	0xbcb06dd3	-0.021536743
228	0xbe93a978	-0.28840232
229	0xbe0ea8ba	-0.13931552
230	0x3d3c5b8e	0.04598575
231	0x3ea307f9	0.3184202
232	0xbc184d84	-0.009295825
233	0xbe7d4392	-0.24732807
234	0xbe243a18	-0.16037786
235	0xbe74fdf3	-0.23924999
236	0xbea3ffb8	-0.32031035
237	0xbcee0994	-0.029057302
238	0xbdecd892	-0.11564745
239	0x3eb3df77	0.35131428
240	0x3e2ff22f	0.1718223
241	0x3e8d8396	0.27639455
242	0xbd4f4df4	-0.05061145
243	0x3d8665f0	0.06562412
244	0xbe852b35	-0.26009527
245	0x3e38f5d6	0.18062529
246	0xbe7b398f	-0.24533676
247	0x3db2d962	0.08732869
248	0xbde9b5bd	-0.11411617
249	0xbd5c6ba7	-0.053813603
250	0x3de3ee3b	0.11129423
251	0xbe108a94	-0.14115363
252	0x3e9d8c7f	0.30771253
253	0x3c4e1b9a	0.012579823
254	0x3d5b15b8	0.05348751
255	0x3e1a2cfa	0.1505622

lstm.bias_ih_l0 f4 [32]
0	0x3e145282	0.14484599
1	0x3e0a6ccd	0.13518067
2	0x3c6cb07f	0.014446377
3	0xbd02e2e7	-0.031954672
4	0xc02414cc	-2.5637693
5	0x3e747426	0.23872432
6	0x3f052c1f	0.5202045
7	0xc005a170	-2.0879784
8	0x3e05a521	0.13051273
9	0x3e349685	0.17635544
10	0xbc4e898e	-0.012606038
11	0x3cd33c85	0.025785694
12	0x3ea60c3a	0.32431203
13	0xbe0373a4	-0.12837082
14	0x3ea8cbe3	0.32968053
15	0x3e9c1370	0.3048358
16	0xbe380506	-0.17970666
17	0x3eb56b18	0.3543327
18	0x3e6b60bd	0.22986121
19	0x3eb37b2e	0.35054916
20	0xbcf4c12a	-0.029877264
21	0x3d070621	0.03296483
22	0x3e8b83af	0.27248904
23	0xbe19d534	-0.15022737
24	0xbe142f79	-0.14471234
25	0x3ebc3d0d	0.36765328
26	0x3ec15d6c	0.37766588
27	0x3c7f93a1	0.015599162
28	0xc01c5935	-2.4429448
29	0x3ec013ef	0.37515208
30	0x3e8f8087	0.28027746
31	0xc030049e	-2.7502818

lstm.bias_hh_l0 f4 [32]
0	0xbebb2b11	-0.36556295
1	0x3df1e6e9	0.11811621
2	0xbdf99780	-0.121870995
3	0xbdd24b68	-0.10268289
4	0xc02aaa32	-2.666638
5	0x3efc0ad6	0.49227017
6	0x3f09bd99	0.5380493
7	0xc00cb581	-2.1985781
8	0x3d5db9c2	0.05413223
9	0xbe2160c2	-0.15759566
10	0x3e3e9242	0.1861048
11	0xbd369784	-0.04457809
12	0x3dd4ea49	0.10396249
13	0x3e4ee501	0.20204546
14	0x3e936e7d	0.28795233
15	0x3dc1d685	0.094647445
16	0x3dd496c7	0.10380321
17	0x3dee9578	0.11649603
18	0xbe6fceb1	-0.2341869
19	0xbd9ff61e	-0.07810615
20	0x3cabfb9f	0.020994006
21	0xbe5d08e4	-0.21585423
22	0xbe96452f	-0.29349658
23	0x3e1ad4ce	0.15120241
24	0x3e917a70	0.28413725
25	0xbd2bad31	-0.041913215
26	0x3e739eaf	0.23791002
27	0xbe6dc075	-0.23217948
28	0xc02d4e88	-2.7079182
29	0xba48412e	-0.0007639107
30	0x3ea01ba5	0.3127109
31	0xc02a9ff1	-2.666012

dense1.weight f4 [64, 8]
0	0xbd9bd86c	-0.076096386
1	0x3e4e0058	0.20117319
2	0xbc2d6f63	-0.010585639
3	0xbe91698a	-0.28400832
4	0x3da41a15	0.08012787
5	0x3e24ae60	0.16082144
6	0xbe2e48c2	-0.17019942
7	0xbef77459	-0.48330954
8	0x3ea734b8	0.3265741
9	0x3dcc9f26	0.09991293
10	0xbe6de6a2	-0.2323251
11	0xbedc8549	-0.43070439
12	0x3eabebfa	0.33578473
13	0x3e464c2d	0.19364996
14	0xbe1cdfec	-0.15319794
15	0x3d448e76	0.047987424
16	0x3c72fb47	0.014830417
17	0xbed34000	-0.41259766
18	0x3dba9841	0.091110714
19	0xbee6f5d8	-0.4510944
20	0x3c9b15c7	0.018931283
21	0x3ebed8e1	0.3727484
22	0x3f131e22	0.57467854
23	0x3b69963e	0.003564253
24	0x3d12cfb1	0.0358426
25	0xbe19821b	-0.14991038
26	0xbe639106	-0.22223291
27	0xbe550f09	-0.20806517
28	0xbea639e2	-0.32466036
29	0xbe236949	-0.15958132
30	0xbe81725d	-0.25282565
31	0xbe044348	-0.12916291
32	0x3e7ca474	0.24672109
33	0xbdadc4f6	-0.08484833
34	0x3d9444d4	0.072396904
35	0x3e7926e1	0.24331237
36	0xbdccbeaf	-0.099973075
37	0x3e0316a2	0.12801602
38	0x3ea9e32e	0.33181137
39	0x3e28df62	0.16491464
40	0x3e94fde7	0.29099962
41	0x3c89c4fe	0.016817566
42	0xbe9b0f9d	-0.3028535
43	0x3dbf383d	0.093368985
44	0xbe8cd4e2	-0.27506167
45	0xbc9127e1	-0.017719211
46	0x3df06c6d	0.117394306
47	0x3dff8d1b	0.124780856
48	0x3efbc848	0.4917624
49	0xbe26bc18	-0.1628269
50	0x3f14faba	0.5819508
51	0xbe8f8e2e	-0.28038162
52	0x3c4dbd47	0.012557334
53	0x3f252862	0.64514744
54	0x3f0398e9	0.514052
55	0x3bf7fac1	0.007567734
56	0xbe1bed73	-0.15227298
57	0xbe78a769	-0.24282612
58	0xbe229feb	-0.15881316
59	0xbe35023e	-0.17676637
60	0x3eb0f4a4	0.34561646
61	0xbe84dfdb	-0.25952038
62	0xbe7459bf	-0.2386236
63	0x3e136a0e	0.14395925
64	0xbe7ac677	-0.24489771
65	0xbed73005	-0.42028823
66	0xbebf2f5c	-0.3734082
67	0x3d9f62c9	0.07782514
68	0x3ec01a8e	0.3752026
69	0x3d17a67a	0.037024
70	0x3c0e4182	0.0086826105
71	0xbe9dd11e	-0.30823606
72	0xbe9d6ec8	-0.30748582
73	0x3df34dd5	0.1188008
74	0x3d72c3d4	0.059268788
75	0xbd670c27	-0.056408074
76	0x3e898492	0.26858956
77	0xbd89d55d	-0.06730149
78	0x3e0f1cdd	0.13975854
79	0x3e2eaa2b	0.17057101
80	0xbc28bfe5	-0.0102996575
81	0xbe1d9b4f	-0.15391277
82	0x38fdd2d8	0.00012103253
83	0x3e186a83	0.14884381
84	0x3dcaedd8	0.09908646
85	0xbb4a266b	-0.0030845653
86	0xbda3cad6	-0.07997672
87	0x3e626e1a	0.22112313
88	0xbeb12c9e	-0.34604353
89	0xbe94af37	-0.29039928
90	0x3da97eca	0.08276136
91	0xbde77a4f	-0.113026254
92	0x3e6f59c3	0.23374085
93	0xbe9b7c44	-0.30368245
94	0xbe513614	-0.20430785
95	0x3dae35c1	0.085063465
96	0x3dddc217	0.10828035
97	0xbcc52ce8	-0.024069265
98	0xbe15a859	-0.14615001
99	0xbe9dcfa2	-0.30822474
100	0xbe84e047	-0.2595236
101	0x3dbeb0cc	0.09311065
102	0xbea3980d	-0.31951943
103	0xbcdde117	-0.02708487
104	0x3e237cef	0.15965627
105	0xbe4efc1c	-0.2021336
106	0xbeacc71e	-0.33745664
107	0x3e108185	0.14111908
108	0x3dbf4d41	0.09340907
109	0x3dccf6e9	0.10008032
110	0x3e962bc3	0.29330263
111	0x3e8f7a05	0.2802278
112	0xbe041aed	-0.12900896
113	0xbe8b6a9f	-0.27229783
114	0xbe334737	-0.17507635
115	0x3d9255d6	0.07145278
116	0x3e596d83	0.21233182
117	0xbdbfc20d	-0.09363184
118	0x3e546f98	0.20745695
119	0x3d8dd8db	0.069261275
120	0x3d9753c1	0.07389022
121	0xbe01b61f	-0.1266713
122	0xbe61317c	-0.21991533
123	0x3c110fe9	0.008853891
124	0x3eb4ec34	0.3533646
125	0x3ee948a7	0.45563242
126	0xbe80c8be	-0.25153154
127	0x3dc875e5	0.097881116
128	0xbe979969	-0.2960923
129	0x3d7bdd17	0.061490145
130	0xbea5923c	-0.3233813
131	0x3e15f5cf	0.1464455
132	0xbe62c306	-0.22144708
133	0x3c74d920	0.014944345
134	0x3c086900	0.008325815
135	0xbbe51331	-0.006990813
136	0xbe6dbc50	-0.23216367
137	0x3db57751	0.088606484
138	0xbebe556c	-0.37174547
139	0xbe0bfa31	-0.13669659
140	0x3da6a247	0.08136421
141	0x3c21634b	0.009850333
142	0x3c2a812c	0.010406774
143	0xbe9b6acd	-0.3035492
144	0xbbb0def0	-0.00539767
145	0xbd452413	-0.048130106
146	0xbe9b7f80	-0.30370712
147	0xbe3ce675	-0.18447287
148	0x3e08b5b3	0.13350563
149	0x3e2d66b5	0.16933711
150	0x3e1d1367	0.15339433
151	0xbded7fcd	-0.11596642
152	0x3dc3404c	0.09533748
153	0xbe09d7f5	-0.13461287
154	0xbca97ecb	-0.020690342
155	0xbdedde76	-0.11614697
156	0x3e422f64	0.1896339
157	0xbe03d011	-0.1287234
158	0xbeab60d0	-0.334723
159	0xbf08c90c	-0.53431773
160	0xbe26d560	-0.16292334
161	0x3e331a0d	0.17490406
162	0x3e9af9bf	0.30268666
163	0xbea4baa2	-0.3217364
164	0xbe1626ee	-0.14663288
165	0xbe102b5a	-0.14079037
166	0xbe3950de	-0.18097255
167	0xbe462771	-0.19350983
168	0x3cfc2749	0.030780451
169	0x3d8b5c2e	0.06804691
170	0x3e412373	0.18861179
171	0x3e0b5e6e	0.13610241
172	0x3e7fa92c	0.24966878
173	0x3e743d30	0.23851466
174	0xbebef2a0	-0.37294483
175	0xbe9a2d09	-0.30112484
176	0xbce482e9	-0.027894454
177	0xbea08ddd	-0.31358233
178	0x3d95276b	0.07282909
179	0x3d3ee606	0.046606086
180	0xbe53e680	-0.20693398
181	0x3e0eafd6	0.13934264
182	0xbed33208	-0.41249108
183	0xbdae75f3	-0.08518591
184	0xbe65a0ac	-0.22424573
185	0xbde17efe	-0.1101055
186	0xbea1bc51	-0.31588987
187	0x3d45d85c	0.04830204
188	0x3eb5148c	0.3536724
189	0x3e9b2a54	0.3030573
190	0xbdabe2f6	-0.08392899
191	0xbe602c06	-0.21891794
192	0x3d687feb	0.056762617
193	0xbecd28d4	-0.40070212
194	0x3de4b119	0.11166591
195	0xbc9cd8e9	-0.0191464
196	0xbe512560	-0.20424414
197	0xbe900955	-0.2813212
198	0xbd00a50f	-0.031407412
199	0xbec8891b	-0.39167103
200	0x3d8e780f	0.06956493
201	0xbe02cd3b	-0.12773602
202	0x3e1d6dce	0.15373918
203	0x3eba4ed2	0.3638826
204	0xbe7e20fd	-0.24817272
205	0xbe2b5f00	-0.16735458
206	0x3e61af28	0.22039473
207	0x3e89669f	0.26836106
208	0x3e56774d	0.20943947
209	0x3ca5c821	0.02023703
210	0xbd9c1a62	-0.076222196
211	0xbe1bc842	-0.15213111
212	0xbd041183	-0.032243263
213	0x3d07c65f	0.033148166
214	0xbe606ef5	-0.21917327
215	0x3c223828	0.009901084
216	0x3cbed53d	0.02329504
217	0xbf051d59	-0.51997906
218	0xbe52d8dd	-0.2059054
219	0xbe67417c	-0.22583574
220	0xbe93e24c	-0.28883588
221	0xbdd8c7dc	-0.10584995
222	0xbdca40d1	-0.09875644
223	0x3dd06487	0.10175424
224	0xbe9cb4d4	-0.3060671
225	0xbdd0db3a	-0.10198064
226	0x3be5281c	0.006993307
227	0xbd8933ee	-0.06699358
228	0x3e55e04a	0.2088634
229	0xbe67266a	-0.22573248
230	0x3de66703	0.11250117
231	0xbe4de253	-0.20105867
232	0xbd341a8a	-0.043970622
233	0xbe6e9331	-0.23298337
234	0xbe6a01c2	-0.22852233
235	0xbe5289e0	-0.20560408
236	0x3cee9dea	0.029128034
237	0x3db8f369	0.09030802
238	0x3de0a192	0.10968317
239	0x3d0f1dd4	0.034940556
240	0x3eb3ac99	0.3509262
241	0x3e4935e3	0.19649462
242	0xbea3e0a8	-0.32007337
243	0x3eaba11e	0.3352136
244	0x3eb3c789	0.3511317
245	0x3e86dfde	0.26342672
246	0xbdbc66d3	-0.091993
247	0x3e68b186	0.2272397
248	0xbd735a51	-0.059412304
249	0xbdc97141	-0.098360546
250	0x3d8870dd	0.06662152
251	0xbe28f126	-0.16498241
252	0x3da75613	0.08170714
253	0xbdf0d482	-0.11759283
254	0x3db12dda	0.086513236
255	0xbd81511b	-0.06314298

dense1.bias f4 [64]
0	0xbbdd74a6	-0.0067582903
1	0xbd0b8c5a	-0.034069397
2	0x3ddc8d34	0.1076912
3	0xbbbc19ad	-0.0057403655
4	0xbe71c673	-0.23610859
5	0xbc24065b	-0.010011281
6	0x3db7620a	0.08954246
7	0xbe4813d5	-0.19538815
8	0x3c998a4b	0.018742701
9	0xbce68886	-0.028141271
10	0xbcd6a798	-0.026202962
11	0xbb4466d4	-0.0029968517
12	0xbe8b4964	-0.2720443
13	0xbe13cf15	-0.14434464
14	0xbd46591b	-0.04842482
15	0x3c247b89	0.010039219
16	0xbddc7fd3	-0.10766568
17	0xbd060e82	-0.03272868
18	0xbcfc1df4	-0.030776002
19	0x3c443500	0.011975527
20	0xbd06be4e	-0.032896332
21	0xbc53e3a4	-0.012932692
22	0x3d30d87d	0.04317521
23	0xbbb2f3cb	-0.0054611913
24	0xbc88046c	-0.016603671
25	0xbdddf93e	-0.10838555
26	0x3b5537e7	0.003253454
27	0x3cf42639	0.029803382
28	0xbd22eea9	-0.039778385
29	0xbce9b8dc	-0.02853053
30	0xbdc4e2ba	-0.09613557
31	0xbe891605	-0.26774612
32	0xbe3ac3eb	-0.182388
33	0x3d5f0481	0.054447655
34	0x3a8c8089	0.0010719459
35	0xbd496eea	-0.04917804
36	0xbdbd433e	-0.09241341
37	0x3e03d025	0.1287237
38	0xbd702a4c	-0.058634087
39	0xbd1e3236	-0.038622104
40	0xbd7f1a73	-0.062281083
41	0x3bd49aaf	0.0064881663
42	0xbdcd3ebd	-0.10021732
43	0xbeb0885b	-0.3447903
44	0xbc822363	-0.015886014
45	0xbea71df7	-0.3264005
46	0xbea5f031	-0.32409814
47	0xbe8a9063	-0.27063283
48	0x3d6f8792	0.0584789
49	0xbe71841d	-0.23585553
50	0xbe98c105	-0.29834762
51	0xbc8516e7	-0.016246272
52	0xbeb1be97	-0.3471572
53	0xbe60d0f7	-0.21954714
54	0x3dc75a54	0.097340256
55	0xbea2ca69	-0.31795052
56	0x3cecc683	0.028903252
57	0xbd81edf0	-0.06344211
58	0x3cf87ca0	0.030332863
59	0xbce30494	-0.027712144
60	0xbddcca7e	-0.1078081
61	0x3cf26074	0.029587008
62	0xbd052307	-0.032504108
63	0x3d4138db	0.047173362

dense2.weight f4 [1, 64]
0	0x3972abbf	0.00023142899
1	0x3b228389	0.002479764
2	0x3e5072a5	0.20356233
3	0xbc9b6e44	-0.018973477
4	0xbd867218	-0.065647304
5	0xba7f43e9	-0.00097375974
6	0x3eb2c766	0.34917754
7	0x3de18316	0.11011331
8	0x3caea5f4	0.021319367
9	0x39e7f1cb	0.00044239903
10	0x3b87f82f	0.004149459
11	0x3da77130	0.08175886
12	0xbd8d9e6e	-0.06914984
13	0x3dbed476	0.093178675
14	0xbb459a6f	-0.0030151864
15	0x3b11068e	0.002212915
16	0xbd12d254	-0.035845116
17	0x3cc517f9	0.024059283
18	0x3a99b059	0.0011725529
19	0xba6eea53	-0.00091138965
20	0xbc4bed50	-0.012446716
21	0x39a77a28	0.00031943736
22	0x3ac4da53	0.0015018679
23	0x3cecafd9	0.028892444
24	0x3affe2d9	0.0019522562
25	0xbc60ec1e	-0.01372817
26	0x383a7f42	4.4464374e-05
27	0x3aad6b9e	0.0013230925
28	0xbc83fd86	-0.0161121
29	0x39c2744d	0.00037089214
30	0xbdce0612	-0.100597516
31	0xbd0130cc	-0.031540677
32	0x3d703824	0.05864729
33	0xbc175d76	-0.009238591
34	0xbc7347a6	-0.014848625
35	0xbba53e14	-0.0050428007
36	0xbcc63120	-0.024193347
37	0x3ed189cb	0.4092544
38	0x3c893625	0.016749451
39	0xbca2838f	-0.019838123
40	0xbcb2d1bf	-0.02182853
41	0x3a3b3d3d	0.0007142609
42	0x3d24752c	0.040150806
43	0x3d0c1880	0.034203053
44	0x3b395fb9	0.0028285815
45	0xbdfb7966	-0.12279014
46	0x3e2a00c1	0.1660185
47	0xbdaa1020	-0.08303857
48	0x38557688	5.0893548e-05
49	0xbd3e3b70	-0.046443403
50	0x3d8f262a	0.06989701
51	0xb87ef8c4	-6.079e-05
52	0x3d91ebc6	0.07125048
53	0xbdaadafe	-0.08342551
54	0x3d990e8b	0.07473477
55	0x3e9f81c4	0.3115369
56	0xbdfd01eb	-0.123538814
57	0xbc85bf6e	-0.016326632
58	0xbced99dd	-0.029004032
59	0x3b3b5b9c	0.002858854
60	0xbc7ea2b0	-0.015541717
61	0x39eea3e9	0.0004551702
62	0xbd9bdd43	-0.07610562
63	0xb8dae495	-0.00010437627
